PYTORCH/Ch.3/model_save/MLP_MNIST.pt (torch, 319659 bytes, 4 tensors)

linear.0.weight f4 [100, 784]
000000 fc 8e cf bc 9a 59 dc bc 97 92 90 bc b2 5d ec 3c
       -0.025336735 -0.026898194 -0.017648024 0.028853271
000010 2c f8 ed bc ea 92 b3 3c f8 af f9 bb a0 92 1d 3c
       -0.029049002 0.02192064 -0.007619854 0.009617478
000020 b8 35 38 bc 66 cf 26 bc 14 56 76 3c b2 ed e7 3c
       -0.011243276 -0.010181284 0.015035171 0.028311584
000030 ca 17 f1 3c ee 5c e1 bb 8a 1b d3 bc 44 6c 3e 3c
       0.029430289 -0.006877533 -0.025769968 0.011622492
000040 e6 4a 3b bc b0 6d 1d bb 93 bc bd bc 60 70 c7 ba
       -0.011431431 -0.0024021678 -0.023161208 -0.0015215985
000050 23 45 a5 bc 76 1c e4 3c 1a 4a db 3c 40 ec b7 3c
       -0.020174569 0.027845602 0.026768733 0.02245152
000060 e0 fe fa ba d0 d6 9a bc 50 78 c0 3b 92 db 67 bc
       -0.0019149445 -0.018901259 0.0058737174 -0.014151471
000070 90 b5 bb 3b c7 4f 0d 3d a8 c8 f5 bc d0 cd 91 bc
       0.005728431 0.03449991 -0.030002907 -0.017798334
000080 c4 23 87 3d 0e a7 88 3d 8c 86 c0 3d 72 a3 b7 3d
       0.065986186 0.06672488 0.09400663 0.089667216
000090 bb ff c9 3d 48 9b 6a 3d 6d 44 9b 3d 78 f3 87 3d
       0.0986323 0.057276994 0.075814106 0.06638235
0000a0 b5 4b 42 3e 21 d9 91 3e d8 75 82 3e d1 1a 18 3d
       0.18974192 0.2848597 0.25480533 0.03713495
0000b0 4a 63 fa bd 4a f5 9b bd ce e0 7e 3e a5 90 a5 3e
       -0.12225969 -0.076151446 0.24890444 0.32336918
0000c0 a8 1b a4 3e a5 c6 50 3e e5 fb 0b 3e 3f a4 0b 3e
       0.3205235 0.20388277 0.13670309 0.13636874
0000d0 0e 59 b5 3c 1c c2 9c 3c 3a a5 8b 3c 92 8e 27 bc
       0.022137191 0.019135527 0.01704656 -0.0102268625
0000e0 20 9c e8 3b 00 40 75 36 ec a7 9e 3d 44 85 fe 3b
       0.0070986897 3.6545098e-06 0.07746872 0.0077673513
0000f0 7c 83 2b 3e ce 09 4e 3e 85 6b 99 3d a1 57 fa 3d
       0.16749376 0.20120928 0.07491211 0.12223745
000100 47 20 63 3e 30 23 d0 3d e3 0f 5e 3e ab 4e c2 3e
       0.22180282 0.101629615 0.21685748 0.37950644
000110 a8 73 a5 3d 05 11 60 3e 5b a0 d5 3e 8c 32 24 3f
       0.080787 0.21881492 0.41723904 0.6413963
000120 4f 9b 1b 3f 47 78 9a 3e de 7a a1 3d c2 08 02 3e
       0.6078386 0.3016989 0.07884763 0.12698653
000130 91 cb 44 3e 66 dd 71 3e b8 ed 31 3e 72 16 5b 3d
       0.1921828 0.23619613 0.17375839 0.053488202
000140 e7 22 0a 3e 77 54 26 3d 15 a1 b4 bc 43 07 f9 bc
       0.13489877 0.040607896 -0.022049466 -0.03039897
000150 40 84 2e bc 70 69 95 3b 8d d3 25 3e d0 55 9c 3d
       -0.010651648 0.0045596883 0.16193981 0.07633555
000160 70 14 09 3e 19 ae 82 3d 9a b3 3c 3d 79 86 18 3d
       0.13386703 0.06380863 0.04606972 0.037237618
000170 d8 c3 3f be af c6 dd 3d 5a f8 ff 3d 41 ff 61 be
       -0.18727052 0.108289115 0.12498541 -0.22070028
000180 f5 6d 98 be 3b ae ab 3b b4 c7 55 3e 54 98 63 bd
       -0.2977139 0.0052392757 0.20876962 -0.055565193
000190 3f 4f 09 bd 80 13 0a 3d 1f d3 06 be 01 35 56 3e
       -0.03352284 0.033710003 -0.13166474 0.20918657
0001a0 8a 9c 84 3e c0 15 2b 3d c1 4c b5 bc ed d2 dd bd
       0.2590068 0.04176879 -0.022131326 -0.108312465
0001b0 21 6e 26 3e 26 d6 4b 3c fa cc a2 3c f0 d2 cb 3c
       0.16252948 0.012441194 0.019873131 0.024880856
0001c0 0c 1b eb bc 0e 1f 44 bc 44 fc 17 3e 55 7d 2a be
       -0.02869942 -0.011970295 0.14842325 -0.16649373
0001d0 b0 4d 58 be ce a7 84 be b3 3a ba be 76 f1 37 be
       -0.21123385 -0.25909275 -0.3637291 -0.17963204
0001e0 a7 4e 09 3e ad e8 9c 3e bd 60 9e 3e bd d2 e8 3d
       0.1340891 0.30646268 0.3093318 0.1136832
0001f0 47 a2 4f 3d 0b 4f 11 3e 1b 9b 86 bb 59 4b d4 bd
       0.05069187 0.14190309 -0.0041078455 -0.10365934
000200 26 e8 0c be 31 79 4d be 67 b4 8b be ed db f8 3c
       -0.13760433 -0.20065762 -0.27286074 0.030378306
000210 37 66 f1 bd cd 2d 1b be cf d5 b4 be 1d 5d 0f be
       -0.11787074 -0.1515419 -0.35319373 -0.14000364
000220 86 62 0f 3e a7 3a d1 bd 67 94 4d be 93 6d 03 bb
       0.14002427 -0.10216265 -0.20076142 -0.0020054325
000230 9c 4a 7d bc d6 57 ed 3c a1 a8 8c 3e 56 6b 84 be
       -0.015459683 0.028972548 0.27472404 -0.2586314
000240 d4 95 ad be 01 1d 27 be 29 af a5 be a1 04 67 be
       -0.33903372 -0.16319658 -0.323602 -0.2256036
000250 d8 37 6d 3d 2d 41 89 3d 60 cc df 3d 00 d8 8e bc
       0.057914585 0.067018844 0.10927653 -0.017436981
000260 57 47 fe 3c dc 51 cb bd e1 ad 07 be 8f ea 38 3c
       0.031039877 -0.09927723 -0.13249923 0.011286392
000270 c6 3d 45 be 72 0a 64 be 93 1c ae bd 20 04 59 be
       -0.19261846 -0.2226961 -0.08501544 -0.2119298
000280 e7 a3 a9 be 97 55 ea bd f4 b3 25 be 9f fa eb 3d
       -0.3313286 -0.11442106 -0.16181928 0.115224116
000290 d6 fc fb 3d 0f cd 4a be ad 6b 87 be 2b 67 11 be
       0.12304084 -0.19804786 -0.26449338 -0.14199512
0002a0 40 ab 1f bc 13 a5 b4 bc fa 37 59 bd 5f 2e 89 bd
       -0.009745419 -0.02205137 -0.0530319 -0.06698298
0002b0 8f 5f 10 be 16 11 ab bd 5c a8 ab bd be 4c 81 bd
       -0.14098953 -0.08352868 -0.083817214 -0.063134655
0002c0 1f 6c c8 bb d5 52 5d bd fd 56 bd bd 6b c2 2f 3c
       -0.0061164047 -0.054034073 -0.09245107 0.010727505
0002d0 fa 97 a9 3c 23 51 4b bc 5a 80 4b bd b0 39 26 3d
       0.02070235 -0.012409481 -0.049682952 0.04058236
0002e0 16 56 e4 bc d4 1f 71 bd 61 f9 f7 bd 53 3e 9b be
       -0.02787308 -0.058868244 -0.12108112 -0.30320987
0002f0 1d 58 9f be da 2a 0d 3e 83 b9 59 3d 48 26 5b bd
       -0.31121913 0.13785878 0.053155433 -0.053503305
000300 7f d9 b7 bd 20 f4 41 be 21 b0 bd be cb d0 80 be
       -0.08977031 -0.18940783 -0.37048438 -0.25159296
000310 eb 7d 0f 3d ca 09 06 3e b9 dc ab bc ba d4 13 be
       0.035032194 0.13089672 -0.020979272 -0.14436617
000320 8c 59 96 be f2 40 45 be 5e 3c 24 be 45 82 d3 bd
       -0.29365194 -0.19263056 -0.16038653 -0.10327581
000330 bd 56 78 bd 3d f7 be 3d 95 bd 24 3b da 68 d4 bc
       -0.060629595 0.09324501 0.0025137414 -0.025928903
000340 03 64 4e 3d 89 b8 68 3d 6c 96 d6 3d cc 5e 12 3d
       0.050388347 0.05681661 0.104779094 0.035734937
000350 76 eb f2 bb 1e f8 1f bd fe e2 0a be a5 42 52 be
       -0.007413323 -0.039054982 -0.13563153 -0.20533235
000360 22 6c 38 bd bf 71 4e 3e b5 4d 43 3e 23 7c e0 bd
       -0.045025 0.20160578 0.19072612 -0.10961177
000370 78 80 82 be d2 dd 1b be 74 d0 eb bd f3 3b d9 be
       -0.2548864 -0.15221336 -0.11514369 -0.4242855
000380 40 19 bf 3c ca b6 3a 3e 2c 50 f9 bc e2 84 37 be
       0.02332747 0.18233791 -0.030433737 -0.17921785
000390 35 a5 97 be 85 64 16 3d cd 34 0d 3d b3 a6 6d bc
       -0.2961823 0.036716957 0.034474183 -0.014505076
0003a0 41 4f 50 3d 3c 9d 00 3e dd 2b 37 3e 6d 4f a0 bc
       0.050856832 0.1255998 0.17887826 -0.019569123
0003b0 e7 42 25 3d 9e b6 26 3e 86 8a 61 3e 3e 1a a4 bc
       0.040347006 0.162806 0.22025499 -0.020032045
0003c0 db 9a 8d be 12 cd 01 be 2c a8 3b be 07 d4 6b 3c
       -0.27657208 -0.12675884 -0.18325871 0.014393813
0003d0 95 c4 91 bd 7b 40 9f 3c 74 fb e0 3b 3c e9 38 3e
       -0.07117573 0.019439926 0.006865913 0.18057722
0003e0 e2 25 1a bb 88 75 7f be 82 55 bc bd d2 29 bf be
       -0.0023521115 -0.24947178 -0.09195997 -0.37336594
0003f0 48 2b 82 3d 53 3c 1d 3e c8 fc 78 3e 09 f2 2d 3d
       0.063559115 0.15355043 0.24315178 0.04246715

linear.0.bias f4 [100]
000000 87 0f 25 3d 89 fc e1 3d 4c 8b a6 bd c0 60 40 bc
       0.04029801 0.110344954 -0.081320375 -0.011741817
000010 fb 1a 92 bd 04 81 26 3c 2e de ac 3d c9 7c 1c be
       -0.07134052 0.010162596 0.08440815 -0.15281977
000020 2a e2 78 bc 5e c2 c5 3c e0 2c 02 3e 80 8e 1a 3e
       -0.01519064 0.024140533 0.12712431 0.15093422
000030 c1 e5 15 3e f7 af 76 3e 8d c9 c3 3b bc 3f a3 3e
       0.14638425 0.24090563 0.0059749545 0.31884563
000040 99 be d3 3d 00 b8 1f 3e fa fb c4 3d 22 13 11 3e
       0.10339088 0.15597534 0.09618373 0.14167455
000050 0e 0c 6e 3e 58 52 f0 3c 12 1f 7f ba 1d 7b 97 3d
       0.23246786 0.02933614 -0.0009732108 0.07396529
000060 51 59 30 be 50 ae 39 3e 2a ee f4 3d ed a1 17 3e
       -0.17221572 0.18132901 0.11959489 0.14807864
000070 cf 9a 91 3d ca d2 88 be 23 1e 21 be 7a 22 2c 3b
       0.071096055 -0.2672332 -0.15734152 0.0026265667
000080 c6 db da bd 1e 94 1e be 67 9b ce 3d 82 de 1a bd
       -0.1068645 -0.1548619 0.100882344 -0.037809856
000090 bc d3 3d 3d 54 c5 41 3e 61 40 9b 3e 73 fb 41 3e
       0.046344504 0.18922931 0.30322555 0.18943577
0000a0 cb b2 15 be ee e0 25 bd 57 4a 29 3d c7 65 a0 bc
       -0.14618985 -0.040497713 0.04133066 -0.019579781
0000b0 fe 80 9c bd 20 c7 b4 3d af 39 d1 bc 78 66 67 bd
       -0.07641791 0.088270426 -0.025540201 -0.056494206
0000c0 9b bd 2d 3e a1 ef 46 3d 4f 7f 3f be 0e 82 16 bd
       0.1696686 0.04856837 -0.18700908 -0.036745124
0000d0 54 86 af bc 64 33 ab 3e aa 67 40 3d 05 4d 7d 3c
       -0.021426357 0.33437645 0.04697386 0.015460257
0000e0 e4 b2 5e 3d fe a5 0e 3d c4 e8 4f 3e 38 87 08 3d
       0.054369822 0.03482627 0.20303637 0.03333208
0000f0 10 62 78 3d cf a9 8e 3d ed df c1 3e db da 88 3e
       0.060640395 0.06965982 0.37866154 0.26729473
000100 4c 4f 7f 3e f1 8b 6b be 0a 9f 00 be de fc c0 bb
       0.24932593 -0.23002602 -0.12560669 -0.005889519
000110 7b 50 9a 3e 15 c6 2d 3e 7a 83 ff bc ff bc 14 be
       0.30139527 0.16970094 -0.031190623 -0.14525221
000120 09 ca fd 3d 20 81 40 3e fd d7 8f bd 4b 41 05 be
       0.12392051 0.18799257 -0.07023618 -0.13013189
000130 e1 8d b3 3c 26 f3 e8 bb aa 0e c1 3d 10 e7 74 bd
       0.02191824 -0.0071090637 0.09426625 -0.05979067
000140 ec 23 c7 3d 70 b3 1a be b2 ef 88 bd 23 49 ec bc
       0.097236484 -0.15107512 -0.06686343 -0.028843468
000150 b8 12 64 3e 35 fc 5c 3e ea 1b 95 3e 46 1c 68 3c
       0.22272766 0.21580584 0.2912286 0.014166897
000160 e7 e1 6a 3d 10 dc 2a 3e 1e 57 48 bd 8c 4a a5 3c
       0.057344344 0.1668551 -0.048911206 0.020177148
000170 b8 09 2b be 73 88 2a 3d c6 bf 98 3c df e3 71 bb
       -0.16702926 0.041634034 0.018646132 -0.0036909503
000180 a8 7d 10 3e 3f 60 28 be 07 34 0c 3e f1 69 21 3e
       0.14110434 -0.16442965 0.13691722 0.1576307

linear.2.weight f4 [10, 100]
000000 b4 f6 ed bd fc 5f bf be 35 5d 4e bf 48 e8 7b 3a
       -0.116193205 -0.37377918 -0.8061097 0.0009609503
000010 b7 32 a0 bd d4 84 36 bc 74 c8 82 bd d6 3d 16 be
       -0.07822173 -0.011140067 -0.0638589 -0.14672026
000020 0b 40 26 bd c9 4b 93 3e 46 a9 6d 3d bf 89 5e be
       -0.04058842 0.28768757 0.05802276 -0.21732233
000030 ee 8b c8 be a3 ab 6a be f0 7a 97 bd 31 f5 5e 3e
       -0.39169258 -0.22917037 -0.07396495 0.2177322
000040 1d 5f 0a bf 26 69 9b bd 47 6f d4 3b 2a 55 3d bf
       -0.5405138 -0.07588415 0.006482992 -0.73958075
000050 9f 01 ed 3c c5 eb 63 bd 94 03 4d bd 5c 4d 93 bd
       0.028931437 -0.05564477 -0.05005224 -0.071924895
000060 f3 e2 a4 3d 03 50 2b bf 0a 3a 2a bf 2b 31 6c 3d
       0.080511 -0.66918963 -0.6649481 0.057664078
000070 98 29 18 bf d8 d8 9a 3d 45 d3 03 3e 0b ef 1f bf
       -0.5943847 0.07560891 0.12873562 -0.62474126
000080 d8 0b b5 be d4 f0 99 3e 3e 48 4f 3e 54 38 aa bc
       -0.353606 0.3006655 0.20242402 -0.020778812
000090 f3 0f fe be 02 e5 10 3e c3 b9 85 bf dc 37 36 bf
       -0.49621543 0.1414986 -1.0447315 -0.71178985
0000a0 a8 1d 39 bd bf 32 a7 bd d0 f1 04 be ff d6 df be
       -0.045194298 -0.08163976 -0.12982869 -0.43718717
0000b0 80 6b c2 3e c4 39 83 be 63 48 0d bc a0 bb a7 bf
       0.3797264 -0.2563001 -0.008623215 -1.3104134
0000c0 64 54 da be e8 a8 4e 3e 15 b4 d7 3c 87 ac 2a bf
       -0.4264251 0.2018162 0.026330987 -0.66669506
0000d0 90 02 5a bd 03 8f ac bd a4 10 01 3e 46 99 35 3e
       -0.0532251 -0.08425715 0.12604004 0.1773425
0000e0 a9 e1 0c 3e 44 98 03 3e d5 71 84 bd a7 d5 51 3e
       0.13757958 0.12851053 -0.06467024 0.20491658
0000f0 68 ea 88 3e 13 b9 2e bf 86 46 45 be 87 f5 2a bd
       0.26741338 -0.6825115 -0.19265184 -0.04173806
000100 e1 22 23 be 93 4e 6b be fe dd 97 3d 46 00 83 3e
       -0.15931274 -0.22979192 0.074153885 0.25586146
000110 09 e0 af bc d4 8a 23 3f 5e ab 79 3d 90 5b f0 3d
       -0.021469133 0.6388371 0.060954444 0.11736214
000120 97 38 4d 3e 04 a7 ba 3e 37 2a 16 bf ae 4e 86 3d
       0.20041119 0.36455548 -0.58658165 0.06557976
000130 c7 fc 83 bf 6a e6 ee be da 7c c3 3d 0a 36 c8 be
       -1.0311517 -0.46660167 0.09545298 -0.3910373
000140 00 cd 3c 3e 8f fc 72 3d 1f a5 0f 3e 6b b9 ad 3d
       0.18437576 0.05932289 0.14027832 0.08482631
000150 2b 8d 17 bf 84 db 0f 3e 75 db 74 3e 6e f3 df 3c
       -0.5919978 0.14048582 0.23911841 0.027337756
000160 48 21 9d 3d 68 16 30 bf ca b9 b2 3d 4d f8 43 3e
       0.076723635 -0.6878419 0.08726843 0.19137688
000170 b7 1f 33 bf 4a 69 d7 3d 86 ce 84 3e 8b 5b 94 3d
       -0.6997027 0.10518129 0.25938815 0.07244023
000180 59 2e 66 bd 38 1d 87 be 09 60 95 3d 83 7e 73 be
       -0.056196544 -0.2638948 0.07293708 -0.23778729
000190 a2 22 79 3e 48 18 dd 3e 94 cf bc 3c ce 0e bc bc
       0.24329618 0.43182588 0.0230482 -0.022956278
0001a0 7a 6b b0 3d e7 ed a0 be 59 8e 4f 3e f2 83 36 3d
       0.086142495 -0.31431505 0.20269145 0.044559427
0001b0 cd 5f 22 3d 6e 15 39 bf 27 f2 34 bf 01 53 da be
       0.039642144 -0.72298324 -0.70681995 -0.42641452
0001c0 82 cb 02 3e f4 77 17 3f 27 9f ce bd d6 a4 12 be
       0.12772945 0.5916741 -0.1008895 -0.14320692
0001d0 d0 be 51 3e b6 ce 4f 3d 94 11 33 be a7 f4 c8 3e
       0.20482945 0.050734244 -0.17487174 0.39249155
0001e0 11 1c 12 3f 15 d0 5c bf 91 58 1d bc a5 6b 90 be
       0.57074076 -0.8625501 -0.009603635 -0.28207126
0001f0 62 1a af be cd 55 6e 3c 92 09 18 bd 7a 7b c0 bd
       -0.34199816 0.014546824 -0.037118502 -0.09398551
000200 1b 69 1f 3e 09 53 b6 be 4e 5c 8b 3d 6e 8c 6b 3e
       0.15567438 -0.35610226 0.06804715 0.23002788
000210 ae 34 0f be 61 2e 09 be 53 12 11 bf b9 1a 01 bf
       -0.1398494 -0.13396598 -0.56668586 -0.504314
000220 b5 a2 26 bf 2a 20 5f bf d4 66 45 3e 35 81 42 bf
       -0.6509202 -0.87158453 0.19277507 -0.75978404
000230 5c 27 a0 be 20 1c 86 bd 70 47 a6 3e 1c ba a6 be
       -0.3128003 -0.06548333 0.32476377 -0.32563865
000240 4c 83 1b bc 7b ab 08 3e de 9d c4 3b b1 52 e6 bd
       -0.009491753 0.13346665 0.0060002645 -0.11246241
000250 fb 0b d1 bd d5 50 b6 be 7e 9f 95 3e 4c d1 ca 3e
       -0.10207363 -0.35608545 0.29223245 0.39612806
000260 c3 66 1f bd a2 1f 9e bc 98 1c 10 3d df 8b 3e bd
       -0.03891636 -0.019302193 0.03518352 -0.04652011
000270 26 13 01 be 35 c2 82 bc a8 66 08 be 97 32 0c bf
       -0.12604961 -0.015961746 -0.1332041 -0.54764694
000280 2a f2 8b bd df b8 0c 3e 19 a6 26 bd ec 7c 43 3d
       -0.068332985 0.13742398 -0.040685747 0.047726557
000290 5c fa 2d 3e c1 c7 98 3d 43 88 ea be be 44 ea 3e
       0.16990036 0.07459975 -0.45807084 0.4575557
0002a0 73 3c 8d bd a6 5f fb bc 8b af ea 3d d0 ab a7 be
       -0.068962954 -0.030685257 0.114592634 -0.3274827
0002b0 b1 92 af be 9f 8c 12 3f 57 25 49 3e 6b a4 ae 3d
       -0.34291604 0.5724582 0.1964315 0.08527454
0002c0 3e 84 49 bf 1e 09 dd 3e 86 3d 5b 3e 35 ae 70 3e
       -0.7871741 0.43171018 0.21410188 0.23503955
0002d0 a1 f2 7e bd ab 06 cd 3e 3e 88 b4 be f3 16 f6 be
       -0.062243108 0.4004415 -0.35260195 -0.48064384
0002e0 4f 1d 41 3e bb 31 89 3d c9 30 14 bf 67 31 10 be
       0.18858837 0.066989385 -0.5788694 -0.14081345
0002f0 87 be 11 be cd dd a4 be e1 2e 3c be 8c d1 c9 3e
       -0.14232837 -0.3220047 -0.18377258 0.39417684
000300 27 b8 d6 bd 10 4c 86 3e 3d 9e a0 bc 40 bc 58 bf
       -0.10484343 0.26229906 -0.019606704 -0.84662247
000310 8e 7c 8b 3e 05 11 33 3e 77 38 22 3e 53 4c 45 be
       0.27243465 0.17486961 0.15841852 -0.19267397
000320 77 97 b6 3e fb 81 40 be f7 a3 e4 3e 7f 78 e6 bb
       0.35662434 -0.18799584 0.44656345 -0.007033407
000330 51 b9 91 3c 3f db fc be c7 0b 36 3e bf c8 46 be
       0.017788561 -0.49386021 0.1777793 -0.19412516
000340 58 1c b6 bd 80 99 d4 3d bf 96 62 be 9a f4 92 3e
       -0.08892125 0.1038084 -0.22127818 0.2870224
000350 d9 a8 bd 3e b8 49 9a 3e c5 a7 8c 3d 87 62 c1 be
       0.37042883 0.30134368 0.06867937 -0.37770483
000360 0a ed 30 bd 36 8b 4f 3e 9e 20 b5 bd 06 96 d2 bd
       -0.043194808 0.20267949 -0.08844112 -0.10282521
000370 1f ef 23 bf d3 8c 93 3d eb 83 c9 bd 33 b4 06 be
       -0.64036745 0.072045945 -0.098396145 -0.13154678
000380 a2 3a 11 3e d7 fb 53 3e 04 10 82 be 4c 80 cb be
       0.14182523 0.20701538 -0.25402844 -0.3974632
000390 b8 aa d1 3d b0 b3 d5 3d 0a 29 2e 3e a0 23 94 bf
       0.1023764 0.10434663 0.17007843 -1.1573372
0003a0 7c 4a df 3e f5 af 4a 3e 63 bc 1c 3d a8 53 f7 3d
       0.43611515 0.19793685 0.038265597 0.12076503
0003b0 d4 f6 f2 bd 8e 02 84 3d ee cb 06 3f 02 49 06 bf
       -0.11863485 0.064458 0.5265492 -0.5245515
0003c0 50 6c 7d bd c4 70 02 bd 26 f2 3d 3e db aa 8f 3e
       -0.061870873 -0.031845823 0.18549404 0.2806004
0003d0 22 b0 8b 3e b6 40 cb 3d 9d 44 a2 3c 88 a7 ff be
       0.27282816 0.09924452 0.019808108 -0.49932504
0003e0 49 cf 59 3e 5f c3 41 be 09 c5 65 3e bb 41 37 3c
       0.2127048 -0.18922184 0.22438444 0.011185105
0003f0 4c a2 a6 3d 10 eb 57 bf 9b c8 17 bd 62 cb 68 be
       0.081364244 -0.8434305 -0.037056547 -0.22733834

linear.2.bias f4 [10]
000000 a8 9b 4b bd b6 d0 ae bd a5 b8 91 bd a1 57 d3 bd
       -0.049708992 -0.08535902 -0.07115296 -0.10319448
000010 8e 73 53 3d bd 68 82 3d ad ca 0e bd 14 13 33 be
       0.051623873 0.063676335 -0.034861255 -0.17487746
000020 e2 c4 3b 3e 2b d0 2f bd
       0.18336824 -0.042923134
