DL/AI_Deep_Dive/Loss_Landscape/model_save/BNReLU100C1_VG_MNIST.pt (torch, 370879 bytes, 301 tensors)

weight f4 [1, 1, 3, 3]
-0.058589596 0.15067554 -0.18855217 -0.2039205 -0.047215 0.2173996 0.097453006 0.4051495
0.08608721
00000000: a5fb 6fbd b04a 1a3e d213 41be 89d0 50be
00000010: 8464 41bd 009e 5e3e 7195 c73d c16f cf3e
00000020: 7e4e b03d

weight f4 [1, 1, 3, 3]
-0.11935258 -0.31213078 -0.19875693 -0.38248247 -0.16133264 -0.08670618 0.07267877 0.09175168
0.23395269
00000000: 206f f4bd 9bcf 9fbe f086 4bbe bed4 c3be
00000010: 6234 25be 0293 b1bd 9bd8 943d 4ee8 bb3d
00000020: 4b91 6f3e

weight f4 [1, 1, 3, 3]
-0.11393343 -0.060920194 0.31897905 0.35155717 0.13264593 0.4029202 -0.02954622 0.021429477
0.050480936
00000000: ee55 e9bd 7487 79bd 3951 a33e 4dff b33e
00000010: 56d4 073e 8e4b ce3e ea0a f2bc df8c af3c
00000020: 19c5 4e3d

weight f4 [1, 1, 3, 3]
-0.47249028 -0.44970083 -0.09570207 -0.2548422 0.17834099 -0.2369071 -0.20112869 -0.18217307
-0.00207628
00000000: 3fea f1be 303f e6be 72ff c3bd ad7a 82be
00000010: 059f 363e c697 72be aef4 4dbe 948b 3abe
00000020: 3312 08bb

weight f4 [1, 1, 3, 3]
-0.3529452 0.102622405 -0.015414188 0.030751627 -0.178739 -0.29630694 0.0006379329 -0.41081592
-0.14475094
00000000: 3cb5 b4be b22b d23d ca8b 7cbc d6ea fb3c
00000010: 5b07 37be 8bb5 97be f43a 273a 7756 d2be
00000020: 9739 14be

weight f4 [1, 1, 3, 3]
-0.037518676 0.38567734 0.27350116 -0.091687255 0.14745875 0.10507655 0.39661402 -0.037516255
-0.096458495
00000000: 2fad 19bd 8077 c53e 5808 8c3e 87c6 bbbd
00000010: 6dff 163e 6032 d73d fe10 cb3e a5aa 19bd
00000020: 088c c5bd

weight f4 [1, 1, 3, 3]
0.18297395 -0.31047475 0.027793517 -0.33010712 -0.19749978 -0.22703984 0.24658804 0.16777098
-0.19764215
00000000: 865d 3b3e 8cf6 9ebe 3baf e33c cd03 a9be
00000010: 623d 4abe 227d 68be 9381 7c3e 28cc 2b3e
00000020: b462 4abe

weight f4 [1, 1, 3, 3]
0.009046407 0.1999524 -0.18370815 0.12749821 -0.025815876 0.0248685 0.26474693 -0.40257123
-0.2518258
00000000: 6237 143c 52c0 4c3e fd1d 3cbe e48e 023e
00000010: d17b d3bc 06b9 cb3c e98c 873e d11d cebe
00000020: 50ef 80be

weight f4 [1, 1, 3, 3]
0.27250427 0.30251437 0.13398705 0.27979544 0.086982764 -0.4148011 0.10067558 -0.18712349
-0.35883132
00000000: ae85 8b3e 2ae3 9a3e e733 093e 5941 8f3e
00000010: 0524 b23d cf60 d4be 002f ce3d 4d9d 3fbe
00000020: bdb8 b7be

weight f4 [1, 1, 3, 3]
0.2825491 0.23560327 -0.42713332 0.12307502 0.014713907 -0.037650023 -0.08484067 0.12909262
-0.29454237
00000000: 47aa 903e fc41 713e 38b1 dabe c20e fc3d
00000010: 9912 713c e936 1abd f2c0 adbd db30 043e
00000020: 42ce 96be

weight f4 [1, 1, 3, 3]
-0.061191734 0.15195526 0.17677909 0.22680737 -0.29632673 -0.36581448 0.27386603 0.0942632
-0.28509027
00000000: 2fa4 7abd 299a 1b3e 9405 353e 3140 683e
00000010: 23b8 97be 094c bbbe 2b38 8c3e 110d c13d
00000020: 5af7 91be

weight f4 [1, 1, 3, 3]
-0.37706828 0.21302964 0.28954422 -0.050390385 -0.032619767 -0.3792965 -0.020973552 -0.2603555
-0.2037302
00000000: 180f c1be 7124 5a3e 243f 943e 2666 4ebd
00000010: 4e9c 05bd 2733 c2be bad0 abbc 514d 85be
00000020: a69e 50be

weight f4 [1, 1, 3, 3]
0.0060302373 -0.03615399 -0.26754236 0.09952783 -0.366928 0.34389377 0.054012045 -0.3105557
-0.17314601
00000000: 4c99 c53b 3516 14bd 50fb 88be 3fd5 cb3d
00000010: fddd bbbe d812 b03e bc3b 5d3d 2801 9fbe
00000020: 304d 31be

weight f4 [1, 1, 3, 3]
-0.005053371 -0.15326284 -0.034391206 -0.10777859 -0.021361439 -0.26401725 0.03796099 -0.53006214
-0.2502943
00000000: c096 a5bb eff0 1cbe cbdd 0cbd 05bb dcbd
00000010: 2ffe aebc 452d 87be fc7c 1b3d 27b2 07bf
00000020: 9326 80be

weight f4 [1, 1, 3, 3]
-0.051777173 0.28652415 0.11753473 -0.12350447 0.05592413 0.11081548 -0.16123028 0.15093492
0.35003582
00000000: 4d14 54bd 4bb3 923e 0cb6 f03d e9ef fcbd
00000010: b310 653d 3af3 e23d 8d19 25be af8e 1a3e
00000020: e537 b33e

weight f4 [1, 1, 3, 3]
0.21905282 0.08464138 -0.18818775 0.12864898 0.10116037 0.08609658 0.38339883 0.35529044
-0.10554167
00000000: 624f 603e 7658 ad3d 4ab4 40be 8fbc 033e
00000010: 2b2d cf3d 6753 b03d da4c c43e a1e8 b53e
00000020: 3b26 d8bd

weight f4 [1, 1, 3, 3]
-0.46152735 -0.34822807 0.19038293 -0.11189357 -0.13928474 0.055729177 -0.50584793 -0.14904095
0.11966237
00000000: 504d ecbe f34a b2be bef3 423e 7528 e5bd
00000010: a9a0 0ebe 4744 643d 407f 01bf 319e 18be
00000020: 8b11 f53d

weight f4 [1, 1, 3, 3]
0.109044135 -0.014326889 -0.6077291 0.14554094 -0.3050831 -0.16890326 -0.18019985 -0.067875996
0.036646258
00000000: 8852 df3d 54bb 6abc 2294 1bbf af08 153e
00000010: da33 9cbe faf4 2cbe 4f86 38be 9202 8bbd
00000020: 631a 163d

weight f4 [1, 1, 3, 3]
-0.2893533 -0.29534978 0.055711072 0.22995032 -0.038383976 0.3288838 -0.21410388 0.06797812
0.3332185
00000000: 1e26 94be 1638 97be 4b31 643d 1978 6b3e
00000010: 8438 1dbd 7563 a83e 0c3e 5bbe 1d38 8b3d
00000020: 9d9b aa3e

weight f4 [1, 1, 3, 3]
-0.23446038 0.33044964 0.11096327 -0.268639 0.23474498 -0.23294203 -0.14393143 0.0087340325
-0.4090343
00000000: 6216 70be b230 a93e b640 e33d 0d8b 89be
00000010: fd60 703e 5b88 6ebe c362 13be 3019 0f3c
00000020: f26c d1be

weight f4 [1, 1, 3, 3]
0.15415221 -0.15035395 0.25976834 0.14040667 0.17146553 0.020828743 -0.08407679 -0.07158937
-0.37563497
00000000: 14da 1d3e 63f6 19be 5b00 853e c4c6 0f3e
00000010: a994 2f3e 0aa1 aa3c 7430 acbd 739d 92bd
00000020: 3a53 c0be

weight f4 [1, 1, 3, 3]
0.033375233 0.0965382 0.34173357 -0.3837563 -0.060160253 -0.22081546 -0.13779864 -0.2883556
0.17435804
00000000: 78b4 083d d2b5 c53d b4f7 ae3e b57b c4be
00000010: 996a 76bd 731d 62be 161b 0dbe 58a3 93be
00000020: ea8a 323e

weight f4 [1, 1, 3, 3]
-0.3657837 0.08580918 -0.08745336 0.18156672 -0.13734153 -0.16291907 -0.36941648 0.2459679
-0.23136654
00000000: 0048 bbbe b9bc af3d bf1a b3bd a0ec 393e
00000010: 42a3 0cbe 42d4 26be 2824 bdbe 02df 7b3e
00000020: 5aeb 6cbe

weight f4 [1, 1, 3, 3]
0.30600357 0.21955554 0.03776748 0.01681451 -0.13772437 0.05762839 -0.12122541 0.16183798
0.15450025
00000000: 80ac 9c3e 2bd3 603e 13b2 1a3d 95be 893c
00000010: 9e07 0dbe bf0b 6c3d 0745 f8bd dbb8 253e
00000020: 5035 1e3e

weight f4 [1, 1, 3, 3]
-0.42725962 -0.20463133 0.23749894 -0.17293508 -0.040486254 0.2803217 0.21895024 -0.13743831
-0.38536945
00000000: c6c1 dabe e08a 51be ec32 733e e515 31be
00000010: ead4 25bd 5386 8f3e 7e34 603e a1bc 0cbe
00000020: 254f c5be

weight f4 [1, 1, 3, 3]
0.18469878 -0.34493947 -0.062837824 -0.21374626 -0.013580259 0.0816459 0.30133328 0.1060247
0.3005734
00000000: ad21 3d3e e89b b0be 1eb1 80bd 4de0 5abe
00000010: bc7f 5ebc f735 a73d 5b48 9a3e 7a23 d93d
00000020: c2e4 993e

weight f4 [1, 1, 3, 3]
-0.01850686 -0.23740117 0.11787788 -0.23023072 -0.31947643 -0.03561283 0.030383037 0.358939
-0.18838006
00000000: b39b 97bc 4b19 73be f569 f13d 9ac1 6bbe
00000010: 6a92 a3be c2de 11bd d9e5 f83c dac6 b73e
00000020: b4e6 40be

weight f4 [1, 1, 3, 3]
-0.018787004 0.06657939 -0.40560585 0.38144764 -0.13188578 0.2614065 0.016674837 -0.115903184
0.051645204
00000000: 34e7 99bc c65a 883d 92ab cfbe 1b4d c33e
00000010: 110d 07be 13d7 853e ab99 883c a65e edbd
00000020: ec89 533d

weight f4 [1, 1, 3, 3]
0.33778706 -0.036507998 -0.18778025 -0.06241013 -0.35927308 0.13345595 -0.23659024 -0.12779902
-0.32476082
00000000: 6df2 ac3e 6989 15bd 7749 40be c4a1 7fbd
00000010: a4f2 b7be ada8 083e b644 72be bfdd 02be
00000020: 0d47 a6be

weight f4 [1, 1, 3, 3]
-0.007622726 0.24103554 0.06931349 0.2101798 -0.19570388 -0.16186059 0.13368356 0.2744242
0.33838603
00000000: 0fc8 f9bb 05d2 763e 3bf4 8d3d 6039 573e
00000010: 9966 48be c8be 25be 58e4 083e 5481 8c3e
00000020: ef40 ad3e

weight f4 [1, 1, 3, 3]
-0.06641266 0.059192207 -0.48439255 0.023403013 -0.5063969 -0.23475 0.2607805 0.050079267
-0.04372899
00000000: 5c03 88bd 8773 723d 4d02 f8be adb7 bf3c
00000010: 3aa3 01bf 4e62 70be 0685 853e eb1f 4d3d
00000020: 2b1d 33bd

weight f4 [1, 1, 3, 3]
0.023575578 -0.0009147541 -0.27956027 -0.42433453 0.11482564 0.20564266 0.30923107 -0.006699781
-0.14297585
00000000: 9221 c13c 1ccc 6fba 8622 8fbe 6042 d9be
00000010: b529 eb3d fd93 523e 8953 9e3e d689 dbbb
00000020: 4368 12be

weight f4 [1, 1, 3, 3]
-0.024544915 0.04419705 0.0148161035 -0.12368118 0.20214047 0.011587061 -0.13465022 -0.5277193
0.16251478
00000000: 6b12 c9bc f707 353d 3ebf 723c 8f4c fdbd
00000010: e9fd 4e3e a8d7 3d3c bfe1 09be 9d18 07bf
00000020: 466a 263e

weight f4 [1, 1, 3, 3]
-0.37655336 0.21334046 -0.04330609 -0.0064315526 -0.056767624 -0.28866982 0.08958687 0.120339684
-0.16781867
00000000: 9acb c0be ec75 5a3e ba61 31bd c6bf d2bb
00000010: 2b85 68bd 88cc 93be 5279 b73d a774 f63d
00000020: a8d8 2bbe

weight f4 [1, 1, 3, 3]
-0.014982125 0.044872273 0.16646448 0.06170793 -0.60025555 -0.09264076 0.21767811 0.06451137
0.02343354
00000000: 9677 75bc fdcb 373d aa75 2a3e 74c1 7c3d
00000010: 59aa 19bf 70ba bdbd 03e7 5e3e 8a1e 843d
00000020: b2f7 bf3c

weight f4 [1, 1, 3, 3]
0.4426421 0.049225457 0.043673497 0.11776676 -0.02821902 0.09243764 0.08530408 -0.29903874
-0.056990564
00000000: fca1 e23e a2a0 493d fbe2 323d b32f f13d
00000010: 932b e7bc f24f bd3d e8b3 ae3d 9b1b 99be
00000020: f06e 69bd

weight f4 [1, 1, 3, 3]
0.21201546 0.17962384 0.14166819 0.05369592 0.19506556 -0.16373639 -0.36483997 -0.5402224
0.38758385
00000000: 951a 593e 50ef 373e 7711 113e 41f0 5b3d
00000010: 44bf 473e 83aa 27be 4ecc babe 044c 0abf
00000020: 6471 c63e

weight f4 [1, 1, 3, 3]
0.230451 -0.30930212 0.06286458 0.10019082 0.52877426 0.31515276 0.08602425 -0.1977653
-0.13808702
00000000: 59fb 6b3e d95c 9ebe 25bf 803d d830 cd3d
00000010: c05d 073f b45b a13e 7b2d b03d fd82 4abe
00000020: af66 0dbe

weight f4 [1, 1, 3, 3]
0.31284657 0.18012871 -0.32797354 0.33325237 0.10036584 0.16903672 -0.28638244 -0.09276937
-0.01872314
00000000: 6d2d a03e a973 383e 26ec a7be 0ea0 aa3e
00000010: 9b8c cd3d f617 2d3e b8a0 92be defd bdbd
00000020: 4561 99bc

weight f4 [1, 1, 3, 3]
0.2298553 -0.17238933 -0.01834251 0.2302047 0.24358374 -0.18830344 0.114564985 -0.27495727
0.09836812
00000000: 305f 6b3e d486 30be 0843 96bc c8ba 6b3e
00000010: 046e 793e 9ed2 40be 0ca1 ea3d 33c7 8cbe
00000020: 3a75 c93d

weight f4 [1, 1, 3, 3]
-0.19793649 -0.4333943 -0.1452207 0.42104378 0.23675583 0.10132059 0.3932072 -0.29175466
-0.21793215
00000000: ddaf 4abe dce5 ddbe bcb4 14be 0d93 d73e
00000010: 1f70 723e 2b81 cf3d 7452 c93e de60 95be
00000020: 9b29 5fbe

weight f4 [1, 1, 3, 3]
0.11844014 -0.11646264 0.328613 -0.51071733 -0.18317279 -0.118617415 -0.0891916 0.35587692
0.21168214
00000000: be90 f23d f783 eebd f73f a83e 5fbe 02bf
00000010: a691 3bbe b0ed f2bd 16aa b6bd 8035 b63e
00000020: 34c3 583e

weight f4 [1, 1, 3, 3]
0.29312533 0.37192008 0.3240953 -0.106592804 0.02871953 0.1687033 0.15945815 0.3921231
0.11658836
00000000: 8614 963e 4f6c be3e d2ef a53e 544d dabd
00000010: 3845 eb3c 8fc0 2c3e ff48 233e 5cc4 c83e
00000020: e1c5 ee3d

weight f4 [1, 1, 3, 3]
0.11529234 -0.06615683 0.22471438 0.015877621 -0.051165853 -0.1893978 -0.1443063 0.002418838
0.45159352
00000000: 641e ec3d 3b7d 87bd 871b 663e c911 823c
00000010: 4993 51bd 7ff1 41be 08c5 13be 5e85 1e3b
00000020: 4437 e73e

weight f4 [1, 1, 3, 3]
0.22230169 0.087267414 -0.14682317 0.31443545 0.34680054 -0.049147144 0.03627685 0.34832716
-0.0664261
00000000: 0ea3 633e 42b9 b23d d058 16be affd a03e
00000010: d78f b13e 844e 49bd 0997 143d f057 b23e
00000020: 680a 88bd

weight f4 [1, 1, 3, 3]
-0.10924856 0.35828546 0.16187671 -0.003177073 0.316213 -0.18375584 0.057482515 0.53407294
-0.09065497
00000000: b6bd dfbd 3171 b73e 02c3 253e 7136 50bb
00000010: ace6 a13e 7e2a 3cbe c972 6b3d 01b9 083f
00000020: 50a9 b9bd

weight f4 [1, 1, 3, 3]
-0.14703086 0.018718557 -0.070865914 -0.14029355 0.112358555 0.40052482 -0.03452274 -0.10816537
0.27308244
00000000: 428f 16be a957 993c 2622 91bd 1da9 0fbe
00000010: 3e1c e63d 9711 cd3e b767 0dbd ce85 ddbd
00000020: 76d1 8b3e

weight f4 [1, 1, 3, 3]
-0.040239673 0.11635461 -0.2585043 -0.16399688 -0.23036681 -0.06802672 0.109782234 -0.35476506
0.3133422
00000000: 5bd2 24bd 534b ee3d ad5a 84be ccee 27be
00000010: 47e5 6bbe 9851 8bbd 82d5 e03d c4a3 b5be
00000020: 646e a03e

weight f4 [1, 1, 3, 3]
0.35642213 0.104817495 -0.23207617 0.046694566 0.22227128 -0.23655541 0.37278286 -0.18692854
-0.07580155
00000000: f67c b63e 8eaa d63d 60a5 6dbe cd42 3f3d
00000010: 159b 633e 953b 72be 65dd be3e 326a 3fbe
00000020: d83d 9bbd

weight f4 [1, 1, 3, 3]
-0.24136256 0.11078747 0.17725244 -0.42132944 0.37325636 0.014890001 0.052003253 0.15996142
-0.307837
00000000: bf27 77be 8be4 e23d aa81 353e 7eb8 d7be
00000010: 751b bf3e 31f5 733c 5d01 553d edcc 233e
00000020: d09c 9dbe

weight f4 [1, 1, 3, 3]
0.36202067 0.074842736 0.34425908 0.3421682 -0.29393613 0.20669243 0.17750762 0.0842683
-0.23001286
00000000: c65a b93e 2647 993d ba42 b03e ac30 af3e
00000010: cc7e 96be 2ea7 533e 8fc4 353e dc94 ac3d
00000020: 7e88 6bbe

weight f4 [1, 1, 3, 3]
-0.2354868 -0.26923883 -0.41390023 -0.077359 -0.18078303 -0.083719455 0.08819424 0.18636087
-0.18903784
00000000: 7423 71be acd9 89be bbea d3be 656e 9ebd
00000010: 301f 39be 1b75 abbd 2f9f b43d 62d5 3e3e
00000020: 2393 41be

weight f4 [1, 1, 3, 3]
-0.19634469 -0.21011382 0.32936674 0.20920873 0.059142794 -0.03591607 0.14572085 -0.36202022
-0.49630123
00000000: 950e 49be 1428 57be c2a2 a83e d03a 563e
00000010: b73f 723d bb1c 13bd d937 153e b75a b9be
00000020: 321b febe

weight f4 [1, 1, 3, 3]
-0.063663736 -0.33791184 0.24510683 -0.24185999 -0.124586426 -0.20936368 0.35178787 -0.10560373
0.13558613
00000000: 2262 82bd c802 adbe 49fd 7a3e 25aa 77be
00000010: 2b27 ffbd 6f63 56be 8a1d b43e c546 d8bd
00000020: 17d7 0a3e

weight f4 [1, 1, 3, 3]
0.21323846 0.30136028 -0.012950231 -0.05079084 0.17861651 0.18864083 0.03877516 -0.2388193
0.28375214
00000000: 2f5b 5a3e e54b 9a3e 352d 54bc 0e0a 50bd
00000010: 3fe7 363e 102b 413e b4d2 1e3d 0c8d 74be
00000020: f647 913e

weight f4 [1, 1, 3, 3]
0.007019321 -0.3097314 -0.19929071 0.3432593 0.2883902 -0.16793314 0.29611373 0.23353666
0.23990457
00000000: 5502 e63b 1d95 9ebe dd12 4cbe afbf af3e
00000010: e1a7 933e aaf6 2bbe 389c 973e 3c24 6f3e
00000020: 8ba9 753e

weight f4 [1, 1, 3, 3]
0.3082134 -0.30870348 0.003241955 0.15983737 -0.08508501 0.01625486 -0.20307033 0.07948725
-0.2890613
00000000: 26ce 9d3e 620e 9ebe fb76 543b 68ac 233e
00000010: 0d41 aebd ea28 853c abf1 4fbe 36ca a23d
00000020: d8ff 93be

weight f4 [1, 1, 3, 3]
-0.15287192 0.16074602 0.10288796 -0.23958606 -0.05672915 0.32716292 -0.03289312 -0.0076778005
-0.13942267
00000000: 758a 1cbe 9b9a 243e ecb6 d23d 0c56 75be
00000010: d35c 68bd e681 a73e f0ba 06bd 0f96 fbbb
00000020: d1c4 0ebe

weight f4 [1, 1, 3, 3]
0.20025755 -0.29714093 -0.11499957 -0.16668785 0.36204746 -0.13466688 -0.002331018 -0.10210392
0.29396403
00000000: 5110 4d3e db22 98be e584 ebbd 38b0 2abe
00000010: 495e b93e 1de6 09be fec3 18bb dc1b d1bd
00000020: 7482 963e

weight f4 [1, 1, 3, 3]
0.3217639 -0.090553924 -0.3150139 -0.30613256 0.2026686 -0.088646375 -0.13009974 -0.13212033
0.18314226
00000000: 3dbe a43e 5674 b9bd 8049 a1be 68bd 9cbe
00000010: 5c88 4f3e 3b8c b5bd de38 05be 8d4a 07be
00000020: a589 3b3e

weight f4 [1, 1, 3, 3]
-0.024032839 0.08663448 -0.072760195 -0.22285111 -0.02742969 0.3676498 -0.28962746 0.11097851
-0.13307986
00000000: 84e0 c4bc 6b6d b13d 4c03 95bd 1533 64be
00000010: 3bb4 e0bc 983c bc3e 0d4a 94be b348 e33d
00000020: 1646 08be

weight f4 [1, 1, 3, 3]
0.40847754 -0.19329633 -0.29718545 0.29547444 -0.23167434 0.30089778 -0.1542446 -0.09068344
-0.071196534
00000000: f823 d13e 79ef 45be b128 98be 6d48 973e
00000010: 0a3c 6dbe 460f 9a3e 4cf2 1dbe 3db8 b9bd
00000020: 7dcf 91bd

weight f4 [1, 1, 3, 3]
0.32793653 -0.071629316 -0.3946369 -0.14664464 -0.05133094 0.10236038 -0.13542321 0.39811537
0.028698394
00000000: 4ce7 a73e 64b2 92bd d90d cabe 032a 16be
00000010: 6440 52bd 52a2 d13d 62ac 0abe c7d5 cb3e
00000020: e518 eb3c

weight f4 [1, 1, 3, 3]
0.01408338 0.4691739 0.022729186 0.2522638 0.10004581 0.05114286 -0.22754179 -0.039857313
0.3212931
00000000: fabd 663c 9037 f03e 8f32 ba3c b928 813e
00000010: d1e4 cc3d 2d7b 513d b700 69be 6c41 23bd
00000020: 8780 a43e

weight f4 [1, 1, 3, 3]
0.032230698 -0.16085245 0.06731902 0.49649462 -0.12934087 -0.41912547 -0.25302082 0.2024243
0.061241746
00000000: 5604 043d 81b6 24be 8ede 893d 8b34 fe3e
00000010: ef71 04be 9d97 d6be f28b 81be 5148 4f3e
00000020: a0d8 7a3d

weight f4 [1, 1, 3, 3]
-0.03573606 0.2634917 0.042594027 0.26166704 0.37847507 -0.10256477 -0.27891186 -0.072237976
0.42532057
00000000: fa5f 12bd 62e8 863e 1377 2e3d 39f9 853e
00000010: 7cc7 c13e 7a0d d2bd 89cd 8ebe 81f1 93bd
00000020: 9ec3 d93e

weight f4 [1, 1, 3, 3]
0.17319664 0.12775047 -0.16012198 0.4947073 0.45047805 0.23876919 -0.23429981 -0.046486843
-0.15424098
00000000: 765a 313e 05d1 023e 04f7 23be 464a fd3e
00000010: 0fa5 e63e e97f 743e 4aec 6fbe fd68 3ebd
00000020: 59f1 1dbe

weight f4 [1, 1, 3, 3]
0.42542827 -0.1848371 -0.17409384 0.2341107 -0.04131615 -0.12516111 -0.049221337 -0.099143595
-0.252972
00000000: bcd1 d93e f045 3dbe a845 32be b7ba 6f3e
00000010: 203b 29bd 3c2a 00be 509c 49bd cc0b cbbd
00000020: 8c85 81be

weight f4 [1, 1, 3, 3]
0.26267332 -0.11974295 0.22494797 0.29974338 0.0029708017 0.007682411 0.477515 0.13854016
-0.09129233
00000000: 1e7d 863e cb3b f5bd c358 663e f777 993e
00000010: c8b1 423b bcbc fb3b d97c f43e 79dd 0d3e
00000020: 79f7 babd

weight f4 [1, 1, 3, 3]
0.31106108 0.06358641 -0.43845803 -0.15580718 -0.26156458 0.26523018 -0.26087862 -0.2810769
-0.09201688
00000000: 6643 9f3e 9739 823d 927d e0be eb8b 1fbe
00000010: cbeb 85be 40cc 873e e291 85be 50e9 8fbe
00000020: 5973 bcbd

weight f4 [1, 1, 3, 3]
0.33754823 0.16707869 -0.16302729 0.15430166 -0.005016841 0.025502007 -0.06010365 -0.23894522
-0.39975205
00000000: 1fd3 ac3e ad16 2b3e a0f0 26be 4101 1e3e
00000010: 5064 a4bb 96e9 d03c 3f2f 76bd 0eae 74be
00000020: 4dac ccbe

weight f4 [1, 1, 3, 3]
0.09341585 -0.34454596 0.0043295855 0.03609856 -0.20956936 -0.20930183 0.31662014 -0.28968653
0.2798267
00000000: cf50 bf3d 5468 b0be 32df 8d3b 15dc 133d
00000010: 5a99 56be 3853 56be 091c a23e cb51 94be
00000020: 7245 8f3e

weight f4 [1, 1, 3, 3]
-0.3148082 -0.31428722 -0.0937716 -0.30415028 0.20229161 -0.24765523 0.12827568 -0.3300392
0.077337615
00000000: 8a2e a1be 41ea a0be 530b c0bd 96b9 9bbe
00000010: 8825 4f3e 5599 7dbe b35a 033e e6fa a8be
00000020: 2f63 9e3d

weight f4 [1, 1, 3, 3]
0.1902255 -0.17603928 0.29213995 -0.271777 0.23197228 0.099835426 -0.27777728 -0.09262101
0.38738334
00000000: 79ca 423e a443 34be 5e93 953e 5b26 8bbe
00000010: 248a 6d3e 8476 cc3d d338 8ebe 16b0 bdbd
00000020: 1c57 c63e

weight f4 [1, 1, 3, 3]
0.010474051 0.27102116 0.063498735 0.3027313 -0.16974977 0.105960324 -0.23805061 0.22779429
0.2555107
00000000: 5b9b 2b3c 49c3 8a3e a00b 823d 99ff 9a3e
00000010: e2d2 2dbe ba01 d93d 8ac3 73be e842 693e
00000020: 4cd2 823e

weight f4 [1, 1, 3, 3]
0.2220437 0.040324554 0.1642869 0.27715206 0.014889433 0.31502336 -0.41860974 0.25238848
0.022235312
00000000: 6c5f 633e 5c2b 253d d33a 283e e0e6 8d3e
00000010: cff2 733c be4a a13e 0454 d6be 1039 813e
00000020: d426 b63c

weight f4 [1, 1, 3, 3]
0.15753902 0.20452106 -0.09955197 -0.09365649 0.16377984 0.22244555 0.20115234 -0.13032265
0.47730395
00000000: e951 213e f86d 513e e7e1 cbbd f9ce bfbd
00000010: e7b5 273e c4c8 633e e1fa 4d3e 4d73 05be
00000020: 2f61 f43e

weight f4 [1, 1, 3, 3]
0.099865295 -0.19746147 -0.43799964 0.31066796 -0.48518285 0.05013071 -0.068819195 0.12100463
0.009846864
00000000: 2d86 cc3d 5733 4abe 7d41 e0be df0f 9f3e
00000010: e369 f8be dc55 4d3d 14f1 8cbd 47d1 f73d
00000020: be54 213c

weight f4 [1, 1, 3, 3]
-0.39784807 -0.044488415 -0.19433151 0.011344207 -0.09695165 0.3054452 -0.14456862 0.30685374
-0.047783453
00000000: beb2 cbbe 7c39 36bd d7fe 46be 0edd 393c
00000010: 968e c6bd 5063 9c3e cc09 14be ef1b 9d3e
00000020: 95b8 43bd

weight f4 [1, 1, 3, 3]
-0.48427287 -0.35447714 -0.382065 0.23906268 -0.20063554 -0.11090047 -0.07296806 0.1196139
0.28799602
00000000: 9df2 f7be 077e b5be 069e c3be d9cc 743e
00000010: 6773 4dbe c91f e3bd 4770 95bd 22f8 f43d
00000020: 3774 933e

weight f4 [1, 1, 3, 3]
0.611254 -0.07438847 0.09615414 -0.09148846 -0.14266117 0.29388183 0.01925985 -0.3246742
0.08737094
00000000: 247b 1c3f fb58 98bd 76ec c43d 4d5e bbbd
00000010: c515 12be ae77 963e d5c6 9d3c b23b a6be
00000020: 89ef b23d

weight f4 [1, 1, 3, 3]
0.08870665 -0.17223462 0.503407 -0.18842117 0.122923814 -0.11160177 0.1764146 0.051173303
-0.24994081
00000000: d5ab b53d 465e 30be 48df 003f 7bf1 40be
00000010: 7bbf fb3d 788f e4bd 07a6 343e 199b 513d
00000020: 7cf0 7fbe

weight f4 [1, 1, 3, 3]
0.10912075 -0.13920692 -0.3889798 -0.14945734 0.13728349 -0.0326112 0.16148609 0.4397133
0.26769185
00000000: b37a df3d 428c 0ebe 5c28 c7be 580b 19be
00000010: 0b94 0c3e 5293 05bd 9c5c 253e 1a22 e13e
00000020: e80e 893e

weight f4 [1, 1, 3, 3]
-0.090201445 -0.16570875 -0.14489383 -0.4334609 -0.1024081 0.15336922 0.31961042 0.2756027
0.054247268
00000000: 89bb b8bd 8eaf 29be 0c5f 14be 96ee ddbe
00000010: 57bb d1bd d20c 1d3e faa3 a33e cc1b 8d3e
00000020: 6232 5e3d

weight f4 [1, 1, 3, 3]
-0.043212414 -0.032000642 -0.49766737 -0.14980227 0.16495074 0.2912329 -0.11921072 0.41819623
0.09262354
00000000: 80ff 30bd 1b13 03bd 42ce febe c465 19be
00000010: d9e8 283e 7b1c 953e c024 f4bd d11d d63e
00000020: 69b1 bd3d

weight f4 [1, 1, 3, 3]
-0.37208468 0.023514993 0.3387576 -0.16268708 -0.34078255 -0.1732053 -0.47834274 -0.044498537
-0.04848474
00000000: e281 bebe 84a2 c03c a371 ad3e 7197 26be
00000010: 0d7b aebe bb5c 31be 57e9 f4be 1944 36bd
00000020: ef97 46bd

weight f4 [1, 1, 3, 3]
0.06905231 -0.13410437 0.54648185 -0.08167401 0.44066358 -0.19357519 -0.40305394 0.19184457
-0.13818483
00000000: 4c6b 8d3d a852 09be 3ce6 0b3f b444 a7bd
00000010: a89e e13e 9338 46be 165d cebe e772 443e
00000020: 5380 0dbe

weight f4 [1, 1, 3, 3]
-0.12733926 -0.30410874 -0.010433328 -0.095457874 -0.5288939 0.19318491 0.103445254 0.1713599
-0.021538563
00000000: 3965 02be 24b4 9bbe 8df0 2abc 6b7f c3bd
00000010: 9765 07bf 44d2 453e 1bdb d33d f878 2f3e
00000020: a471 b0bc

weight f4 [1, 1, 3, 3]
0.39529774 0.019612812 -0.08396762 -0.19025084 -0.35034862 -0.29400814 -0.040823966 0.056472052
0.2381255
00000000: 7764 ca3e 0cab a03c 37f7 abbd 1ed1 42be
00000010: e560 b3be 3c88 96be 0837 27bd 3d4f 673d
00000020: 2cd7 733e

weight f4 [1, 1, 3, 3]
-0.04359279 0.0022169002 -0.15091282 -0.28510126 0.33111736 0.55380565 -0.18120384 -0.11165062
-0.07074811
00000000: 5a8e 32bd 6a49 113b e488 1abe cbf8 91be
00000010: 3788 a93e 35c6 0d3f 808d 39be 15a9 e4bd
00000020: 63e4 90bd

weight f4 [1, 1, 3, 3]
-0.13602048 -0.2046533 0.12643816 -0.28118625 0.06651048 0.48308656 -0.038214378 0.14449279
-0.06905957
00000000: f448 0bbe a290 51be 0179 013e a5f7 8fbe
00000010: a636 883d 1f57 f73e ae86 1cbd ebf5 133e
00000020: 1b6f 8dbd

weight f4 [1, 1, 3, 3]
0.1559987 0.48467132 -0.19386262 0.05050654 0.010236936 -0.22023748 0.08794529 -0.036808692
-0.050373185
00000000: 20be 1f3e d726 f83e ec83 46be f2df 4e3d
00000010: d2b8 273c ef85 61be a91c b43d b6c4 16bd
00000020: 1d54 4ebd

weight f4 [1, 1, 3, 3]
0.18290101 -0.07848935 0.08224137 -0.17493287 -0.28471726 -0.029275857 -0.4585448 0.27100074
0.03716079
00000000: 674a 3b3e 06bf a0bd 2a6e a83d 9a21 33be
00000010: 76c6 91be ecd3 efbc 62c6 eabe 9cc0 8a3e
00000020: ea35 183d

weight f4 [1, 1, 3, 3]
-0.1263724 -0.10812474 0.024546279 -0.33217484 0.062145587 0.24997495 -0.09141011 0.236347
-0.16308706
00000000: c467 01be 8170 ddbd 4715 c93c d212 aabe
00000010: 5f8c 7e3d 6ff9 7f3e 3935 bbbd f304 723e
00000020: 4b00 27be

weight f4 [1, 1, 3, 3]
0.06782585 0.25559562 -0.1420137 -0.08881631 0.13934134 -0.078955606 -0.3215367 -0.18250538
0.41115534
00000000: 47e8 8a3d 6edd 823e 0a6c 11be 53e5 b5bd
00000010: 7faf 0e3e 7ab3 a1bd 75a0 a4be b1e2 3abe
00000020: f482 d23e

weight f4 [1, 1, 3, 3]
-0.25835547 0.38697138 -0.3254001 0.032055475 -0.2955967 0.17002404 0.23467033 0.27267075
0.21138565
00000000: 2b47 84be 1d21 c63e d89a a6be 9a4c 033d
00000010: 7358 97be c81a 2e3e 6b4d 703e 809b 8b3e
00000020: 7b75 583e

weight f4 [1, 1, 3, 3]
0.07119796 -0.28450438 -0.091282666 -0.1302301 -0.052741155 -0.004367658 -0.18865004 -0.17779261
-0.78461194
00000000: 3cd0 913d 8faa 91be 68f2 babd 0a5b 05be
00000010: 1c07 58bd 921e 8fbb 7a2d 41be 440f 36be
00000020: 54dc 48bf

weight f4 [1, 1, 3, 3]
0.10708292 0.15355921 -0.045270205 0.43499964 0.38928473 -0.05830706 0.26774657 0.32284793
-0.25976995
00000000: 4a4e db3d a03e 1d3e 406d 39bd 46b8 de3e
00000010: 5450 c73e 62d3 6ebd 1416 893e 534c a53e
00000020: 9100 85be

weight f4 [1, 1, 3, 3]
-0.17108887 0.37757438 0.0007034936 0.11643923 0.31643695 -0.2558817 -0.057572737 0.5758303
-0.20217587
00000000: ec31 2fbe 6e51 c13e a86a 383a b177 ee3d
00000010: 0604 a23e ed02 83be 64d1 6bbd 9d69 133f
00000020: 3107 4fbe

weight f4 [1, 1, 3, 3]
0.118417256 0.12459124 -0.4189952 0.11227997 -0.028872542 -0.89381623 0.17009383 -0.023948595
-0.39586735
00000000: bf84 f23d b129 ff3d 8a86 d6be 0af3 e53d
00000010: 1c86 ecbc 24d1 64bf 142d 2e3e d82f c4bc
00000020: 20af cabe

weight f4 [10, 49]
-0.019391919 0.013533573 0.116654694 0.05137444 -0.01388894 -0.10068427 0.0070352415 -0.15266356
-0.047374606 -0.054297596 0.018054925 -0.0279337 -0.012699984 0.0116322795 -0.022663713 -0.033333212
-0.104271114 -0.15348978 -0.0058872723 -0.08527201 -0.04786668 -0.18064716 -0.09615215 -0.05164051
0.050928608 -0.14238487 -0.04997001 -0.22400129 -0.0019243426 -0.020494046 0.0075693782 -0.20308086
-0.08179802 0.059353825 -0.00080785406 0.03158488 0.08293276 -0.049763322 0.018865203 -0.06885843
0.043790456 -0.066768855 0.035748642 0.12801856 0.15568316 0.03320907 0.004836036 0.022441551
0.14455332 -0.05249656 -0.10666962 -0.14293744 -0.16491656 -0.12994398 0.7087578 -0.049125228
0.38581887 0.035655733 0.106147796 0.15699048 0.16317067 0.42015293 0.22131598 0.38875717
0.051940095 0.20477058 0.44913557 0.3624299 0.27809563 0.35017392 0.33335948 0.11421701
0.25768346 0.34092665 0.25251392 0.17358896 0.4067407 0.22520763 -0.10762775 0.18010697
0.15956181 -0.029865073 -0.19903255 0.21564402 -0.054310694 -0.33474317 -0.0970182 0.053065665
-0.057346217 -0.21335496 0.13875604 -0.21329978 -0.33844358 -0.33093575 -0.26137128 -0.28166834
-0.31645906 -0.17266706 -0.10233974 -0.08329971 0.03326031 -0.10006449 0.015337427 -0.09235957
0.07185573 -0.10086664 -0.055525824 -0.06968458 -0.07290572 -0.13046198 -0.04218266 0.041324303
-0.11552739 -0.116087586 -0.008347216 -0.0822134 -0.03143261 -0.013855373 -0.061726257 -0.094473474
-0.00082158815 -0.040142056 -0.16061836 -0.07196105 -0.0059220525 -0.15312147 -0.06870917 0.011823601
-0.06653456 0.028259067 -0.009698229 0.19354218 -0.0868892 0.08913658 0.069602266 0.079199426
0.0027385058 -0.04647115 -0.00019254173 0.0015747765 0.14541289 0.09318812 0.066529065 0.024920639
0.05062134 0.055405516 0.087412186 0.073295355 -0.0031394241 0.04327823 -0.026472423 -0.01009641
0.058360107 0.1538182 -0.14390759 -0.008634392 0.011745505 -0.05390225 0.02636118 0.0045796097
0.017143477 -0.10027868 -0.08055802 -0.0115069905 -0.18205763 -0.12755136 0.027222684 -0.09886503
-0.02582482 0.05561265 0.01134437 -0.16125478 0.031837277 0.0005501213 0.04157246 -0.12903444
-0.047372613 -0.069336206 -0.03793593 -0.044324968 0.09236686 -0.10675844 0.08448363 0.04343212
-0.030333841 -0.041457843 -0.05523477 0.04973234 -0.02796214 0.036724243 0.1495313 0.1742844
0.07363123 0.09610133 0.05105855 0.09434984 -0.01857614 -0.03803106 -0.03691689 0.02011708
0.03689003 -0.096761905 -0.00020836273 0.0322653 -0.0058317566 -0.031465422 -0.12405732 -0.055094544
0.052350342 -0.07060508 -0.011319561 -0.07524201 -0.13130188 -0.027202938 -0.026453156 -0.04723119
-0.07480761 -0.07230979 -0.013061936 0.013488466 -0.046035133 -0.073782824 -0.029014401 -0.05895298
-0.05386102 -0.013443851 -0.028312085 -0.03186008 0.039449148 -0.019216595 -0.07390232 0.08069942
0.07328549 0.043775246 0.026985312 0.022850625 0.051794488 0.01933095 0.024008801 -0.036126673
-0.05583026 -0.02132846 -0.03825289 -0.0022473042 0.08867939 -0.059333663 -0.03416509 -0.018577365
0.025643023 -0.09078101 -0.14665708 -0.10301042 -0.11014972 -0.0037536141 0.09075063 -0.121118546
00000000: cddb 9ebc ebbb 5d3c a8e8 ee3d 016e 523d
00000010: 708e 63bc 8e33 cebd e287 e63b d653 1cbe
00000020: e00b 42bd 2867 5ebd ece7 933c 37d5 e4bc
00000030: 9813 50bc 5195 3e3c 40a9 b9bc 6888 08bd
00000040: 188c d5bd 6d2c 1dbe 05ea c0bb 17a3 aebd
00000050: da0f 44bd 92fb 38be 6beb c4bd 0085 53bd
00000060: 849a 503d 57cd 11be 5aad 4cbd 9860 65be
00000070: 393a fcba 21e3 a7bc 8c08 f83b 6ef4 4fbe
00000080: b885 a7bd ff1c 733d 2bc6 53ba 265f 013d
00000090: a7d8 a93d a0d4 4bbd 338b 9a3c a605 8dbd
000000a0: 9f5d 333d 1cbe 88bd 2b6d 123d 4c17 033e
000000b0: 686b 1f3e 3c06 083d 9c77 9e3b 58d7 b73c
000000c0: c905 143e a206 57bd 9a75 dabd 315e 12be
000000d0: e3df 28be 0910 05be 2771 353f 8937 49bd
000000e0: 0d8a c53e bf0b 123d 0464 d93d 1dc2 203e
000000f0: 3616 273e 491e d73e a8a0 623e 2e0b c73e
00000100: 23bf 543d 61af 513e 19f5 e53e 6990 b93e
00000110: 8d62 8e3e ff49 b33e 18ae aa3e 9cea e93d
00000120: 16ef 833e f08d ae3e 8149 813e 4ec1 313e
00000130: 5140 d03e d49c 663e f06b dcbd f66d 383e
00000140: 2c64 233e 99a7 f4bc 30cf 4bbe c9d1 5c3e
00000150: e474 5ebd 7563 abbe 7ab1 c6bd 625b 593d
00000160: dee3 6abd b979 5abe 1016 0e3e 426b 5abe
00000170: 7a48 adbe 6970 a9be 75d2 85be d536 90be
00000180: ec06 a2be a2cf 30be 7f97 d1bd 0a99 aabd
00000190: f63b 083d 9dee ccbd d549 7b3c 0427 bdbd
000001a0: 1929 933d 2b93 cebd 0c6f 63bd cab6 8ebd
000001b0: 984f 95bd d397 05be bac7 2cbd ac43 293d
000001c0: a099 ecbd 54bf edbd c3c2 08bc 805f a8bd
000001d0: 7bbf 00bd a501 63bc acd4 7cbd 4f7b c1bd
000001e0: d95f 57ba ff6b 24bd 2479 24be 5160 93bd
000001f0: c70d c2bb e0cb 1cbe 65b7 8cbd c7b7 413c
00000200: 4543 88bd 8f7f e73c 52e5 1ebc ec2f 463e
00000210: f7f2 b1bd 3d8d b63d a28b 8e3d 4f33 a23d
00000220: 8178 333b 8858 3ebd 07e5 49b9 bb68 ce3a
00000230: 1ee7 143e 6ad9 be3d 6440 883d 5e26 cc3c
00000240: 5258 4f3d e5f0 623d 2905 b33d e01b 963d
00000250: ccbe 4dbb 8344 313d b2dc d8bc 6a6b 25bc
00000260: 020b 6f3d 8582 1d3e 835c 13be 4477 0dbc
00000270: 3870 403c 9bc8 5cbd 67f3 d73c 8d10 963b
00000280: 7a70 8c3c e95e cdbd 9afb a4bd d187 3cbc
00000290: 516d 3abe d39c 02be 1b02 df3c c079 cabd
000002a0: 938e d3bc 17ca 633d bddd 393c f91f 25be
000002b0: ce67 023d 0436 103a e247 2a3d 9b21 04be
000002c0: c909 42bd 2400 8ebd b562 1bbd 198e 35bd
000002d0: d62a bd3d 2ba4 dabd c105 ad3d e1e5 313d
000002e0: ad7e f8bc b3cf 29bd db3d 62bd 23b4 4b3d
000002f0: dc10 e5bc 296c 163d bc1e 193e 9c77 323e
00000300: f8cb 963d c6d0 c43d c522 513d 7d3a c13d
00000310: fd2c 98bc 75c6 1bbd 2a36 17bd 93cc a43c
00000320: 001a 173d 1b2b c6bd f27b 5ab9 9f28 043d
00000330: 5218 bfbb e3e1 00bd c411 febd d1aa 61bd
00000340: 506d 563d 6599 90bd ae75 39bc 7c18 9abd
00000350: 0074 06be b2d8 debc 4ab4 d8bc 7e75 41bd
00000360: bb34 99bd 2817 94bd bb01 56bc bafe 5c3c
00000370: 568f 3cbd 731b 97bd 9caf edbc ae78 71bd
00000380: 5f9d 5cbd 9943 5cbc bfee e7bc b77f 02bd
00000390: 6e95 213d 1f6c 9dbc 195a 97bd bd45 a53d
000003a0: b416 963d ac4d 333d 4d10 dd3c 3c31 bb3c
000003b0: 7526 543d f15b 9e3c 1bae c43c 90f9 13bd
000003c0: 45ae 64bd 06b9 aebc 10af 1cbd 8247 13bb
000003d0: 8a9d b53d db07 73bd b2f0 0bbd 8f2f 98bc
000003e0: 5111 d23c 65eb b9bd 462d 16be 21f7 d2bd
000003f0: 2d96 e1bd 32ff 75bb 77db b93d 000d f8bd

mean_grad_history f4 [101]
7.416828e+07 2.5012386e+07 1.3807117e+07 9.42242e+06 1.705182e+07 6.4697775e+06 7.9172735e+06 5.9095195e+06
2.747055e+06 2.8372945e+06 2.7332832e+06 2.0847601e+06 2.6960925e+06 1.58014e+06 900214.06 683483.7
792132.8 593355.9 382380.0 514551.84 573744.5 402109.44 391080.75 327001.62
147398.17 162783.73 118051.55 103641.4 68513.63 99937.49 47551.242 42407.86
40718.777 24837.463 26044.184 21152.926 11090.609 7164.0747 7639.382 11851.124
4853.779 3379.0962 3611.66 5774.0557 4462.4233 2035.7162 2105.2544 1428.3912
925.89984 950.1648 644.00085 672.321 412.47293 327.2921 244.11458 231.80424
298.57663 305.97583 135.23827 80.845505 79.71241 72.314865 58.35689 41.702
36.591854 24.318172 25.95795 25.13651 17.360178 14.573385 14.260061 8.404288
6.1404243 4.9512873 4.3217545 3.3301895 5.224863 3.4515023 3.128561 1.7906766
1.7862405 1.2974963 0.9400533 0.9514075 0.5349864 0.45012286 0.35108292 0.4433794
0.21796107 0.26779798 0.17386724 0.12743962 0.19845586 0.12397768 0.13174634 0.087857395
0.084806405 0.060129013 0.051475633 0.07727201 0.028735207
00000000: fb76 8d4c 51d4 be4b 0dae 524b 54c6 0f4b
00000010: 5618 824b 2371 c54a b39d f14a 1f58 b44a
00000020: bcaa 274a ba2c 2d4a 8dd3 264a c17c fe49
00000030: 728e 244a 60e3 c049 61c7 5b49 bbdd 2649
00000040: 4d64 4149 bedc 1049 80b5 ba48 fb3e fb48
00000050: 0813 0c49 ae57 c448 18f5 be48 34ab 9f48
00000060: 8bf1 0f48 eff7 1e48 c691 e647 b36c ca47
00000070: d1d0 8547 bf30 c347 3ebf 3947 dca7 2547
00000080: c70e 1f47 ed0a c246 5e78 cb46 da41 a546
00000090: 704a 2d46 99e0 df45 0ebb ee45 7f2c 3946
000000a0: 3bae 9745 8a31 5345 8fba 6145 7270 b445
000000b0: 6373 8b45 eb76 fe44 1294 0345 858c b244
000000c0: 9779 6744 8c8a 6d44 0e00 2144 8b14 2844
000000d0: 893c ce43 64a5 a343 551d 7443 e3cd 6743
000000e0: cf49 9543 e8fc 9843 ff3c 0743 e6b0 a142
000000f0: c16c 9f42 36a1 9042 756d 6942 d9ce 2642
00000100: 0f5e 1242 9e8b c241 e2a9 cf41 9317 c941
00000110: a5e1 8a41 962c 6941 3629 6441 f777 0641
00000120: 5b7e c440 f270 9e40 d04b 8a40 d321 5540
00000130: 1432 a740 6ae5 5c40 583a 4840 e434 e53f
00000140: 87a3 e43f 5c14 a63f 55a7 703f 718f 733f
00000150: def4 083f 8176 e63e 24c1 b33e a002 e33e
00000160: 3031 5f3e d11c 893e 410a 323e 887f 023e
00000170: 0338 4b3e 03e8 fd3d 83e8 063e 94ee b33d
00000180: fbae ad3d d749 763d 1dd8 523d ca40 9e3d
00000190: 1966 eb3c

mean_grad_history f4 [101]
4.7367236e+07 1.3195656e+07 7.5117965e+06 5.6254085e+06 1.0099367e+07 3.5295232e+06 4.365876e+06 3.2132492e+06
1.4960461e+06 1.4663398e+06 1.5573784e+06 1.1761942e+06 1.5983032e+06 873464.9 504036.9 379906.75
424599.06 313914.22 216058.22 275310.03 289077.88 195457.03 209112.1 161564.19
79431.7 89626.73 65102.332 54937.09 37430.64 52798.85 25449.479 22570.225
21892.947 13780.542 14825.641 11377.922 5989.7104 3761.7625 3986.2988 5818.7812
2436.5356 1881.2148 1814.6975 3565.8257 2962.7534 1388.1416 1321.6548 880.5716
546.3082 565.2705 385.0945 388.18686 226.41951 194.83304 150.2704 140.11739
178.85298 184.42378 83.173706 51.13656 51.714603 50.009495 36.214874 27.458591
24.287195 15.8577585 16.097382 15.809512 10.924465 9.38792 8.990945 5.7475715
4.0436487 3.186135 2.7999442 2.0346053 3.3907368 2.0188913 1.9734087 1.1034074
1.1251681 0.7888828 0.5864994 0.59068483 0.32846928 0.25872916 0.1896197 0.2469341
0.13106152 0.1529652 0.10315617 0.07921073 0.105370946 0.06925013 0.066635 0.046904344
0.0472773 0.031483263 0.026376463 0.039847102 0.016978815
00000000: 11b1 344c 8859 494b e93d e54a 81ac ab4a
00000010: a71a 1a4b cd6c 574a 683c 854a 051f 444a
00000020: 719f b649 1eff b249 131c be49 1294 8f49
00000030: fa1a c349 8e3f 5549 9d1c f648 5880 b948
00000040: e252 cf48 4747 9948 8efe 5248 c16d 8648
00000050: bc26 8d48 42e0 3e48 0636 4c48 0cc7 1d48
00000060: da23 9b47 5d0d af47 554e 7e47 1799 5647
00000070: a436 1247 da3e 4e47 f5d2 c646 7354 b046
00000080: e509 ab46 2b52 5746 90a6 6746 b0c7 3146
00000090: af2d bb45 331c 6b45 c824 7945 40d6 b545
000000a0: 9248 1845 e026 eb44 52d6 e244 36dd 5e45
000000b0: 0e2c 3945 8884 ad44 f434 a544 9524 5c44
000000c0: ba93 0844 5051 0d44 198c c043 eb17 c243
000000d0: 656b 6243 42d5 4243 3945 1643 0d1e 0c43
000000e0: 5dda 3243 7d6c 3843 f058 a642 d68b 4c42
000000f0: c1db 4e42 b909 4842 08dc 1042 32ab db41
00000100: 2d4c c241 61b9 7d41 70c7 8041 c3f3 7c41
00000110: 9cca 2e41 ec34 1641 e9da 0f41 1bec b740
00000120: 9265 8140 a3e9 4b40 4932 3340 f936 0240
00000130: d501 5940 8435 0140 a898 fc3f 743c 8d3f
00000140: 8205 903f 39f4 493f d324 163f 1f37 173f
00000150: 202d a83e 2678 843e ab2b 423e 4bdc 7c3e
00000160: fe34 063e e9a2 1c3e 8b43 d33d 3c39 a23d
00000170: b9cc d73d 03d3 8d3d ee77 883d c51e 403d
00000180: d8a5 413d 98f4 003d 7413 d83c b736 233d
00000190: 2817 8b3c

mean_grad_history f4 [101]
2.0353282e+07 6.5631335e+06 3.9966615e+06 2.6780905e+06 4.2152695e+06 1.7713874e+06 2.1888848e+06 1.7323872e+06
761718.8 805338.75 818626.6 617856.94 780441.44 455488.38 269528.34 193161.66
213001.25 162132.97 104937.67 134099.4 153366.56 111746.91 107839.01 89426.51
41781.793 48050.457 35076.22 30711.576 21183.24 29215.145 14652.513 13169.199
13114.598 7606.362 8314.331 6827.314 3338.917 2203.9165 2199.5742 3363.9097
1349.1661 1087.4507 1057.27 1990.9583 1941.5164 840.7192 891.6513 579.7857
349.1626 342.59885 231.40262 244.13667 152.87181 130.95181 100.05325 88.389275
120.46254 119.23931 52.41005 34.005062 30.578892 29.253012 23.01205 17.585604
16.33542 11.066451 10.95824 10.769384 7.2461596 5.8327866 6.200475 3.7651894
2.570803 2.0689929 1.7595226 1.3606406 2.2698545 1.4157902 1.2806178 0.70592046
0.71937716 0.506942 0.39515367 0.37713802 0.20515126 0.1657132 0.12102003 0.1596588
0.0844417 0.091283806 0.060470395 0.048538763 0.06401676 0.042637568 0.045055747 0.031207614
0.031700637 0.020894991 0.01797456 0.03322278 0.012975304
00000000: 8148 9b4b 7b4a c84a d6ef 734a 2a75 234a
00000010: cba3 804a db3b d849 5399 054a 1a79 d349
00000020: 6df7 3949 ac9d 4449 2adc 4749 0fd8 1649
00000030: 9789 3e49 0c68 de48 0b9b 8348 6aa2 3c48
00000040: 5002 5048 3e55 1e48 d6f4 cc47 daf4 0248
00000050: a4c5 1548 7441 da47 819f d247 41a9 ae47
00000060: cb35 2347 75b2 3b47 3804 0947 27ef ef46
00000070: 7b7e a546 4a3e e446 0df2 6446 ccc4 4d46
00000080: 64ea 4c46 e5b2 ed45 53e9 0146 835a d545
00000090: acae 5045 aabe 0945 3079 0945 8e3e 5245
000000a0: 51a5 a844 6cee 8744 a428 8444 aade f844
000000b0: 86b0 f244 072e 5244 afe9 5e44 49f2 1044
000000c0: d094 ae43 a74c ab43 1267 6743 fd22 7443
000000d0: 2fdf 1843 aaf3 0243 441b c842 4fc7 b042
000000e0: d2ec f042 877a ee42 e4a3 5142 2f05 0842
000000f0: 92a1 f441 2b06 ea41 ae18 b841 51af 8c41
00000100: f1ae 8241 2f10 3141 f354 2f41 664f 2c41
00000110: 8ae0 e740 30a6 ba40 4b6a c640 ddf8 7040
00000120: 0988 2440 616a 0440 0938 e13f 7929 ae3f
00000130: 4c45 1140 9d38 b53f 49eb a33f 34b7 343f
00000140: 1a29 383f f3c6 013f 9551 ca3e 3c18 c13e
00000150: 2c13 523e b9b0 293e 59d9 f73d 997d 233e
00000160: c5ef ac3d 01f3 ba3d ceaf 773d 95d0 463d
00000170: 381b 833d bba4 2e3d 608c 383d 1ca7 ff3c
00000180: 87d8 013d f92b ab3c 623f 933c 9c14 083d
00000190: 5f96 543c

mean_grad_history f4 [101]
1.2951154e+07 3.809053e+06 2.2650785e+06 1.6279479e+06 3.0360258e+06 1.2848841e+06 1.4847935e+06 1.1697838e+06
516227.6 517196.22 592869.56 409345.16 558394.75 321794.28 199848.9 135086.22
145033.02 118938.695 75016.25 100606.32 110334.41 80316.92 71566.516 59865.344
29688.486 32253.0 24669.408 20614.658 14657.475 20549.027 9701.477 8804.32
8786.499 5556.774 5846.456 4731.933 2373.9443 1549.4205 1579.5149 2406.775
971.5565 747.6205 726.9106 1377.7532 1294.9442 605.9231 572.5246 400.08676
261.03882 249.4183 183.39258 185.87794 114.33728 90.63631 71.75374 63.88816
81.083786 82.48214 39.26364 22.437347 22.513216 21.385286 15.547237 11.7078085
11.322882 7.4481907 7.541326 6.9150186 4.821794 4.30597 4.1552925 2.4238656
1.6673648 1.4523441 1.1963403 0.9411437 1.6402022 0.9113682 0.8258937 0.49264583
0.48473495 0.36544394 0.27852964 0.2628881 0.14271177 0.11325657 0.08274274 0.113489226
0.055757046 0.06453306 0.042157445 0.033285398 0.0429665 0.02974673 0.031246722 0.023196086
0.022089276 0.013646029 0.012778758 0.02797119 0.0100398455
00000000: 729e 454b 747c 684a da3f 0a4a 5fb9 c649
00000010: e74d 394a a1d8 9c49 cc3f b549 becb 8e49
00000020: 7310 fc48 8789 fc48 59be 1049 25e0 c748
00000030: ac53 0849 4920 9d48 3a2a 4348 8eeb 0348
00000040: 41a2 0d48 594d e847 2084 9247 297f c447
00000050: 347f d747 76de 9c47 42c7 8b47 58d9 6947
00000060: f9f0 e746 00fa fb46 d1ba c046 510d a146
00000070: e605 6546 0e8a a046 e895 1746 4891 0946
00000080: ff49 0946 31a6 ad45 a6b3 b645 77df 9345
00000090: 1c5f 1445 75ad c144 7a70 c544 666c 1645
000000a0: 9ee3 7244 b6e7 3a44 47ba 3544 1a38 ac44
000000b0: 37de a144 147b 1744 9321 0f44 1b0b c843
000000c0: f884 8243 166b 7943 8064 3743 c1e0 3943
000000d0: b0ac e442 ca45 b542 ea81 8f42 7a8d 7f42
000000e0: e62a a242 dbf6 a442 f80d 1d42 b07f b341
000000f0: 111b b441 1115 ab41 7cc1 7841 2f53 3b41
00000100: 862a 3541 9457 ee40 8b52 f140 d547 dd40
00000110: 234c 9a40 82ca 8940 28f8 8440 9d20 1b40
00000120: 366c d53f 69e6 b93f ae21 993f cbee 703f
00000130: 25f2 d13f 6d4f 693f c56d 533f 133c fc3e
00000140: 2e2f f83e 781b bb3e 709b 8e3e 4599 863e
00000150: 0923 123e 10f3 e73d 0775 a93d 0a6d e83d
00000160: 8061 643d e929 843d 49ad 2c3d 4556 083d
00000170: a4fd 2f3d 6aaf f33c 20f9 ff3c b805 be3c
00000180: 92f4 b43c 9893 5f3c ff5d 513c d623 e53c
00000190: 2a7e 243c

mean_grad_history f4 [101]
1.1121007e+07 3.4214232e+06 2.1760282e+06 1.44435e+06 2.7888202e+06 1.0657651e+06 1.365527e+06 1.0549615e+06
469199.6 491615.56 530454.75 362157.75 480350.4 287327.56 169136.02 115325.88
140159.83 104667.97 66828.91 88321.65 97963.47 69411.03 69502.56 58499.36
28608.861 30819.047 22640.004 18721.008 13453.092 19069.578 8811.765 8016.6978
7663.9956 4946.6704 5152.1714 4300.8184 2114.8423 1416.4652 1468.2972 2063.9915
781.67395 615.2926 623.2179 1124.1913 1091.1223 492.60086 465.21436 323.61404
202.41545 196.034 144.05396 146.671 91.69003 70.271416 53.10307 50.887367
62.950672 66.17701 32.34946 17.711832 18.532856 16.795456 12.185651 9.506221
8.985427 5.8631063 6.0376334 5.7576637 3.8408535 3.408911 3.2492204 1.9458462
1.2868792 1.0329224 0.8790044 0.6808725 1.2708805 0.70148164 0.643841 0.3548194
0.3876347 0.29785615 0.21150067 0.20673148 0.1122837 0.08921757 0.06280999 0.085237265
0.043820787 0.047708984 0.032415316 0.025635429 0.03308308 0.02260405 0.024499316 0.017015243
0.016800612 0.0103687905 0.00956198 0.028147303 0.008452136
00000000: 6fb1 294b bdd3 504a 71d0 044a f04f b049
00000010: 5137 2a4a 2919 8249 b8b0 a649 8cc7 8049
00000020: f319 e548 f20b f048 6c81 0149 b8d5 b048
00000030: cd8b ea48 f24b 8c48 012c 2548 f13e e147
00000040: f5df 0848 fc6d cc47 7486 8247 d380 ac47
00000050: bc55 bf47 8491 8747 48bf 8747 5c83 6447
00000060: b981 df46 18c6 f046 02e0 b046 0442 9246
00000070: 5e34 5246 28fb 9446 0faf 0946 9585 fa45
00000080: f77f ef45 5d95 9a45 5f01 a145 8c66 8645
00000090: 7a2d 0445 e30e b144 8389 b744 ddff 0045
000000a0: 226b 4344 bad2 1944 f2cd 1b44 1f86 8c44
000000b0: ea63 8844 e94c f643 709b e843 99ce a143
000000c0: 5b6a 4a43 b408 4443 d00d 1043 c7ab 1243
000000d0: 4c61 b742 f78a 8c42 8b69 5442 aa8c 4b42
000000e0: 7dcd 7b42 a15a 8442 d965 0142 d5b1 8d41
000000f0: 4a43 9441 185d 8641 6df8 4241 7b19 1841
00000100: 4fc4 0f41 919e bb40 4b34 c140 c83e b840
00000110: 8bd0 7540 992b 5a40 3af3 4f40 7d11 f93f
00000120: 75b8 a43f cd36 843f 6f06 613f a94d 2e3f
00000130: 36ac a23f 4d94 333f c4d2 243f e3aa b53e
00000140: 0e78 c63e 9a80 983e a293 583e 6bb1 533e
00000150: fff4 e53d b4b7 b63d 86a2 803d e090 ae3d
00000160: 6d7d 333d 7f6a 433d ecc5 043d 6401 d23c
00000170: 2082 073d 212c b93c cab2 c83c 8d63 8b3c
00000180: 70a1 893c dce1 293c daa9 1c3c 2c95 e63c
00000190: d47a 0a3c

mean_grad_history f4 [101]
8.2240095e+06 2.6693182e+06 1.8135262e+06 1.1178096e+06 2.4445052e+06 761375.5 1.0147939e+06 728832.94
329170.62 325026.72 402806.97 268635.12 367782.9 218695.56 135863.19 91295.04
113719.53 84442.21 54457.496 70044.66 77388.74 56228.266 55018.086 44190.21
22546.242 24216.354 17699.104 14982.108 10335.827 15190.083 7070.7515 6522.7046
6034.8945 3649.4038 3991.087 3219.082 1623.8052 1051.4664 1084.5331 1596.1259
613.29 481.5051 486.97693 948.54694 898.4767 444.61624 408.5571 266.62415
164.61003 156.4313 112.2166 113.45647 70.385086 55.578594 44.669113 37.36651
47.96646 48.82577 25.043787 14.752696 14.139731 12.694774 9.043183 6.87703
6.837841 4.157375 4.7587066 4.3192725 2.9545507 2.532461 2.5310957 1.5610487
0.9759295 0.8488185 0.7478088 0.5531633 1.016233 0.5884138 0.53096724 0.2950151
0.29820392 0.23924495 0.17129815 0.15993023 0.091798455 0.06812283 0.052054726 0.065792866
0.03494337 0.041112218 0.02602272 0.020614078 0.026871325 0.018473756 0.019679697 0.014144399
0.013333369 0.007993639 0.0069841384 0.025508046 0.0072506443
00000000: 13fa fa4a 19ec 224a b260 dd49 8d73 8849
00000010: 6533 154a f8e1 3949 9ec0 7749 0ff0 3149
00000020: 54ba a048 57b4 9e48 dfae c448 642b 8348
00000030: dd94 b348 e491 5548 ccad 0448 854f b247
00000040: c41b de47 1bed a447 7fb9 5447 54ce 8847
00000050: 5f26 9747 44a4 5b47 16ea 5647 369e 2c47
00000060: 7c24 b046 b530 bd46 3546 8a46 6f18 6a46
00000070: 4f7f 2146 5558 6d46 03f6 dc45 a3d5 cb45
00000080: 2897 bc45 7616 6445 6471 7945 5031 4945
00000090: c4f9 ca44 ed6e 8344 0f91 8744 0784 c744
000000a0: 8f52 1944 a7c0 f043 0c7d f343 0123 6d44
000000b0: 829e 6044 e14e de43 4f47 cc43 e44f 8543
000000c0: 2b9c 2443 6a6e 1c43 e66e e042 b6e9 e242
000000d0: 2ac5 8c42 7b50 5e42 2cad 3242 4e77 1542
000000e0: a8dd 3f42 974d 4342 ad59 c841 0b0b 6c41
000000f0: 573c 6241 cb1d 4b41 e1b0 1041 a110 dc40
00000100: 98cf da40 3709 8540 5347 9840 7b37 8a40
00000110: 5c17 3d40 d713 2240 79fd 2140 72d0 c73f
00000120: 84d6 793f 2b4c 593f 6670 3f3f 1c9c 0d3f
00000130: ec13 823f 49a2 163f 78ed 073f 380c 973e
00000140: 2fae 983e a1fc 743e c868 2f3e c0c4 233e
00000150: d400 bc3d fb83 8b3d 5637 553d 69be 863d
00000160: c720 0f3d 4965 283d 992d d53c dbde a83c
00000170: 4121 dc3c 4656 973c 5137 a13c e9bd 673c
00000180: 3474 5a3c c1f7 023c 33db e43b 40f6 d03c
00000190: d096 ed3b

mean_grad_history f4 [101]
6.851964e+06 2.0747266e+06 1.4794879e+06 878080.7 2.1142222e+06 622288.2 797606.94 607789.2
279225.84 277650.47 323300.5 207831.12 272883.72 163373.55 101895.53 73258.52
86994.07 62439.62 41131.27 53552.02 60857.39 42757.996 42561.39 34319.125
17113.062 18803.578 14049.037 11561.521 7900.246 11365.258 5247.492 4989.394
4551.0483 2809.7146 2980.4272 2475.6587 1194.9623 822.2384 811.9455 1255.8431
437.61298 340.01083 356.63074 692.85254 620.31714 339.2412 304.05307 198.96506
121.25609 124.69643 85.836006 90.71321 55.552242 44.712955 35.012943 29.85147
38.38455 39.239174 18.05312 11.888715 11.1817045 10.1758175 6.8717866 5.482442
5.353345 3.4815814 4.0092306 3.609269 2.4114292 2.0692647 2.144571 1.2857231
0.79382074 0.7229731 0.5884663 0.44985694 0.75017 0.47374162 0.40940872 0.23264119
0.2359562 0.18660446 0.13873987 0.1290446 0.07011932 0.05440531 0.042996455 0.056906316
0.028692119 0.03265515 0.02081351 0.017196078 0.024166917 0.015592895 0.015474852 0.011496416
0.010711858 0.0064840596 0.0052676485 0.01861368 0.006043197
00000000: f81a d14a 3543 fd49 ff99 b449 0b60 5649
00000010: b90a 014a 03ed 1749 6fba 4249 d362 1449
00000020: 3b57 8848 4f92 8748 90dc 9d48 c8f5 4a48
00000030: 773e 8548 638b 1f48 c403 c747 4315 8f47
00000040: 09e9 a947 9fe7 7347 45ab 2047 0530 5147
00000050: 64b9 6d47 ff05 2747 6441 2647 200f 0647
00000060: 20b2 8546 28e7 9246 2684 5b46 16a6 3446
00000070: f8e1 f645 0895 3146 f0fb a345 27eb 9b45
00000080: 6338 8e45 6f9b 2f45 d646 3a45 8aba 1a45
00000090: cb5e 9544 428f 4d44 83fc 4a44 fbfa 9c44
000000a0: 76ce da43 6301 aa43 bc50 b243 9036 2d44
000000b0: 4c14 1b44 e09e a943 cb06 9843 0ef7 4643
000000c0: 1e83 f242 9264 f942 09ac ab42 2a6d b542
000000d0: 7f35 5e42 11da 3242 410d 0c42 d0cf ee41
000000e0: c789 1942 eaf4 1c42 ca6c 9041 2d38 3e41
000000f0: 43e8 3241 26d0 2241 ade5 db40 2a70 af40
00000100: 9a4e ab40 3bd2 5e40 9e4b 8040 43fe 6640
00000110: db54 1a40 d56e 0440 a740 0940 9392 a43f
00000120: d637 4b3f c414 393f baa5 163f a653 e63e
00000130: 240b 403f 438e f23e 059e d13e 7e39 6e3e
00000140: 819e 713e 3d15 3f3e d311 0e3e 4524 043e
00000150: b89a 8f3d 1ad8 5e3d 0d1d 303d 9916 693d
00000160: bc0b eb3c 68c1 053d 1881 aa3c cade 8c3c
00000170: b3f9 c53c 5879 7f3c 3c8a 7d3c 775b 3c3c
00000180: ca80 2f3c 3c78 d43b 3d9c ac3b b77b 983c
00000190: 0306 c63b

mean_grad_history f4 [101]
6.7329305e+06 1.7734569e+06 1.1846349e+06 788075.56 1.4089376e+06 516356.7 701803.2 492232.75
232665.19 262243.22 259843.5 172678.95 234949.56 136963.86 83188.195 57258.21
71424.875 51538.08 33058.477 44244.52 48071.414 34474.156 35054.18 27981.082
13806.991 14943.016 11169.171 9694.047 6075.8716 9043.644 4492.4014 4133.9497
3600.0562 2307.4517 2468.8606 1817.8134 950.9865 674.38824 679.1345 1038.4435
400.82364 274.71347 268.89624 478.8574 439.9598 227.66713 205.87651 144.51321
91.19118 95.5618 68.462616 69.81261 42.722977 34.339207 25.730022 21.668821
29.776043 29.573198 14.362826 9.573061 8.2273855 7.4352317 5.378027 4.3007383
4.057817 2.6531231 2.9588854 2.6695156 1.8139262 1.5905535 1.629711 0.9858027
0.6234251 0.5842411 0.45081335 0.351545 0.5739041 0.35905918 0.31922385 0.18554665
0.18396963 0.14560698 0.10391987 0.103199415 0.05569667 0.044426937 0.03324238 0.04285231
0.022014052 0.024295265 0.016679827 0.013107668 0.019961324 0.012462506 0.012205521 0.008760913
0.008386764 0.005080823 0.004027829 0.011696473 0.0051084617
00000000: 0579 cd4a 877c d849 d79b 9049 b966 4049
00000010: 4dfd ab49 9620 fc48 b356 2b49 1859 f048
00000020: 4c36 6348 670c 8048 e0c0 7d48 bda1 2848
00000030: 6471 6548 f7c0 0548 197a a247 36aa 5f47
00000040: 7080 8b47 1452 4947 7a22 0147 85d4 2c47
00000050: 6ac7 3b47 28aa 0647 2eee 0847 2a9a da46
00000060: f7bb 5746 107c 6946 af84 2e46 3078 1746
00000070: f9de bd45 934e 0d46 3663 8c45 992f 8145
00000080: e600 6145 3a37 1045 c54d 1a45 073a e344
00000090: 23bf 6d44 d998 2844 9cc8 2944 31ce 8144
000000a0: 6d69 c843 535b 8943 b872 8643 bf6d ef43
000000b0: dbfa db43 c9aa 6343 63e0 4d43 6283 1043
000000c0: e261 b642 a41f bf42 dcec 8842 0ea0 8b42
000000d0: 54e4 2a42 595b 0942 16d7 cd41 bf59 ad41
000000e0: 5635 ee41 e995 ec41 23ce 6541 422b 1941
000000f0: 5fa3 0341 6bed ed40 cc18 ac40 a69f 8940
00000100: a3d9 8140 c5cc 2940 615e 3d40 58d9 2a40
00000110: bc2e e83f 4297 cb3f 5f9a d03f 915d 7c3f
00000120: ca98 1f3f d390 153f 02d1 e63e b5fd b33e
00000130: 61eb 123f 9bd6 b73e 4f71 a33e f1ff 3d3e
00000140: 8962 3c3e ff19 153e f1d3 d43d 375a d33d
00000150: 3122 643d 05f9 353d 2929 083d e785 2f3d
00000160: d056 b43c dd06 c73c 22a4 883c 8bc1 563c
00000170: ee85 a33c 8a2f 4c3c aaf9 473c ef89 0f3c
00000180: a368 093c 087d a63b e1fb 833b 90a2 3f3c
00000190: e264 a73b

mean_grad_history f4 [101]
5.0717845e+06 1.416837e+06 929731.1 561539.1 1.403065e+06 426335.8 558898.75 411804.7
188616.17 209001.02 206930.88 136166.23 192724.84 117829.33 64381.113 46031.18
57532.867 40508.273 27645.197 35149.184 40170.246 28916.365 29120.814 23049.305
11933.515 12402.173 9208.816 7752.275 5240.169 7762.9697 3741.6096 3209.7102
2996.55 1817.892 2013.1853 1495.0255 794.7585 553.7107 552.7669 856.54474
305.40964 203.46944 225.1184 405.76105 358.4157 179.21057 171.50609 114.88243
74.69792 76.21347 55.362846 56.102615 36.92549 27.201164 22.216213 18.416723
23.946102 23.741516 10.859085 7.3163886 6.641234 6.3901906 4.600269 3.5322056
3.380721 2.2363853 2.5500069 2.2001085 1.5574148 1.3481702 1.3631737 0.8255227
0.5072718 0.49888653 0.38716233 0.29470947 0.52111113 0.30490002 0.2673476 0.15712813
0.15089186 0.1222911 0.092946954 0.08464287 0.048598144 0.038824916 0.027621467 0.035938554
0.01839932 0.019269412 0.01339074 0.01065307 0.016159916 0.010313929 0.010533194 0.0074612605
0.0073633934 0.004685055 0.0033546628 0.010830929 0.004278063
00000000: 51c7 9a4a 28f4 ac49 32fc 6249 3218 0949
00000010: c845 ab49 fa2b d048 2c73 0849 9613 c948
00000020: 0b32 3848 411a 4c48 b814 4a48 8ff9 0448
00000030: 3635 3c48 aa22 e647 1d7d 7b47 2ecf 3347
00000040: debc 6047 463c 1e47 65fa d746 2f4d 0947
00000050: 3fea 1c47 bbe8 e146 a181 e346 9c12 b446
00000060: 0f76 3a46 b1c8 4146 44e3 0f46 3342 f245
00000070: 5ac1 a345 c297 f245 c1d9 6945 5d9b 4845
00000080: cd48 3b45 8b3c e344 eea5 fb44 d1e0 ba44
00000090: 8bb0 4644 7c6d 0a44 1531 0a44 dd22 5644
000000a0: 6fb4 9843 2d78 4b43 4f1e 6143 6ae1 ca43
000000b0: 3635 b343 e835 3343 8f81 2b43 cec3 e542
000000c0: 5665 9542 4c6d 9842 8e73 5d42 1469 6042
000000d0: b4b3 1342 fc9b d941 ceba b141 7355 9341
000000e0: 9e91 bf41 a0ee bd41 d0be 2d41 db1f ea40
000000f0: fd84 d440 717c cc40 6735 9340 a80f 6240
00000100: bc5d 5840 f020 0f40 5033 2340 94ce 0c40
00000110: 5e59 c73f d790 ac3f 7a7c ae3f 7555 533f
00000120: 91dc 013f 0e6e ff3e 243a c63e 29e4 963e
00000130: 8a67 053f db1b 9c3e c9e1 883e 32e6 203e
00000140: 6583 1a3e c273 fa3d f95a be3d 3e59 ad3d
00000150: d90e 473d e006 1f3d 6a46 e23c 4e34 133d
00000160: 2cba 963c e3da 9d3c d664 5b3c 378a 2e3c
00000170: cd61 843c c1fb 283c 6b93 2c3c 977d f43b
00000180: 9f48 f13b 1785 993b e7d9 5b3b 3574 313c
00000190: fe2e 8c3b
