DL/AI_Deep_Dive/Loss_Landscape/model_save/BNReLU10C1_VG_MNIST.pt (torch, 82295 bytes, 211 tensors)

weight f4 [1, 1, 3, 3]
00000000: 0e44 b1be 02ba c0bd 3adf 08bf 579f 2fbe
00000010: e8ce bbbd bbf8 17be 9b66 cfbd 5ea6 143e
00000020: 5dab 953d
-0.34622234 -0.09410478 -0.53465617 -0.17150627 -0.091703236 -0.14840977 -0.10126992 0.14516589
0.073080756

weight f4 [1, 1, 3, 3]
00000000: a056 81be 975e 083d 0e16 2ebc f6e9 58be
00000010: 833e 73bd f808 9dbe 63fd 523e e351 c23d
00000020: 6717 b53e
-0.25261402 0.033293333 -0.010625375 -0.21182999 -0.059385788 -0.30670905 0.20604472 0.09488275
0.35369417

weight f4 [1, 1, 3, 3]
00000000: 9da5 c2bd 7c45 4b3e 51d1 d9bd e128 473e
00000010: 649a b0bd 1629 2a3f c43d 133e 4610 34be
00000020: b51a 9b3e
-0.095042445 0.19850725 -0.10635627 0.19449188 -0.08623198 0.6646894 0.1437903 -0.17584333
0.30293813

weight f4 [1, 1, 3, 3]
00000000: fdfc 85bd 62e7 0ebe 1bab b9bb fe75 c53d
00000010: 51d5 6e3e 01a1 03bf b9f4 cbbd f95a f1be
00000020: f13a f0be
-0.06542394 -0.13955453 -0.0056661493 0.09641646 0.23323561 -0.5141755 -0.099587865 -0.4713972
-0.4691997

weight f4 [1, 1, 3, 3]
00000000: 4304 523c 1301 8b3e 8d64 653d d3ca c03e
00000010: e0cd 2fbe eba7 34be 8eba 0ebe 464b 89be
00000020: 4713 d0be
0.012818399 0.27149257 0.056004096 0.37654743 -0.17168379 -0.1764218 -0.13938352 -0.26815242
-0.40639707

weight f4 [1, 1, 3, 3]
00000000: 52cd c3be c0f7 0bbd 536d a3bd c7df a7bd
00000010: 3177 9d3d 3a26 563e 52a2 063e cbfd 8abd
00000020: 3677 033f
-0.38242584 -0.03417182 -0.07979836 -0.08196979 0.076887496 0.2091302 0.13147858 -0.067866884
0.51353776

weight f4 [1, 1, 3, 3]
00000000: 3a27 733e 72fe fbbe dc9f 393e 5af6 a53e
00000010: 633c c7be 0b25 c53d c29c 3bbd 9ba7 923c
00000020: fac4 93bd
0.23745432 -0.49217564 0.18127388 0.32414514 -0.3891326 0.09626206 -0.045803793 0.017902186
-0.07215305

weight f4 [1, 1, 3, 3]
00000000: ccf8 f73d e897 4fbb 9603 8b3c 8043 a73b
00000010: 2ef7 bc3e b423 8e3d d92c b33e 07cd b8be
00000020: 6be3 8bbe
0.12108001 -0.0031676237 0.016969483 0.005104482 0.36907333 0.069404036 0.34995154 -0.36093923
-0.27321944

weight f4 [1, 1, 3, 3]
00000000: 2ff3 9f3e fdf6 543d 4d65 823e e99b cf3d
00000010: 94ef 903e 83f9 b1be 4bd0 4abc e924 6a3e
00000020: de68 c93e
0.31240222 0.05199336 0.2546791 0.101371594 0.28307784 -0.34760675 -0.0123787625 0.22865643
0.3933782

weight f4 [1, 1, 3, 3]
00000000: a708 313e 2c74 e13c 5b8a fb3d 72bb c43e
00000010: 8ae0 573d dafd 963e dd63 2a3e 895c 8abd
00000020: b46a ba3e
0.17288457 0.027521215 0.122822486 0.3842426 0.05270437 0.29490548 0.16639657 -0.06755931
0.36409533

weight f4 [10, 49]
00000000: 36c1 3cbe 9352 8e3d e9ec 013e a7c2 253d
00000010: a70b f4bd 7f26 20bf c708 cabe 677e 54be
00000020: 1d58 a4bd 5775 3abe c0ef 00be 0c43 8c3e
00000030: fb9e 3d3b cde3 39be 90a0 633d e9b6 d03d
00000040: ebba f0bc 5b2f 2d3e d62f cabe e0c7 273c
00000050: 92ae 78be 6ff2 043e 89f3 913e 6161 193e
00000060: 85f1 743d 738f 953c f16f d13e 4ec1 e2bc
00000070: 672e 703e c292 2b3e 757d f639 1cf2 87be
00000080: 32db 883e 131d 9f3e f6de e1bc 5dbd 61bd
00000090: 4aef 063e 4f0c 623e d4c3 193d d40c 473d
000000a0: 6864 0bbe 7e81 15be f553 49be 2667 293e
000000b0: b103 4bbe c658 74bf 66b9 00bf 8fe8 5fbf
000000c0: 414c 41bf 3c4f 96be 7fa3 003f b385 d13e
000000d0: ed89 41be 05c5 653c c08e 913d caa8 853d
000000e0: f54c e9bc f745 10b9 d53d 6d3e afb5 6d3d
000000f0: d070 9a3e c70a 1dbe 69a5 a4be b3f7 07bf
00000100: f2d5 8abd 1e1b aebe def6 9d3c 2712 0fbe
00000110: fd7e 3e3e 7489 6cbe ce36 073e 9289 47be
00000120: 1021 2e3e 1cc6 513d d2e7 523e 032a 92be
00000130: b828 50be c5f7 24bf 69e9 af3d 0f51 bd3a
00000140: 327c 523e fa2b b5bd f56f 0ebf 2686 e23d
00000150: 73c9 c2be 69f9 403d 8bda 93bc 300d 4d3e
00000160: 1e5b a9be 8407 143d c328 a23d 81f3 633e
00000170: 8027 a8bc 88a5 e5bd fb79 b73d 4e88 573e
00000180: 2813 43bd e566 ea3c 5803 c13e 97db 2ebd
00000190: bf63 073e 116d be3d 9152 ec3c b65b 09be
000001a0: ab1e 97bc 43b4 143d 17e7 cabd 2600 5c3d
000001b0: 5dae 7cbc 6b07 94be f995 bebe 0c95 5fbf
000001c0: 2cb5 a6be e33c 5dbe 00cb 15be 41f5 e7bd
000001d0: cd90 c0bb 2ad2 3f3e b389 363d 64f8 28bd
000001e0: 62a7 9ebe 22cd 17be 5dfe 7a3d 8ded 1b3f
000001f0: 4a01 cb3e fe54 773e 2659 e3bd ba59 0a3e
00000200: c16c 8f3d 1fc9 853d 2800 61be d8e0 5dbe
00000210: 9805 a53e b400 963e 26ac 0c3e 462a 0d3e
00000220: cfcd 6bbd d638 01bf 3c99 84bc 07a2 d23e
00000230: c01d 083b 7da5 f1be 1c5f dfbe faab f4bd
00000240: 7c87 9f3e 490e 923e 0cb8 c53e 79a7 633e
00000250: e4b0 a03d 3b69 7a3c 7031 603e 7257 423d
00000260: 0f0d 3dbd 8e59 80be a99f 093e 65b3 423d
00000270: e2f4 e9bd ffec 46be 50c6 09bf f788 2c3e
00000280: f38c e1be 747f 18be 686f 22be 2208 9fbe
00000290: 5ce0 853d 9b0d a13e 4066 993e f71a 9ebe
000002a0: 5c6d a43b 6cc2 87be 7375 41bd 5b88 24bd
000002b0: aa91 8dbe de6c 11be db86 a3be 99ef 86be
000002c0: 1fe7 eabd 0244 78bd 8f0d 1dbe 6fb6 33be
000002d0: 89e3 0c3e f391 ebbc 7109 bd3e ffba 0cbe
000002e0: c394 7abe 609c debc e085 c53e e49f 2d3e
000002f0: 5119 debd f7d6 103f 7160 813e aedb 36be
00000300: 63fc 5a3d 0725 84be c570 2cbd 952a b93f
00000310: 785a 993e a0ce 053f 2e2b 093f 91d3 bb3d
00000320: f298 51be 180d 58be 4374 46be f028 963d
00000330: 1cb5 f43d 8969 5ebd 2c67 563e d69e a63e
00000340: e3ab 9d3e 0ef1 a83e a26a 1f3e 5f67 9bbd
00000350: 6724 d73c d658 263e 1bcd 423e 6cdc 7f3e
00000360: 0e65 86bc 64c3 ebbc 827d b33d 7687 e53d
00000370: 8189 57be c959 003c 669a 873b b44f de3e
00000380: 5ee3 163e 63af 87bc 61f8 bbbd 2277 38be
00000390: 5263 99bd f2cb 12be f32b 2abe e9c3 1fbf
000003a0: 3c84 52be 7785 33be d914 553e 02e2 5cbb
000003b0: fd32 1abe 4308 be3d c68f fcbe 70ea fa3c
000003c0: 4589 c53e 83dd 793d 7a41 b93e 2f04 7e3e
000003d0: 5c5b 80bf 94d4 ccbd 2948 983c cb32 c43c
000003e0: 40ac c43d 1e47 14bd 17f8 f63e 6334 ad3e
000003f0: 2fc8 993b c143 f33d 3da4 bebd d9f3 453d
-0.18433079 0.069493435 0.1268803 0.040468838 -0.11916285 -0.6255874 -0.39459822 -0.20751344
-0.08024619 -0.18208824 -0.12591457 0.27394903 0.002893387 -0.18153305 0.055573046 0.10191137
-0.029386004 0.16912596 -0.3948962 0.010240525 -0.24285343 0.12983106 0.28506115 0.14978553
0.059800643 0.018256878 0.40905717 -0.027680065 0.23455201 0.16755202 0.0004701425 -0.26551902
0.26729733 0.3107687 -0.027572136 -0.05511223 0.13177219 0.22075008 0.037540272 0.04859622
-0.1361252 -0.14600179 -0.19660933 0.16543254 -0.19825627 -0.9544796 -0.50282896 -0.8746423
-0.7550698 -0.29357326 0.50249475 0.40922317 -0.18900271 0.014024024 0.071073055 0.065263346
-0.028479079 -0.00013758974 0.23168118 0.058034595 0.30164194 -0.15336142 -0.32157448 -0.53112334
-0.06779088 -0.34005064 0.019282755 -0.13971768 0.1860313 -0.23099309 0.132045 -0.19486073
0.170048 0.051214322 0.20596245 -0.28547677 -0.20328033 -0.64440566 0.08589441 0.0014443713
0.20555189 -0.088462785 -0.5563958 0.11060743 -0.3804432 0.047112856 -0.018048545 0.20024562
-0.3307733 0.03613998 0.07917931 0.22260858 -0.020526648 -0.11213213 0.08958813 0.2104809
-0.04762569 0.028613517 0.37697864 -0.042689886 0.13221644 0.092981465 0.028847964 -0.13413891
-0.01844724 0.036304723 -0.09907358 0.05371108 -0.015422431 -0.2891191 -0.37223795 -0.873368
-0.32560098 -0.21605258 -0.1462822 -0.11326075 -0.0058766366 0.18732515 0.044564914 -0.04125251
-0.30987078 -0.14824346 0.061277736 0.6090935 0.3964942 0.24153516 -0.11100988 0.1351079
0.07003165 0.065325014 -0.21972716 -0.21667802 0.3223083 0.2929741 0.13737544 0.13785657
-0.05756932 -0.5047735 -0.01618635 0.41139242 0.0020769686 -0.4719657 -0.4362725 -0.119468644
0.31158054 0.28526524 0.3861698 0.22231854 0.07846239 0.015283878 0.21893859 0.047446676
-0.04615503 -0.25068325 0.13439812 0.047534365 -0.11423661 -0.19426344 -0.53818226 0.16849123
-0.44052848 -0.1489237 -0.1586281 -0.31060892 0.06536934 0.31455693 0.29960823 -0.30879948
0.0050179195 -0.2651552 -0.04723115 -0.0401691 -0.27650195 -0.14201686 -0.31938824 -0.26354674
-0.11469864 -0.060611732 -0.15337203 -0.17550062 0.13758673 -0.028756117 0.36921266 -0.13743208
-0.2447081 -0.027174175 0.385787 0.16955525 -0.108446725 0.5657801 0.2526889 -0.17857239
0.05346335 -0.258095 -0.042099733 1.446612 0.29951835 0.5226841 0.5358151 0.091712125
-0.204685 -0.21098745 -0.19380288 0.07332027 0.11948606 -0.054299865 0.20937794 0.32543057
0.30795202 0.3299641 0.15568021 -0.07588076 0.026262475 0.16244826 0.19023554 0.24986428
-0.016405609 -0.028779693 0.08764173 0.11207478 -0.21048547 0.007833906 0.004138279 0.43420184
0.14735171 -0.016563123 -0.09178234 -0.18014196 -0.07489647 -0.14335611 -0.16618328 -0.6240831
-0.20558256 -0.17531382 0.20808734 -0.0033704047 -0.15058513 0.092789195 -0.4932844 0.030629367
0.3858129 0.061002266 0.36182767 0.24806283 -1.0027881 -0.100014836 0.018589096 0.023950001
0.096031666 -0.036200635 0.48236153 0.3382903 0.004693053 0.118781574 -0.0930867 0.048328254

mean_grad_history f4 [11]
00000000: 8dfb 373f fba6 813e cd27 173e e539 dd3d
00000010: 3383 5b3e e884 ae3d 71e3 123e 846a bd3d
00000020: 73d3 343d 78f8 063e bbad 0a3d
0.7186821 0.25322708 0.14761277 0.10802058 0.21436767 0.085214436 0.14344575 0.09248832
0.044146966 0.13180721 0.03385709

mean_grad_history f4 [11]
00000000: 0210 c83e ba12 6a3e c9ed 063e 37e2 a23d
00000010: eef2 4f3e 8fb1 c53d 17c0 143e 74d7 b43d
00000020: d733 373d 1c32 223d 9e6b c53c
0.39074713 0.22858706 0.13176645 0.07953303 0.20307514 0.09653007 0.14526401 0.08830157
0.044727173 0.03959857 0.024099167

mean_grad_history f4 [11]
00000000: 2112 ce3e cd50 873e 3d9a 053e 9e3e b13d
00000010: b9c6 4f3e 484f 003e 199e 133e 095a df3d
00000020: 63ae 503d ff29 2d3d 2adf c23c
0.40248206 0.26428834 0.13047118 0.086545214 0.2029065 0.12530243 0.14415778 0.10905845
0.050947558 0.04227638 0.023788054

mean_grad_history f4 [11]
00000000: 6727 be3e 319f 853e 23aa 023e acae b83d
00000010: d1d5 4f3e 9e96 103e 0423 173e 8aa8 033e
00000020: 63c8 4a3d d68d 2c3d 55d5 bd3c
0.37139437 0.26098016 0.12760215 0.09017691 0.20296408 0.14119956 0.14759451 0.12857261
0.04950751 0.042127453 0.023173014

mean_grad_history f4 [11]
00000000: 1857 be3e d1dd 873e afef 053e 74d5 c53d
00000010: f960 3d3e e4c5 123e 15e1 1a3e ceb2 1e3e
00000020: 1a64 5c3d 7aea 383d 2e86 c93c
0.37175822 0.2653642 0.13079713 0.096598536 0.18494023 0.14333302 0.15124924 0.15497896
0.0538064 0.04514549 0.024600115

mean_grad_history f4 [11]
00000000: 5647 b63e 7bb4 893e ef3c 043e da90 c93d
00000010: eb7a 323e dde0 1a3e 6c3b 213e d7ee 283e
00000020: a063 5e3d aa54 3d3d 0325 c63c
0.356013 0.26895508 0.1291387 0.09842081 0.17429702 0.15124841 0.15745324 0.1649736
0.05429423 0.04622332 0.02418757

mean_grad_history f4 [11]
00000000: 7200 b23e dcb3 863e 4cf5 073e b544 c23d
00000010: 0e5d 233e b4a8 113e c818 293e ea2b 343e
00000020: 702d 613d 0689 413d 605d c53c
0.34765965 0.26309097 0.13277167 0.09485761 0.15953466 0.14224511 0.1651336 0.17594877
0.054974973 0.047249816 0.024092376

mean_grad_history f4 [11]
00000000: de30 b03e 2f04 8b3e e2c9 083e ed06 c73d
00000010: e214 203e 0da9 0f3e ff92 363e b589 2f3e
00000020: 917b 5d3d 2caa 4b3d c1d3 c63c
0.34412283 0.2715163 0.13358262 0.09718118 0.15632966 0.14029332 0.17829512 0.17142375
0.05407292 0.049722835 0.024270894

mean_grad_history f4 [11]
00000000: 7d37 a43e d9ab 843e 2022 fb3d 3e11 bf3d
00000010: a5d4 1d3e cc78 143e d047 443e 134d 463e
00000020: cc1c 793d ddf0 553d 505f c63c
0.32073584 0.2591236 0.12262368 0.093294606 0.15413149 0.14499205 0.1916802 0.19365339
0.06081848 0.05223166 0.02421537

mean_grad_history f4 [11]
00000000: 9db1 a13e ea71 893e 85d5 023e 8c76 bc3d
00000010: 5619 263e 4926 253e 7b40 3b3e 8d2a 463e
00000020: d864 863d 1124 583d 9624 c63c
0.3158082 0.26844722 0.12776764 0.092022985 0.16220602 0.16127886 0.18286316 0.1935217
0.06562203 0.05276877 0.024187367

mean_grad_history f4 [11]
00000000: a219 903e 8c62 813e 49a4 023e 1f0a bd3d
00000010: 54a5 1d3e ea4f 183e 337d 413e 4394 483e
00000020: 8812 8d3d 0e1d 5f3d 8729 c53c
0.28144556 0.25270498 0.12757982 0.09230446 0.15395099 0.14874235 0.18895416 0.19587807
0.068883 0.054471068 0.024067653

mean_grad_history f4 [11]
00000000: 7170 813e 0d51 773e 08cd ea3d 168a bb3d
00000010: 7d39 1b3e 69b6 1e3e af00 4b3e e469 383e
00000020: 7034 8b3d 89b5 593d 7297 c43c
0.25281098 0.24152012 0.11464888 0.09157197 0.15158649 0.15499271 0.1982448 0.18009144
0.06797111 0.05315164 0.023997996

mean_grad_history f4 [11]
00000000: 9693 673e 524c 863e b3ad 013e 253a c73d
00000010: bb89 213e d96b 223e ffb5 4c3e c322 393e
00000020: f420 853d 88b3 503d fc2f bf3c
0.22614893 0.26230103 0.12663917 0.09727887 0.15775196 0.15861453 0.19991301 0.18079667
0.06500426 0.050952464 0.02333831

mean_grad_history f4 [11]
00000000: 334e 5a3e a302 783e 7dab 003e 4557 d03d
00000010: be4c 293e 321b 2b3e 5a34 543e d16a 2e3e
00000020: 6204 863d 3750 583d 2653 c23c
0.21318893 0.24219756 0.12565418 0.10172895 0.16533181 0.16709593 0.20723096 0.17032935
0.06543805 0.052810874 0.023721289

mean_grad_history f4 [11]
00000000: dab3 583e cb56 833e 1cb4 073e 33f7 d73d
00000010: 4e16 263e e86f 1e3e eff3 5b3e 36d6 343e
00000020: c7be 7c3d b5cc 523d cca8 c33c
0.21162358 0.25652155 0.132523 0.105451964 0.16219446 0.15472376 0.21479772 0.1765984
0.061705377 0.051464755 0.0238842

mean_grad_history f4 [11]
00000000: db4b 4d3e a466 753e 8164 0a3e b420 d63d
00000010: 21fc 1d3e 789d 193e d856 593e 8416 243e
00000020: d1ea 7a3d dbe4 533d 6fcf be3c
0.20048468 0.23964936 0.13514902 0.104554564 0.15428211 0.15001476 0.21224535 0.16024214
0.061259095 0.051731925 0.023292271

mean_grad_history f4 [11]
00000000: 621b 503e a324 893e 07f3 0a3e 10bf dd3d
00000010: 275a 1b3e 7f59 143e 14ad 753e 7a82 2b3e
00000020: 9812 733d bc16 5a3d 72b7 b83c
0.20322946 0.26785764 0.1356927 0.10827458 0.15171109 0.14487265 0.23991805 0.16748992
0.059343904 0.053244337 0.022548411

mean_grad_history f4 [11]
00000000: a81e 303e 6790 843e e8c1 053e a494 d93d
00000010: 48a1 233e e0a1 2e3e c720 6e3e a17a 243e
00000020: 3a95 873d 655c 623d 2da0 bb3c
0.17199194 0.2589142 0.1306225 0.10624054 0.15979493 0.17053938 0.23254691 0.16062404
0.066202596 0.055263896 0.022903526

mean_grad_history f4 [11]
00000000: aa94 313e 2b5f 943e 1ff6 013e 3f0a d63d
00000010: 8da0 1f3e e3c2 303e 2955 4e3e c2db 1f3e
00000020: e099 893d 1489 6d3d 347a b63c
0.17341867 0.28978857 0.12691544 0.10451173 0.15588589 0.17261843 0.20149674 0.15611175
0.067188025 0.057992056 0.022275068

mean_grad_history f4 [11]
00000000: 66c5 2d3e 87e4 a13e 0b3f fb3d 9559 db3d
00000010: e79e 283e d637 333e d714 5a3e 1434 2f3e
00000020: 0151 833d dc01 713d 3e88 b23c
0.16969833 0.31619665 0.12267884 0.10710446 0.16466866 0.17501768 0.21297012 0.1710971
0.06411935 0.058839664 0.021793481

mean_grad_history f4 [11]
00000000: 2adf 263e 5595 993e 5d1e f93d 7cfe e53d
00000010: ee62 453e 234c 503e 4d6e 923e 1bfe 443e
00000020: 280b 863d b492 7e3d d44a b43c
0.16296068 0.29996744 0.121639945 0.1123018 0.1927602 0.20341544 0.28599778 0.19237559
0.06545097 0.062151626 0.022008337

mean_grad_history f4 [11]
00000000: cd7a 243e 1bf0 933e d5ed fb3d 60e3 ea3d
00000010: 1209 283e 3411 1d3e b04f 7c3e 357f 383e
00000020: d98d 7d3d 1645 6a3d c333 ae3c
0.1606247 0.28894123 0.12301222 0.114691496 0.1640971 0.15338594 0.24639773 0.18017276
0.061902855 0.05719479 0.021264916

mean_grad_history f4 [11]
00000000: 5f45 2a3e e52c 973e 66c2 ee3d 7a1b db3d
00000010: c552 2a3e 9c3b 1d3e 0c51 7d3e e25d 273e
00000020: e34c 7f3d cfe4 603d df97 ae3c
0.16628025 0.2952644 0.11658172 0.106986 0.16633137 0.1535477 0.24737948 0.16344407
0.062329184 0.05490571 0.021312652

mean_grad_history f4 [11]
00000000: 3089 293e c36c a83e 2d65 f43d d54b db3d
00000010: 3480 2c3e 03b1 1e3e 5937 7b3e 7409 2d3e
00000020: aa82 783d 785a 663d 368e af3c
0.16556239 0.3289548 0.1193336 0.10707823 0.1684578 0.15497212 0.24532832 0.16898137
0.060671486 0.05623862 0.021430116

mean_grad_history f4 [11]
00000000: c0d0 263e a4e0 af3e bb6c ec3d 9f99 db3d
00000010: 86db 253e 248d 1e3e 878c 803e 4833 2a3e
00000020: acdc 6d3d b055 633d 3bd9 a53c
0.1629057 0.34351075 0.11544176 0.1072266 0.16197023 0.15483528 0.25107214 0.16621125
0.058071777 0.05550164 0.020245185

mean_grad_history f4 [11]
00000000: 02ba 2d3e 997f c33e b4fd e53d 54de ca3d
00000010: 4923 193e 9cf6 1d3e 6b40 893e dc7a 313e
00000020: b934 693d 895c 5b3d f5d1 ab3c
0.16965488 0.38183287 0.11230031 0.09905687 0.14954866 0.15426105 0.2680696 0.17332023
0.056935046 0.053555045 0.020974139

mean_grad_history f4 [11]
00000000: 7c7a 233e db5c cb3e db89 e33d 1384 d23d
00000010: 189a 123e f069 243e 29de 833e 662f 363e
00000020: ed3b 793d db1c 633d 9760 ae3c
0.15964693 0.3971928 0.11110278 0.102790974 0.14316595 0.16056037 0.25755432 0.17791519
0.060848165 0.05544744 0.021286292

mean_grad_history f4 [11]
00000000: d023 1d3e f2e3 bb3e 5708 eb3d bc42 d43d
00000010: ccfe 1d3e 7f0c 2f3e 16b4 8d3e 92dc 343e
00000020: ee03 753d 6589 653d 5269 a83c
0.15345693 0.36697346 0.114762 0.10364291 0.15429229 0.1709461 0.27676457 0.17662266
0.0598182 0.056039233 0.020558033

mean_grad_history f4 [11]
00000000: 1e15 1c3e 9f5a be3e bbea ea3d 5ada cf3d
00000010: 6f10 223e 2639 2e3e 619b 873e 0886 353e
00000020: 1106 793d 2c9c 673d 156a a93c
0.1524243 0.37178513 0.114705525 0.10149069 0.15826581 0.17013988 0.26485732 0.1772691
0.0607968 0.05654542 0.020680467

mean_grad_history f4 [11]
00000000: d89e 183e 46cd d23e 19ad e93d b8cc ce3d
00000010: 699b 253e 2ada 303e a6da 983e caa7 3d3e
00000020: 7cdd 743d f58f 643d 73cd a23c
0.14904344 0.41172236 0.11409969 0.10097641 0.16172566 0.17270723 0.29854316 0.18521038
0.059781536 0.05580135 0.019873356

mean_grad_history f4 [11]
00000000: 1ec7 113e 4cda b23e a2d3 ec3d 1d16 c93d
00000010: 7b7a 173e 14e8 2b3e e94c 933e 30a6 503e
00000020: 54a9 813d 0737 663d ed28 ac3c
0.14236113 0.34932172 0.11563803 0.09818671 0.14792816 0.1678775 0.28769615 0.20375896
0.06331125 0.056204822 0.021015609

mean_grad_history f4 [11]
00000000: e701 133e 75a0 c23e 8598 f53d 3aa7 c83d
00000010: 5b9c 213e c9ce 333e 8e3d 973e 9768 473e
00000020: 42d1 6d3d 4105 5f3d 2dc1 a93c
0.14356194 0.38013044 0.119919814 0.09797521 0.15782301 0.17559351 0.2953915 0.19473492
0.058060892 0.05444837 0.020721996

mean_grad_history f4 [11]
00000000: 62a8 0f3e 5380 b03e d4b5 e43d 5100 c03d
00000010: f394 0f3e 9610 223e ce09 953e 119b 363e
00000020: 9d83 743d 1d15 5f3d 9ea7 a53c
0.14029077 0.34472904 0.111674935 0.0937506 0.14021663 0.1582664 0.29109043 0.1783259
0.05969583 0.054463495 0.020221528

mean_grad_history f4 [11]
00000000: e868 153e 6c48 cd3e f81e f13d bdd2 bb3d
00000010: 40ca 213e 73f2 2f3e 0cb1 a03e 6acb 3f3e
00000020: b577 6e3d ccf1 623d 9de7 aa3c
0.145908 0.40094316 0.11773485 0.091710545 0.15799809 0.17182331 0.31385076 0.1872994
0.05821963 0.055406377 0.020862395

mean_grad_history f4 [11]
00000000: 8524 0b3e 6112 ca3e 9270 ea3d b3e8 bd3d
00000010: 1f24 1a3e b573 1b3e 0517 9f3e 332b 3c3e
00000020: 42ad 703d 9336 5d3d 80d2 a73c
0.1358815 0.39467147 0.11447252 0.092728995 0.15052842 0.15180857 0.3107225 0.18375854
0.05875898 0.054007124 0.020486116

mean_grad_history f4 [11]
00000000: 5b81 0b3e e5bc c13e e680 e83d 7faa b13d
00000010: 7c8c 153e 2769 1a3e 10b0 923e 1712 313e
00000020: 2893 593d a8d0 4f3d e5a1 a13c
0.13623564 0.37839428 0.113527104 0.08675098 0.14604372 0.15079175 0.2864995 0.17292057
0.053118855 0.0507361 0.019730518

mean_grad_history f4 [11]
00000000: 33a7 043e f684 cb3e 2b6c e63d 8ddb b83d
00000010: a05c 153e 7e7e 263e 0612 9d3e d972 363e
00000020: 9d1d 6d3d cf14 633d e0a5 a83c
0.12954406 0.3974988 0.112511 0.09026251 0.14586115 0.1625919 0.30677813 0.17817248
0.05788957 0.055439766 0.020586908

mean_grad_history f4 [11]
00000000: c0bb 0a3e 94aa c03e c42c eb3d b690 c33d
00000010: 48be 113e f417 123e 66e9 963e 0146 2c3e
00000020: 1dbb 613d 8216 5a3d 239c a53c
0.13548183 0.3763014 0.11483148 0.09549086 0.14232743 0.1426695 0.29474944 0.1682358
0.055110086 0.05324412 0.020216053

mean_grad_history f4 [11]
00000000: 7d24 073e 75e2 b83e 2f37 e73d e894 b83d
00000010: 7697 193e b627 243e c8ef 9e3e 8925 3b3e
00000020: 20fa 5f3d b044 5c3d 7ccc a93c
0.13197513 0.36110273 0.11289822 0.090127766 0.14999184 0.16030774 0.31042314 0.18276037
0.054681897 0.053776443 0.020727389

mean_grad_history f4 [11]
00000000: 2d00 013e c190 c63e d728 e43d 08d9 b83d
00000010: d11d 0d3e 3bd7 123e db74 9e3e 06e3 323e
00000020: 38a7 5f3d 0e86 5e3d bacf a23c
0.12597723 0.38782313 0.11140602 0.090257704 0.13780905 0.14339916 0.3094853 0.17469415
0.05460283 0.054327063 0.019874442

mean_grad_history f4 [11]
00000000: e8f7 003e c3be b73e 3144 e63d 43bf b63d
00000010: 64c1 133e b4f2 1a3e 9c23 a63e 2ac0 3d3e
00000020: 07c6 5b3d ac73 593d 10cc a63c
0.12594569 0.35887727 0.11243475 0.08923199 0.14429241 0.15131646 0.32449043 0.18530336
0.05365565 0.05308883 0.020360976

mean_grad_history f4 [11]
00000000: 5753 fd3d 8758 b83e 2dd2 f03d 51a7 bc3d
00000010: 1414 103e 83cc 1b3e 245f 9d3e 0d0b 323e
00000020: d45d 653d 80a1 5c3d ec4b a83c
0.123694114 0.3600504 0.11758838 0.092116006 0.14070159 0.15214734 0.3073665 0.17387028
0.055997685 0.053864956 0.020544015

mean_grad_history f4 [11]
00000000: 6882 fc3d 80f7 b03e f5e5 e83d fcfd b33d
00000010: f7d4 133e 0eb0 153e f39e 9b3e 8bd1 303e
00000020: 8707 573d 4019 513d c375 a33c
0.123295605 0.34563828 0.11371986 0.08788678 0.14436708 0.14617941 0.30394706 0.17267434
0.052497413 0.05104947 0.019953614

mean_grad_history f4 [11]
00000000: c1ef f73d a343 b73e 01ea e43d 9723 b43d
00000010: 671c 0b3e 191e 0c3e 1930 9e3e 51ed 313e
00000020: c01c 553d 9623 4e3d 72b2 a43c
0.12106276 0.3579379 0.11177445 0.08795851 0.13585053 0.13683356 0.3089607 0.17375685
0.05202937 0.050326906 0.02010462

mean_grad_history f4 [11]
00000000: c69c fa3d 818b a73e 48ed df3d 3e1c af3d
00000010: 5110 073e db2e 103e f143 9a3e c847 2a3e
00000020: f8c8 653d ee29 563d 30a3 a33c
0.122369334 0.3272362 0.1093393 0.08550309 0.13189818 0.14080374 0.3012996 0.16628945
0.05609986 0.05228608 0.019975275

mean_grad_history f4 [11]
00000000: 4668 ed3d 68aa a33e fd8b d53d be1a af3d
00000010: 2a8c 0d3e 5857 123e f118 973e bcea 2e3e
00000020: 55b7 5a3d 173d 503d 6ef6 a33c
0.11592154 0.31965947 0.10427091 0.085500225 0.13823 0.14291131 0.29511216 0.17081732
0.053397495 0.05083951 0.020014968

mean_grad_history f4 [11]
00000000: b043 ee3d 7b72 b03e c51c d13d e5b1 ab3d
00000010: 5d04 093e 50af 0f3e 582a a03e 8921 2c3e
00000020: e9ce 503d 2aad 493d 369b a53c
0.11634004 0.34462342 0.102105655 0.0838354 0.1338057 0.1403172 0.31282306 0.16809668
0.050978575 0.049237408 0.020215612

mean_grad_history f4 [11]
00000000: 64bf ed3d cc78 aa3e 266e d03d 6107 b23d
00000010: 661f 0a3e a32a 133e ef3f a03e 2d93 373e
00000020: d49d 543d 2191 583d cdd3 a53c
0.116087705 0.33295286 0.10177259 0.08692814 0.1348854 0.14371733 0.31298777 0.17927237
0.05190833 0.05287278 0.020242596

mean_grad_history f4 [11]
00000000: 1dee e03d 0f1c a53e 4665 d13d e122 aa3d
00000010: 3843 0a3e 90eb 0f3e 4646 8c3e 9e9e 213e
00000020: 59c3 463d 6f46 413d 0a87 9d3c
0.109829165 0.3224797 0.102243945 0.08307434 0.13502204 0.14054704 0.27397364 0.15783164
0.04852614 0.04718631 0.01922943

mean_grad_history f4 [11]
00000000: c882 e13d d326 aa3e 3634 d23d b8e2 ae3d
00000010: 46bb 0c3e 7843 193e dfdb a03e 3de8 203e
00000020: 5d8e 523d 3191 4e3d bf3b a43c
0.11011273 0.33232746 0.10263865 0.08539337 0.13743314 0.14967144 0.31417748 0.15713592
0.0514053 0.050431434 0.02004802

mean_grad_history f4 [11]
00000000: a240 d43d 86ef a83e e338 c13d c5e4 ab3d
00000010: 884a 083e c13e 0f3e b2b8 983e 2cdf 273e
00000020: 313c 483d 85af 4d3d c771 a13c
0.1036389 0.32995242 0.094346784 0.08393244 0.13309681 0.13988782 0.2982841 0.16393727
0.048885528 0.050216217 0.019707574

mean_grad_history f4 [11]
00000000: 533a da3d b1aa a93e ff25 c23d 51e7 ad3d
00000010: 488b 073e 716b 123e ae88 9a3e 0627 2e3e
00000020: 4f95 533d 78ca 523d 4a99 a03c
0.10655656 0.3313804 0.094799034 0.08491386 0.13236725 0.14298798 0.30182403 0.17007074
0.051656064 0.05146262 0.019604344

mean_grad_history f4 [11]
00000000: e116 d23d b908 9b3e 8e0f c53d bad9 a63d
00000010: ae7c 013e 488d 073e 0ec6 9b3e 5d0a 283e
00000020: 596b 513d 1e12 503d a11e a23c
0.1025827 0.30280092 0.096221074 0.08146997 0.12645218 0.13237488 0.3042454 0.16410203
0.051127765 0.050798528 0.019789996

mean_grad_history f4 [11]
00000000: 05e0 e23d ffda ad3e 0296 c53d 4c56 ac3d
00000010: 2625 053e 8e01 0c3e b155 9c3e 0721 273e
00000020: dad1 473d ca55 4a3d 4864 a13c
0.110778846 0.33956143 0.09647752 0.08414897 0.13002452 0.13672468 0.30534127 0.16321193
0.048784114 0.04939822 0.019701138

mean_grad_history f4 [11]
00000000: 4008 d93d 6ead a83e e0ed bc3d 5bc3 a83d
00000010: df4b 013e 3454 103e d32d 9f3e 7e2c 2c3e
00000020: ed1f 493d 5207 4e3d ee49 a63c
0.10597277 0.32944816 0.092250586 0.08240386 0.12626599 0.14094621 0.3108965 0.16813847
0.049102712 0.05029995 0.020298924

mean_grad_history f4 [11]
00000000: 8fc6 cf3d c1b1 9a3e 951e bb3d 7719 a93d
00000010: f9db 003e 67b8 143e 5be0 9a3e 37d2 2d3e
00000020: 95ce 4b3d d38e 503d d109 a53c
0.10145294 0.3021374 0.091366924 0.0825681 0.12583913 0.14523469 0.30249295 0.16974722
0.04975756 0.050917458 0.020146282

mean_grad_history f4 [11]
00000000: 0983 d83d eb92 9f3e da84 b93d ff07 a43d
00000010: 6a73 fa3d 0100 083e 92c6 a23e d883 293e
00000020: a9ab 4d3d 0423 513d 4b08 a53c
0.10571868 0.31166777 0.090585425 0.08009338 0.12229045 0.13281251 0.31792122 0.165542
0.050212536 0.051058784 0.020145556

mean_grad_history f4 [11]
00000000: c148 cd3d 107f a43e 58d7 b93d c1eb ad3d
00000010: 6053 f73d c906 123e 65ca 973e a981 2d3e
00000020: 3b87 4e3d d418 4d3d aaee a33c
0.10023642 0.3212819 0.09074277 0.08492232 0.120764494 0.14260401 0.29646602 0.16943993
0.050421935 0.050072506 0.020011265

mean_grad_history f4 [11]
00000000: c1ef c13d 5cb1 983e 6c09 ab3d 38e9 a03d
00000010: 2db8 e73d 2aaf fc3d d017 983e 0161 1e3e
00000020: 3b71 473d cd27 443d d34a 9b3c
0.094695576 0.29822814 0.083514065 0.07856983 0.113144256 0.123380974 0.29705667 0.15466692
0.04869197 0.04788952 0.018956577

mean_grad_history f4 [11]
00000000: d3b9 c63d e054 a43e 177f b83d aa5a ad3d
00000010: 81c1 013e 4857 133e 167b 9b3e 7577 263e
00000020: a9f8 443d 768e 423d fb6c a33c
0.09703412 0.32096004 0.090086155 0.084645584 0.12671472 0.14388764 0.30367345 0.16256507
0.048088703 0.047499143 0.019949427

mean_grad_history f4 [11]
00000000: eaf8 cb3d beeb a13e 73a4 b63d 4f52 a63d
00000010: 05fa e93d 1e64 013e fea8 8b3e 16d3 273e
00000020: 404e 4b3d db17 433d efa9 9f3c
0.09959586 0.3162517 0.08918085 0.08121168 0.114246406 0.12635848 0.27277368 0.16389117
0.049635172 0.047630172 0.01949021

mean_grad_history f4 [11]
00000000: 381a d33d 2e65 a73e 3cf4 b23d a37c a93d
00000010: ebde ff3d b5a3 043e 99bc 913e 0b11 213e
00000020: 5f1a 3b3d bfde 3a3d 34e8 9b3c
0.10307735 0.3269438 0.0873799 0.08275726 0.1249369 0.12953074 0.284642 0.15729158
0.045679446 0.045622583 0.019031622

mean_grad_history f4 [11]
00000000: 67ab c93d cff4 9f3e dc26 b53d c1a4 a33d
00000010: edb3 f53d 02f9 033e efd7 893e 2377 273e
00000020: 9394 4b3d 2c7b 413d 8eb9 9c3c
0.098471455 0.31241462 0.088453025 0.07990409 0.11997209 0.12887958 0.26922557 0.16354041
0.04970224 0.047236606 0.019131448

mean_grad_history f4 [11]
00000000: 9dee c13d 05ac a43e af18 b23d 3f21 a13d
00000010: b310 ea3d cc97 063e 8cdc 833e 2ee7 2a3e
00000020: 98b4 4d3d d510 483d ad47 9d3c
0.0946934 0.3216249 0.08696114 0.07867669 0.114289664 0.13143843 0.257542 0.1668975
0.050221056 0.048844177 0.019199217

mean_grad_history f4 [11]
00000000: 79bf ca3d 86e6 943e 48d7 b53d 53aa a53d
00000010: 42f1 f03d 8799 ff3d 7f40 853e ecb2 1e3e
00000020: 5542 473d b3cc 3f3d 15bb 9e3c
0.09899802 0.29082125 0.08878952 0.080891274 0.11764766 0.12480455 0.2602577 0.15497941
0.048647244 0.046826076 0.019376317

mean_grad_history f4 [11]
00000000: d437 c53d 8a29 a43e f6ec ab3d 39d7 a03d
00000010: f9a5 e03d 1b1e fc3d 15f0 843e 90f4 183e
00000020: 60a0 413d 720e 383d f592 9f3c
0.09629789 0.32062942 0.08394806 0.078535505 0.10969157 0.1231043 0.25964418 0.14937043
0.047272086 0.04493565 0.019479254

mean_grad_history f4 [11]
00000000: 9528 c33d 6587 b13e 3a0f b13d 7b30 a53d
00000010: b42f f33d 2af9 0f3e 8345 893e 1008 293e
00000020: 918f 513d a96d 3f3d 01e4 9f3c
0.09529225 0.3467361 0.08645482 0.080658875 0.11874333 0.14059892 0.26810846 0.16506982
0.051162306 0.04673544 0.0195179

mean_grad_history f4 [11]
00000000: eecd b83d 6a4e a13e c2e6 ab3d cf75 9e3d
00000010: af08 f23d 3b7a 093e 24b3 8b3e 87ff 1a3e
00000020: 4873 4a3d 8d5d 3a3d d42f 9e3c
0.09023653 0.31505138 0.08393623 0.07737314 0.118180625 0.13425533 0.2728511 0.15136538
0.049426347 0.045499373 0.019309916

mean_grad_history f4 [11]
00000000: a45b c53d c7d5 a33e 1dcd a83d 942e a23d
00000010: fdd0 f63d f297 0b3e 23d1 843e d2e0 293e
00000020: e59a 4b3d 6154 3b3d a046 9d3c
0.0963662 0.31999037 0.08242247 0.0791904 0.1205158 0.13632181 0.2594081 0.16589668
0.049708266 0.045734767 0.019198716

mean_grad_history f4 [11]
00000000: 6609 bb3d 5a59 9b3e dbaa ac3d 9023 a53d
00000010: 35d3 e43d e5a3 073e 88a9 873e bca2 253e
00000020: aba3 533d 57fc 363d a71e 9f3c
0.09132652 0.30341607 0.084310256 0.08063424 0.11173097 0.13246115 0.2649653 0.1617536
0.051669758 0.044674244 0.019423796

mean_grad_history f4 [11]
00000000: 4655 b33d 657c a13e ba28 a93d 4f0c a03d
00000010: f24d f23d 0b3d 093e 6cf4 883e e784 1c3e
00000020: f048 543d 07e9 363d 9d76 9f3c
0.08756499 0.31540218 0.08259721 0.07814848 0.11831273 0.13402192 0.2674898 0.15285073
0.05182737 0.044655826 0.019465739

mean_grad_history f4 [11]
00000000: 9b19 b73d 3d3e a43e 1ff1 aa3d e0a2 9f3d
00000010: 3741 e53d e8b4 043e 535f 833e 53ca 2b3e
00000020: cb08 513d 1953 3a3d 75e0 9f3c
0.08940431 0.32078734 0.083467714 0.07794738 0.11194079 0.12959635 0.25658664 0.167764
0.051033776 0.045489404 0.01951621

mean_grad_history f4 [11]
00000000: 0d23 c03d 0bda a13e 9c7f b13d 4e0c a23d
00000010: 4e22 fb3d 1972 093e 662d 953e 5431 243e
00000020: 6419 543d 5f5d 3b3d 5856 a23c
0.093816854 0.31611666 0.08666918 0.07912503 0.122624025 0.13422431 0.291362 0.16034442
0.051782027 0.045743342 0.019816563

mean_grad_history f4 [11]
00000000: 8836 b73d 7515 963e 2dd0 ac3d 05cc 9f3d
00000010: a9b6 dd3d 5099 013e 8a14 843e 0a88 233e
00000020: 4c8e 4b3d e0d8 2f3d 6db9 9d3c
0.08945948 0.29313245 0.08438144 0.078025855 0.10825855 0.1265614 0.2579692 0.15969864
0.04969625 0.042931437 0.019253457

mean_grad_history f4 [11]
00000000: 397b b93d 707c 933e 2da7 a93d bac0 9d3d
00000010: ec3c f23d 12b5 0e3e b3ea 8f3e c70d 2d3e
00000020: 71af 533d c34a 393d e998 9f3c
0.09056706 0.28805876 0.082838394 0.07702775 0.11828026 0.1393626 0.2810875 0.16899787
0.051680986 0.045237314 0.019482093

mean_grad_history f4 [11]
00000000: 1e44 b73d a5a5 993e 3393 b83d 8a76 a93d
00000010: b318 053e 2ac6 183e 2b84 8e3e 6853 2e3e
00000020: ed4b 623d 1212 403d ef9b 9d3c
0.08948539 0.3000919 0.09012451 0.08274563 0.12997703 0.14919344 0.2783521 0.17024004
0.05524819 0.046892233 0.019239394

mean_grad_history f4 [11]
00000000: cc09 b63d d5a1 993e 6b70 a83d bb00 a33d
00000010: 1ffa ed3d fab1 093e a370 873e 608a 2b3e
00000020: d229 593d c804 343d e0cb a13c
0.08888587 0.3000628 0.08224567 0.07959124 0.116199724 0.13446799 0.26453122 0.16752005
0.0530184 0.043949872 0.019750535

mean_grad_history f4 [11]
00000000: fe38 b93d ce44 9c3e f288 b13d 6fea a53d
00000010: 2df0 ea3d 5068 053e fa8a 853e 41cb 2b3e
00000020: 0c2f 543d e7d5 333d 62c0 9b3c
0.090440735 0.30521244 0.08668698 0.08101355 0.11471591 0.13028073 0.26082593 0.16776754
0.05180268 0.043905165 0.019012634

mean_grad_history f4 [11]
00000000: 2d2f bf3d e936 9a3e 2a0d b53d d942 a63d
00000010: e000 ed3d ecb4 063e cd1c 953e 22f8 373e
00000020: aa27 553d 6d3d 343d 57d8 9f3c
0.0933517 0.30120018 0.088404015 0.08118219 0.115724325 0.13154954 0.29123536 0.17965749
0.05203978 0.044003893 0.019512339

mean_grad_history f4 [11]
00000000: 6606 b93d b4a9 9a3e 9029 aa3d 574a a13d
00000010: 906b f43d ea82 0c3e 9ff7 8a3e 1a50 323e
00000020: 7783 5f3d 4936 363d dd4f a23c
0.090344235 0.30207598 0.08308709 0.07875507 0.119345784 0.13721815 0.27142045 0.17413369
0.054568734 0.044485364 0.019813472

mean_grad_history f4 [11]
00000000: 22c0 b93d 3611 a63e 2b81 b13d 16fb a33d
00000010: 34f8 ec3d e4c4 1b3e f660 8e3e 940d 333e
00000020: 14bc 673d 4983 413d e6f3 a33c
0.090698496 0.32435006 0.08667215 0.08006875 0.115707785 0.15211827 0.2780835 0.17485648
0.05657585 0.047244344 0.02001376

mean_grad_history f4 [11]
00000000: 01a4 b93d be5f 983e a357 b73d 2344 b13d
00000010: 0f64 ed3d 494c 103e d07e 8e3e 123a 2e3e
00000020: 4fa5 6a3d 77d3 393d 587f 9f3c
0.090644844 0.29760545 0.08952262 0.08655574 0.1159135 0.140916 0.27831125 0.1701434
0.057286557 0.045367684 0.019469902

mean_grad_history f4 [11]
00000000: 8b14 b63d 089b a53e e2cd a93d ed4e 9c3d
00000010: 224f f03d 4998 0e3e e677 8c3e 0217 2a3e
00000020: 7d0b 603d 5265 3b3d 36b7 9e3c
0.08890637 0.32344842 0.08291222 0.076322414 0.117338434 0.1392528 0.27435225 0.1661034
0.054698456 0.045750923 0.019374471

mean_grad_history f4 [11]
00000000: e5b0 b03d 4d96 953e 9556 a73d 47d6 9d3d
00000010: 45d0 f03d a447 0f3e f6ab 8f3e eab7 1f3e
00000020: 3e89 5c3d bdb0 2d3d 4def 9d3c
0.0862749 0.29216233 0.08170811 0.07706886 0.11758474 0.13992172 0.28060883 0.15597501
0.05384182 0.04240488 0.019279147

mean_grad_history f4 [11]
00000000: ff6a be3d 2144 a13e 809b b53d 7427 ab3d
00000010: a98e fc3d 9ccc 0e3e fca7 8c3e fd10 2c3e
00000020: 4022 6c3d 52eb 323d 4a67 a13c
0.09297752 0.3149729 0.0886755 0.083571345 0.12331898 0.1394524 0.27471912 0.16803356
0.05764985 0.04368145 0.019702572

mean_grad_history f4 [11]
00000000: 6614 b13d 0bdb 993e 16f8 a93d 13ca a03d
00000010: 9729 ee3d aef4 0d3e dbce 913e c8ba 373e
00000020: 3f21 6f3d 366c 3e3d 0d6e a33c
0.08646469 0.3004993 0.08299272 0.078510426 0.116290264 0.13862869 0.2847813 0.17942345
0.058381315 0.046489917 0.019949937

mean_grad_history f4 [11]
00000000: 3345 b03d acf7 983e e39c b13d cad9 9d3d
00000010: 4622 f73d 2d4f 123e c2ae 8e3e 2508 313e
00000020: 39d8 673d 6893 333d dd5b a33c
0.08606949 0.2987646 0.08672502 0.077075556 0.12067084 0.14288016 0.27867705 0.17288263
0.05660269 0.04384175 0.019941265

mean_grad_history f4 [11]
00000000: 2d91 ba3d 763a 9e3e 5853 b53d 6df9 a23d
00000010: 91c9 f33d ac6c 0c3e 9648 8f3e 04b1 2d3e
00000020: 6e47 573d 63b3 2b3d b03f 9e3c
0.09109721 0.30903977 0.08853787 0.079577304 0.1190368 0.1371333 0.27985066 0.16962057
0.052558355 0.041919123 0.019317478

mean_grad_history f4 [11]
00000000: 6c9e b33d 7510 9e3e 7943 ac3d ed4b 993d
00000010: 318c e93d 6240 023e ef77 8f3e 875c 293e
00000020: 24b9 623d 16bb 303d ac7c a03c
0.08770451 0.3087193 0.08411307 0.07485185 0.114036925 0.12719873 0.2802119 0.16539203
0.055352345 0.04314717 0.019590698

mean_grad_history f4 [11]
00000000: 44cf af3d 770f 9f3e 3cf2 b33d dc1c 9c3d
00000010: 1de7 eb3d d956 073e c4fa 953e f6e9 353e
00000020: d485 693d a75d 323d 9423 a43c
0.08584455 0.31066486 0.08786437 0.07622692 0.11518691 0.13216724 0.2929288 0.1776503
0.057012394 0.043546345 0.020036496

mean_grad_history f4 [11]
00000000: 7a7b b53d 3916 9d3e 08d4 ae3d 8441 a23d
00000010: a845 f33d 3b51 0a3e ce87 893e 2d30 2c3e
00000020: a33d 613d d732 2e3d cf72 a03c
0.08861442 0.30681017 0.085365355 0.07922652 0.1187852 0.1350755 0.26861423 0.16815253
0.054990422 0.042528953 0.019585995

mean_grad_history f4 [11]
00000000: 7989 b43d 7268 963e 1c9e b03d 4d2b 9e3d
00000010: 4a74 f43d 0b4b 0d3e 7450 923e bf02 313e
00000020: 36be 653d aaa3 2f3d 8bed a23c
0.08815283 0.2937656 0.08623907 0.07723103 0.11936243 0.13798158 0.28577006 0.17286204
0.056089602 0.04288069 0.01988866

mean_grad_history f4 [11]
00000000: d3d9 b13d ae70 843e 23df a93d 13d4 9a3d
00000010: c97b f53d 2d83 103e eb01 8b3e 9484 263e
00000020: 2155 5f3d d03c 313d fb4e 9d3c
0.08684125 0.25867218 0.08294513 0.07559981 0.11986501 0.1411254 0.271499 0.16261512
0.054524545 0.043270886 0.0192027

mean_grad_history f4 [11]
00000000: 1533 a83d 5367 8d3e cc1b b23d 04ce a03d
00000010: e694 f13d 77e1 0f3e 00bb 883e ddb8 333e
00000020: 1cb0 6c3d b00f 313d 1006 9d3c
0.08212868 0.27617893 0.08696708 0.07851794 0.11795978 0.14050852 0.2670517 0.17550988
0.05778514 0.04322785 0.01916793

mean_grad_history f4 [11]
00000000: 0be7 ac3d e7c1 923e bc2f b33d 57b0 a03d
00000010: f607 ee3d 992a 0e3e bff3 923e ec89 2e3e
00000020: 29ed 603d 3681 2a3d d48a 9f3c
0.084425054 0.2866356 0.08749339 0.07846134 0.11622612 0.13883437 0.2870159 0.170448
0.054913674 0.04162713 0.019475378

mean_grad_history f4 [11]
00000000: 121b a53d 7698 983e fbff a93d 6240 983d
00000010: 4407 e53d b618 0b3e 0a8f 963e 40c9 2e3e
00000020: 7805 723d e784 303d 20ed a23c
0.08061804 0.29803818 0.083007775 0.07434155 0.111830264 0.13583645 0.29406005 0.17068958
0.059087247 0.043095496 0.01988846

mean_grad_history f4 [11]
00000000: 86af b23d 7141 a53e 4258 b33d 5bae a53d
00000010: 93b7 f13d f59b 0b3e 8f3a 963e 54b0 343e
00000020: 080c 663d b26f 2f3d 10e3 a53c
0.08724885 0.3227649 0.08757068 0.08089896 0.11802592 0.13633712 0.29341552 0.17645389
0.056163818 0.04283113 0.020249873

mean_grad_history f4 [11]
00000000: 1eae ab3d 75df 993e 2a07 ad3d 31fc 9f3d
00000010: 2779 e73d fb8a 093e 3069 933e e523 293e
00000020: 702f 683d 4bb3 303d b014 a23c
0.083828196 0.30053297 0.08448632 0.078117736 0.11302405 0.13431923 0.2879119 0.16517599
0.056685865 0.043139737 0.019785255

mean_grad_history f4 [11]
00000000: 328b ac3d 4472 8d3e a18c b13d 67be a23d
00000010: bcae e83d 97f3 0a3e c951 933e 20b1 2c3e
00000020: 5b8f 5b3d 7d3e 2a3d 2e8f 9f3c
0.08424987 0.2762624 0.08669401 0.079464726 0.11361453 0.13569485 0.28773335 0.16864443
0.05360351 0.0415635 0.019477453

mean_grad_history f4 [11]
00000000: 7cee ab3d 84ea 953e caaa ad3d 64f6 9c3d
00000010: 80bd e73d ed9d 0a3e dbc7 893e 6288 273e
00000020: ec7a 5d3d cdb0 283d b6a9 a13c
0.08395097 0.29280484 0.08479841 0.07664183 0.11315441 0.13536806 0.2691029 0.1636062
0.054072306 0.041184235 0.019734245

mean_weight_history f4 [11]
00000000: a68a 0a3e 5cab 163e 6ead 273e 5f9c 5d3e
00000010: 1d60 3b3e 66a6 293e d3cd 333e d89b 123e
00000020: 4656 613e 249c 2b3e 30af 9a3d
0.13529453 0.14713806 0.16374752 0.21641682 0.18298383 0.16567382 0.17558984 0.14317262
0.22005567 0.16758782 0.075529456

mean_weight_history f4 [11]
00000000: fae5 093e ede9 123e 447a 243e 5eb2 5f3e
00000010: 6aec 3e3e 88c1 293e 7fab 313e 3245 0d3e
00000020: 2485 553e 8298 1d3e 9d92 c73d
0.13466635 0.14347048 0.16062266 0.21845385 0.18644872 0.16577733 0.17350577 0.13795927
0.2085157 0.15390208 0.09744761

mean_weight_history f4 [11]
00000000: 92bf 083e 933d 123e 4c91 243e 2e72 5b3e
00000010: 9b55 403e c3fd 223e cfaf 283e 9d78 103e
00000020: 6289 463e 261d 143e 46c1 e63d
0.13354328 0.14281301 0.16071051 0.21430275 0.18782656 0.15917115 0.16473316 0.1410851
0.19388345 0.14464244 0.11267333

mean_weight_history f4 [11]
00000000: 1494 073e 9252 113e 8a85 213e 459c 573e
00000010: ce31 413e 15bc 203e b84d 243e a1ea 143e
00000020: 19b5 393e 1aaf 113e 9a05 fa3d
0.13240081 0.14191654 0.15773597 0.21055706 0.18866655 0.15696748 0.16045272 0.14542629
0.1813549 0.14226952 0.122081

mean_weight_history f4 [11]
00000000: e72e 063e 88c1 113e baaf 1d3e 67f2 563e
00000010: b90d 423e fcc2 1f3e cc23 223e 83a9 183e
00000020: 09b5 393e 676c 123e fc44 043e
0.1310383 0.14233983 0.15399066 0.20990907 0.18950547 0.15601724 0.15833968 0.14908414
0.18135466 0.14299165 0.1291694

mean_weight_history f4 [11]
00000000: 6a9e 063e cd2a 123e 581a 1c3e 8b0c 563e
00000010: 15ee 413e c4aa 1e3e 3950 213e 460e 1c3e
00000020: d2cf 3c3e 55dc 133e e193 093e
0.13146368 0.1427414 0.15244424 0.20903222 0.18938477 0.1549483 0.15753259 0.1523982
0.18438652 0.14439519 0.13435318

mean_weight_history f4 [11]
00000000: 3c84 083e 00a6 113e 3f22 1b3e 8741 563e
00000010: 0237 423e b468 1e3e c4cb 1e3e 6ced 1d3e
00000020: 0107 403e 6b01 153e 3d5c 0e3e
0.13331693 0.1422348 0.15149783 0.20923434 0.18966296 0.15469629 0.15507418 0.154226
0.18752672 0.14551322 0.13902374

mean_weight_history f4 [11]
00000000: 02c2 093e ce71 113e 9517 1a3e 04e4 563e
00000010: 5000 423e 873d 1f3e e1fd 1e3e 5784 1e3e
00000020: b94d 423e a272 193e ea64 123e
0.13452914 0.1420357 0.15048058 0.20985419 0.18945432 0.15550815 0.15526535 0.15480171
0.18974961 0.14985135 0.14296308

mean_weight_history f4 [11]
00000000: 2b32 0a3e 1d7e 103e 52bf 183e 33de 553e
00000010: 2842 413e 4a75 1e3e 043a 1f3e c490 1e3e
00000020: 083f 423e d731 1c3e d83b 163e
0.134957 0.14110608 0.14916733 0.20885544 0.18872893 0.1547443 0.15549475 0.15484911
0.18969357 0.15253387 0.14671266

mean_weight_history f4 [11]
00000000: e5b6 0c3e c108 0f3e f766 153e c232 543e
00000010: edb6 403e 2026 1d3e 78a6 1d3e 1b85 203e
00000020: 85b9 413e 3a48 1f3e 84a8 193e
0.13741644 0.13968183 0.14590059 0.20722488 0.1881978 0.15346575 0.15395534 0.15675776
0.18918426 0.15554896 0.1500569

mean_weight_history f4 [11]
00000000: 6d61 0c3e e1c9 103e a0df 123e 52eb 513e
00000010: 8d53 403e 30b3 1b3e 663c 1d3e 6a19 203e
00000020: f804 443e 2ef0 203e aed6 1c3e
0.1370904 0.1413951 0.14343119 0.20499924 0.18781872 0.15205073 0.15355071 0.15634695
0.1914252 0.15716621 0.15316269

mean_weight_history f4 [11]
00000000: 3d3a 0d3e 09a1 113e 104a 123e 9621 4f3e
00000010: de50 403e 94f5 193e 887f 1b3e 77e4 203e
00000020: 7688 443e 7de7 1f3e b799 1f3e
0.13791747 0.14221586 0.14286065 0.20227656 0.18780848 0.15035087 0.15185368 0.15712152
0.1919268 0.1561565 0.15585981

mean_weight_history f4 [11]
00000000: 1fa5 0f3e 54c2 123e e555 153e de14 4b3e
00000010: 3348 403e cbcb 183e a153 1e3e 1c19 223e
00000020: 70b8 433e 70cd 203e b986 213e
0.14027832 0.14331943 0.14583547 0.19832179 0.18777542 0.14921491 0.1546159 0.15829891
0.19113326 0.15703368 0.15774049

mean_weight_history f4 [11]
00000000: 4b8f 113e 69ee 123e 8328 1a3e 1918 473e
00000010: e806 403e 54bb 173e ec44 223e bea6 233e
00000020: d7d7 423e e991 223e 6a8c 233e
0.14214818 0.14348759 0.15054516 0.19442786 0.18752635 0.14817554 0.15846604 0.15981576
0.19027649 0.15875973 0.15971532

mean_weight_history f4 [11]
00000000: 243d 123e 48b6 133e 6f53 1f3e 17d3 443e
00000010: 6c35 3f3e 7b7e 173e 9669 253e 29e4 243e
00000020: 0a6b 423e 19c7 243e 33f6 243e
0.14281136 0.14425004 0.15559171 0.1922115 0.18672723 0.14794342 0.16153559 0.16102661
0.18986145 0.16091575 0.16109543

mean_weight_history f4 [11]
00000000: f48e 133e 3473 143e 342e 223e 3237 463e
00000010: 69b2 3e3e ce24 173e f497 273e 81a0 263e
00000020: b2c6 413e dcd5 243e 3dac 263e
0.14410001 0.14497072 0.15837938 0.19356993 0.18622746 0.14760134 0.1636656 0.16272165
0.18923452 0.16097206 0.16276641

mean_weight_history f4 [11]
00000000: 5269 163e 4086 153e 8487 243e 1d21 463e
00000010: 6eae 3e3e a77b 153e ad3f 293e 7c58 283e
00000020: 6476 413e 89db 253e 0ddc 273e
0.14688614 0.14601994 0.1606732 0.19348569 0.18621227 0.14597951 0.16528197 0.16440004
0.18892819 0.16197027 0.16392536

mean_weight_history f4 [11]
00000000: 6ad5 193e fc55 183e 5fb7 253e e851 473e
00000010: 8935 3e3e 6e6b 123e 04c8 2a3e 03f4 283e
00000020: f625 403e 797b 243e 8566 293e
0.15022817 0.1487655 0.16183232 0.19464839 0.1857511 0.14298794 0.16677862 0.16499333
0.18764481 0.16062726 0.16543014

mean_weight_history f4 [11]
00000000: 1813 1d3e c3a6 1a3e 8d6b 263e 8b85 483e
00000010: 4ccf 3d3e 3f73 0c3e 87d0 2d3e f320 283e
00000020: 425c 403e 0419 233e 82aa 2a3e
0.15339315 0.15102677 0.16251965 0.19582193 0.18536109 0.13715838 0.16974078 0.16418819
0.18785194 0.15927511 0.16666606

mean_weight_history f4 [11]
00000000: 3bfe 1f3e 7696 1b3e de16 283e a2e6 493e
00000010: d316 3d3e 247e 083e 0300 303e 2e67 253e
00000020: 86c6 403e 443d 243e c3ab 2b3e
0.15624325 0.15194115 0.16414973 0.19716886 0.18465738 0.13329369 0.17187504 0.16152641
0.1882573 0.16038996 0.1676474

mean_weight_history f4 [11]
00000000: f766 213e f5cf 1d3e df9e 293e 4ab7 4a3e
00000010: a7a7 3b3e 9d68 053e 20d0 313e 6239 233e
00000020: a869 423e d6c4 233e b3da 2c3e
0.15761934 0.1541136 0.16564511 0.19796482 0.18325673 0.13028188 0.1736455 0.15939859
0.18985617 0.15993056 0.16880302

mean_weight_history f4 [11]
00000000: f678 233e 653c 1f3e d02b 2c3e 7e4a 4b3e
00000010: 7f4c 3b3e 8402 063e 2ce2 323e 9e97 223e
00000020: 5a7a 433e 631a 243e d966 2e3e
0.15964112 0.15550382 0.16813588 0.19852635 0.182909 0.13086897 0.1746909 0.1587815
0.19089642 0.1602569 0.17031421

mean_weight_history f4 [11]
00000000: 5281 243e 0063 1f3e 9f34 2c3e 8874 4b3e
00000010: 2879 393e f41a 063e f72d 333e f57f 233e
00000020: 844e 443e 5354 253e 8e12 303e
0.16064957 0.15565109 0.16816948 0.19868672 0.18112624 0.1309622 0.17498003 0.1596678
0.19170576 0.16145448 0.17194578

mean_weight_history f4 [11]
00000000: 34ff 253e 14fb 1e3e f910 2e3e cc9d 4c3e
00000010: 83f2 373e e74b 073e 63c8 333e 257f 243e
00000020: 07a1 473e acd1 263e c3e3 313e
0.16210634 0.15525466 0.16998662 0.1998207 0.17963605 0.13212548 0.1755691 0.16064127
0.19495021 0.16290921 0.1737204

mean_weight_history f4 [11]
00000000: 21b5 273e 8941 1e3e b219 2f3e 3d86 4d3e
00000010: fdbd 363e ff26 073e 6712 353e 60e8 253e
00000020: 8e85 493e 03c4 283e c237 333e
0.16377689 0.15454687 0.17099646 0.20070739 0.17845912 0.1319847 0.17682801 0.16201925
0.19679853 0.16481023 0.17501739

mean_weight_history f4 [11]
00000000: 17aa 293e 0d1f 1e3e e0b4 303e 2440 4f3e
00000010: 9b0e 363e 7063 073e 65b2 353e 8f96 263e
00000020: a29f 4c3e c22c 2b3e 237d 343e
0.1656879 0.15441532 0.17256498 0.20239311 0.17779009 0.13221526 0.17743833 0.16268371
0.1998277 0.16716293 0.17625861

mean_weight_history f4 [11]
00000000: b631 2a3e c784 1f3e 0c1f 323e 8e86 4f3e
00000010: 1c05 353e 9358 073e 6289 363e 571e 273e
00000020: 5642 4e3e 66ea 2d3e f8c9 353e
0.16620526 0.15577994 0.17394656 0.20266172 0.1767773 0.13217382 0.17825845 0.16320167
0.20142493 0.16983947 0.17752826

mean_weight_history f4 [11]
00000000: fbea 293e aa1f 203e a481 333e 9112 503e
00000010: 6755 343e 7f7f 073e 0bd8 363e 24d1 273e
00000020: d6f5 4e3e e3bd 2f3e c400 373e
0.16593544 0.15637079 0.17529923 0.20319583 0.17610703 0.1323223 0.17855851 0.16388375
0.20210966 0.1716228 0.17871386

mean_weight_history f4 [11]
00000000: a8c3 293e f980 203e d891 343e 4b38 523e
00000010: 194c 343e 19b3 073e 2293 373e d990 283e
00000020: a745 503e 2c48 303e 0bd6 373e
0.16578543 0.15674199 0.1763376 0.20529287 0.17607154 0.13251914 0.1792722 0.16461505
0.2033907 0.17215031 0.17952745

mean_weight_history f4 [11]
00000000: 1fe7 293e 5cf3 203e 3601 353e 831d 523e
00000010: f0d1 333e 78bf 083e 2988 383e 2e36 293e
00000020: 7ded 503e f07d 303e 8fe0 383e
0.16592072 0.15717834 0.17676243 0.2051907 0.17560554 0.1335429 0.18020691 0.16524574
0.20403095 0.17235541 0.18054412

mean_weight_history f4 [11]
00000000: d9fe 283e 2189 213e 004e 363e c7a5 523e
00000010: 7681 323e a0f7 093e 6b9f 393e ef7f 293e
00000020: 315c 513e d899 303e 2ec9 393e
0.16503467 0.15774967 0.17803192 0.20571052 0.17432198 0.13473368 0.1812722 0.16552709
0.20445324 0.17246187 0.1814315

mean_weight_history f4 [11]
00000000: 66bf 283e db03 223e 8aba 363e 5e97 523e
00000010: bb36 323e 17e8 093e 64b6 3a3e b62c 293e
00000020: ea38 513e 9a31 303e 298a 3a3e
0.16479263 0.15821783 0.17844597 0.20565554 0.1740369 0.13467441 0.18233639 0.16520962
0.20431867 0.17206421 0.18216766

mean_weight_history f4 [11]
00000000: 6eed 283e 20ee 213e 5331 383e cf93 533e
00000010: c284 323e e504 0a3e 977b 3b3e 6008 293e
00000020: 78f2 503e 239f 313e 1b2e 3b3e
0.16496822 0.15813494 0.17987566 0.20661853 0.17433456 0.1347843 0.18308865 0.16507101
0.20404994 0.17345862 0.18279307

mean_weight_history f4 [11]
00000000: c2dc 273e 4c67 223e 4b2b 393e 7205 543e
00000010: 76b7 323e 70e6 0a3e f9c4 3c3e 084a 293e
00000020: 0d28 523e fbc2 313e 7207 3c3e
0.16392806 0.15859717 0.18082921 0.20705202 0.17452797 0.13564467 0.18434514 0.16532147
0.2052309 0.17359535 0.18362215

mean_weight_history f4 [11]
00000000: 6189 283e 7188 223e c6f4 393e 6ac6 543e
00000010: 6739 323e 8539 0c3e 1f79 3d3e 4b6a 293e
00000020: 14a0 533e fd08 333e 39b8 3c3e
0.16458656 0.15872361 0.1815978 0.20778814 0.1740471 0.13693817 0.18503235 0.16544454
0.20666534 0.17483898 0.1842965

mean_weight_history f4 [11]
00000000: 9ecb 273e 0701 233e b403 3b3e 46f9 543e
00000010: f984 333e e69f 0d3e 94e5 3d3e 919f 283e
00000020: fd34 553e 6e6b 333e df97 3d3e
0.16386268 0.1591836 0.18263131 0.20798215 0.17531194 0.13830528 0.18544608 0.1646712
0.20820995 0.1752145 0.18514965

mean_weight_history f4 [11]
00000000: 7c6c 283e e0a3 223e b7b9 3c3e f9a4 553e
00000010: 561c 343e 31f8 0d3e 2f13 3e3e 6311 283e
00000020: c294 553e bf4a 343e ba59 3e3e
0.16447634 0.15882826 0.1843022 0.20863713 0.17588934 0.13864209 0.18562005 0.16412883
0.20857528 0.17606638 0.18588915

mean_weight_history f4 [11]
00000000: 0eb4 283e 3a87 223e 9d03 3f3e 948c 563e
00000010: a9cf 343e 0caa 0e3e 40a5 3e3e 8241 293e
00000020: 6e19 573e 3911 353e 2625 3f3e
0.16474935 0.15871897 0.18653722 0.20952064 0.17657341 0.13932055 0.18617725 0.16528895
0.21005794 0.17682351 0.18666515

mean_weight_history f4 [11]
00000000: 4703 283e 3196 223e 9499 3f3e 1621 563e
00000010: b071 353e 8484 103e 9640 3f3e 31dc 283e
00000020: 179e 573e 4c37 353e 32ce 3f3e
0.164075 0.15877606 0.18710929 0.20911059 0.1771915 0.1411305 0.18676981 0.16490246
0.210564 0.17696875 0.18731001

mean_weight_history f4 [11]
00000000: 3c90 263e 1d8f 223e 5a0f 3f3e 5083 563e
00000010: 2e5a 363e 2a23 123e f1a8 3f3e c770 273e
00000020: 5dbd 583e 2a1e 363e b660 403e
0.16265959 0.15874906 0.186582 0.20948529 0.17807838 0.14271227 0.1871679 0.16351615
0.21165986 0.17784944 0.18786892

mean_weight_history f4 [11]
00000000: e060 263e 9395 223e ac90 403e 9cb8 573e
00000010: 90c2 363e 1fcc 123e d8e5 3f3e 415c 283e
00000020: 9388 5a3e 8218 383e 7bf1 403e
0.16247892 0.1587737 0.18805188 0.21066517 0.17847657 0.14335679 0.18740022 0.16441442
0.21341161 0.17978099 0.18842117

mean_weight_history f4 [11]
00000000: c843 263e 5aa4 223e cfc7 413e e89d 583e
00000010: 0afe 363e 0ff6 133e 2457 403e fd81 273e
00000020: 46a9 5a3e c3cd 363e da5c 413e
0.16236794 0.15883008 0.18923877 0.21153986 0.17870346 0.14449333 0.18783242 0.1635818
0.21353635 0.1785193 0.18883076

mean_weight_history f4 [11]
00000000: b518 253e 0790 223e 5828 423e 2f12 583e
00000010: 955e 373e 7dd1 143e 9f7e 403e 1c12 273e
00000020: 47b7 5b3e 6fdd 373e 1abc 413e
0.16122706 0.15875255 0.18960702 0.21100686 0.17907174 0.14533038 0.18798302 0.16315502
0.21456634 0.17955564 0.18919411

mean_weight_history f4 [11]
00000000: 83a0 233e f825 223e 6618 423e f95d 583e
00000010: 5c37 383e 582e 163e fbb9 403e d445 263e
00000020: f931 5d3e 96a7 383e 8632 423e
0.15979199 0.15834796 0.1895462 0.21129598 0.17989868 0.14666116 0.18820946 0.16237575
0.21601094 0.18032679 0.18964586

mean_weight_history f4 [11]
00000000: 11e0 223e 81d8 213e 77b5 423e c060 583e
00000010: e361 393e 48b9 173e 6923 413e 52ab 263e
00000020: 0c47 5e3e 8a66 393e c176 423e
0.15905787 0.15805246 0.19014536 0.21130657 0.18103747 0.14816773 0.18861164 0.16276291
0.2170679 0.18105522 0.18990614

mean_weight_history f4 [11]
00000000: 524b 223e dc04 223e 1f57 443e 89e0 583e
00000010: 1caa 3a3e 5209 193e 4221 413e ac57 263e
00000020: 9109 613e 697b 3b3e 9301 433e
0.15849045 0.15822166 0.19173859 0.21179403 0.18228954 0.14944962 0.18860343 0.16244382
0.21976306 0.18308796 0.1904357

mean_weight_history f4 [11]
00000000: fc2d 203e 7c20 223e dbe9 443e 58f9 583e
00000010: 09b8 3b3e 8edb 193e dec3 413e f005 263e
00000020: 0ce0 623e 2540 3c3e 0fbd 433e
0.15642542 0.15832704 0.19229834 0.21188867 0.18331923 0.1502516 0.18922374 0.16213202
0.2215578 0.18383844 0.19115089

mean_weight_history f4 [11]
00000000: 541e 203e 17d8 223e 8fbf 453e 2cc0 593e
00000010: d91a 3d3e 5d94 1a3e 2f0d 423e f2e1 253e
00000020: d618 663e f48e 3d3e 4b7a 443e
0.1563657 0.15902744 0.19311355 0.21264714 0.18467273 0.15095659 0.18950342 0.16199473
0.22470412 0.18511564 0.19187276

mean_weight_history f4 [11]
00000000: ea3b 1f3e 9d2f 233e 1f83 463e 1829 593e
00000010: 0c39 3e3e ea3d 1c3e 2f30 423e 4054 253e
00000020: 550a 673e a6b9 3d3e 7355 453e
0.15550199 0.15936132 0.19385956 0.21207082 0.18576449 0.15257993 0.18963693 0.1614542
0.22562535 0.1852785 0.19270878

mean_weight_history f4 [11]
00000000: c8a4 1e3e 4b68 233e cc1e 473e 23f0 593e
00000010: da90 3e3e 409b 1c3e ba3b 423e b473 253e
00000020: 2c49 693e 7ec8 3e3e 77df 453e
0.15492547 0.15957753 0.19445342 0.21283011 0.18609944 0.15293598 0.18968096 0.16157418
0.22781819 0.18631169 0.19323526

mean_weight_history f4 [11]
00000000: f8a7 1e3e bea3 233e c208 473e 7892 5a3e
00000010: 3a8b 3f3e a2ac 1d3e 2acb 423e 83d4 243e
00000020: 1b80 6a3e 7a5e 3f3e a2a4 463e
0.15493762 0.15980431 0.19436935 0.21344936 0.18705454 0.15397885 0.19022813 0.16096692
0.22900431 0.18688384 0.1939874

mean_weight_history f4 [11]
00000000: d1ef 1f3e de4c 243e 6a7f 473e 490a 5b3e
00000010: 2a57 403e f0f6 1d3e acd8 423e 1965 253e
00000020: 44b5 6c3e 9606 403e cf3a 473e
0.15618826 0.16044948 0.19482198 0.21390642 0.1878325 0.1542623 0.19027966 0.16151847
0.23116022 0.18752512 0.19456027

mean_weight_history f4 [11]
00000000: f339 203e 9585 243e 2a5f 473e a936 5b3e
00000010: c8e4 403e eb2a 1f3e 9254 433e 7e1e 253e
00000020: 81d8 6c3e 7dd5 3e3e aaf8 473e
0.15647106 0.16066583 0.19469896 0.2140757 0.18837273 0.15543716 0.1907523 0.16124913
0.23129465 0.18636127 0.19528452

mean_weight_history f4 [11]
00000000: e348 203e 9c1b 253e ba4d 483e a218 5c3e
00000010: f427 413e 21eb 1f3e c154 433e 2e7c 253e
00000020: 221b 6e3e e4b6 3f3e 8865 483e
0.15652804 0.16123813 0.195609 0.21493772 0.18862897 0.15617038 0.190753 0.16160652
0.23252538 0.18722111 0.19569981

mean_weight_history f4 [11]
00000000: 4ae9 203e d83d 253e 48da 473e 97d6 5c3e
00000010: 44c5 413e 1143 213e 6cc8 433e 706a 253e
00000020: 889f 6e3e 63f3 3f3e 2520 493e
0.15713993 0.16136873 0.19516861 0.21566235 0.18922907 0.1574824 0.19119424 0.16153884
0.23303044 0.18745188 0.19641168

mean_weight_history f4 [11]
00000000: 1460 203e 0e18 253e 9f3a 483e 34b8 5d3e
00000010: 2628 423e 9485 213e b8e9 433e 2338 253e
00000020: 8324 6f3e bfc2 403e 13ae 493e
0.15661651 0.16122457 0.19553612 0.21652299 0.18960628 0.15773612 0.19132125 0.16134696
0.23353772 0.1882429 0.1969531

mean_weight_history f4 [11]
00000000: 5ce5 203e 3f51 253e 5a51 483e b8a5 5d3e
00000010: 3611 433e c6c7 213e 224d 443e 3af3 253e
00000020: 2f37 6f3e 10f1 403e ef39 4a3e
0.15712494 0.16144274 0.19562283 0.21645248 0.19049534 0.15798864 0.19170049 0.16206065
0.23360895 0.18841958 0.19748662

mean_weight_history f4 [11]
00000000: d883 223e ccce 253e e696 483e f736 5e3e
00000010: b3e5 433e aa23 223e a1a8 443e ce46 253e
00000020: b920 6f3e b3b1 413e ceee 4a3e
0.15870607 0.16192168 0.19588813 0.21700655 0.19130592 0.15833917 0.19204952 0.16140291
0.23352326 0.18915443 0.1981766

mean_weight_history f4 [11]
00000000: 39e1 213e aff9 253e d8c1 483e a03c 5e3e
00000010: ff24 453e 3a62 223e 35e7 443e 61e7 253e
00000020: 39f9 6e3e 50c0 423e 0d81 4b3e
0.15808572 0.16208528 0.19605196 0.21702814 0.19252394 0.15857783 0.19228823 0.16201545
0.23337258 0.19018674 0.19873448
