DL/AI_Deep_Dive/Regularization/model_save/best_L2C1000_No.pt (torch, 42485 bytes, 9 tensors)

weight f4 [1000, 1]
-0.00748682 0.5364436 -0.82304513 -0.735939 -0.38515437 0.2617697 -0.01981318 0.7915871
-0.088744044 0.26461256 -0.30191514 -0.19440904 -0.95498794 -0.6622821 -0.4122231 0.038367275
0.38248253 0.60387146 -0.6779411 -0.44467288 0.35775304 0.8292882 -0.20580018 0.7421069
-0.16118336 0.1058141 0.90459806 -0.9418675 -0.62953794 -0.24932016 -0.397428 0.8681142
-0.64817965 -0.46033287 -0.69864047 -0.936561 -0.5837405 0.85441595 0.44621837 0.4700659
0.052591562 -0.5241497 0.16918468 -0.9336947 -0.7156335 -0.51051694 0.6347857 0.5799737
-0.44349504 -0.04329712 0.63464004 0.99667275 0.3977371 0.1283208 0.67048633 -0.58880234
0.19037987 -0.7769684 -0.69864124 -0.51658356 0.45247304 0.40547764 -0.6058104 0.3048309
0.5468887 -0.12621737 0.038181543 0.23170471 0.61469775 0.954095 -0.76430756 -0.36646974
0.38744345 0.8275047 0.8742308 0.88235676 0.19901454 -0.86958265 0.094450854 -0.62560534
-0.9464138 0.8874648 0.7548817 -0.99752796 0.17594257 -0.18116218 -0.17062472 -0.45775688
0.3787249 -0.5923035 0.36659133 0.5002333 0.7225632 0.36836278 -0.98973525 -0.6486969
0.50261825 0.20930135 -0.780084 -0.5758195 0.9354157 0.67389995 -0.45026237 -0.2596303
-0.9525981 -0.013951063 -0.7530589 -0.7713567 -0.05116545 0.153967 -0.40953028 0.5933776
-0.6085391 0.91143876 0.6852999 -0.84328294 -0.25982314 0.045122623 0.14590108 0.23717427
0.3785359 0.059900165 -0.48792875 0.45941946 -0.9592489 -0.5927067 -0.25032985 -0.48711336
-0.34590742 -0.8196217 -0.21271515 0.2150684 -0.66494673 -0.0484824 0.7109456 -0.10280025
0.027792215 -0.0862689 0.2064028 0.63583946 0.9415641 0.63916284 0.9417628 -0.07232165
-0.8983668 -0.47407722 0.6831134 -0.006482482 -0.50243187 -0.76631176 -0.9284787 -0.8440082
-0.20283675 0.55027336 0.54336464 -0.9644319 0.6222842 -0.78786314 -0.21141028 -0.41293323
-0.19261527 -0.1963427 -0.89734995 -0.8614762 -0.16196802 0.012932181 -0.4457669 0.36327362
-0.9000584 -0.06748724 0.8746715 -0.41393626 0.9022323 0.36215377 -0.90246093 0.6363678
-0.11163177 -0.44640684 0.7940436 -0.8080952 0.10730493 -0.2093687 0.71786594 0.27914453
0.48050535 0.35315895 -0.2404747 -0.20797859 -0.8210082 0.5418441 0.7875733 0.6871741
-0.7068499 0.038223144 -0.7049341 -0.5504842 -0.5964635 0.34174502 -0.6085965 -0.021817207
0.045720454 0.63892424 -0.75194347 -0.68651223 -0.58066154 0.7065246 -0.359465 0.8288869
0.35638607 0.12662601 -0.007444024 -0.19768155 0.12938613 -0.22834468 -0.007026434 0.12759304
-0.7839123 -0.5312636 0.80638057 -0.8253041 -0.06779283 0.98318887 0.35098836 0.018484399
-0.86660993 0.4898838 -0.71228075 -0.28945512 -0.33140668 -0.14808738 0.004699806 0.8141393
0.12483883 0.88723445 0.6063664 -0.63221395 0.45262888 -0.69678044 -0.41971904 0.2941227
0.3301921 0.74471027 -0.3273616 0.0016008615 0.51482356 -0.96709216 0.7229806 -0.8269224
0.004396988 -0.17001677 -0.54030865 0.13627729 0.8309169 -0.29231954 -0.60880977 -0.37304634
00000000: 0054 f5bb 5e54 093f 16b3 52bf 8066 3cbf
00000010: f432 c5be ae06 863e 404f a2bc 74a5 4a3f
00000020: 70bf b5bd 4c7b 873e 9f94 9abe 2a13 47be
00000030: 177a 74bf 528b 29bf e80e d3be 0127 1d3d
00000040: c0d4 c33e 5297 1a3f 8c8d 2dbf 2aac e3be
00000050: 682b b73e 3b4c 543f 48bd 52be b8fa 3d3f
00000060: 400d 25be 10b5 d83d bd93 673f 3a1e 71bf
00000070: 6629 21bf c94d 7fbe af7b cbbe bb3c 5e3f
00000080: 1aef 25bf c0b0 ebbe 1ada 32bf 76c2 6fbf
00000090: 0470 15bf 01bb 5a3f bc76 e43e 7aac f03e
000000a0: 406a 573d ad2e 06bf c03e 2d3e 9e06 6fbf
000000b0: c233 37bf 3db1 02bf 5181 223f 2879 143f
000000c0: c811 e3be 5258 31bd c577 223f f225 7f3f
000000d0: 32a4 cb3e 8766 033e fea4 2b3f c0bb 16bf
000000e0: f1f2 423e 67e7 46bf 27da 32bf d23e 04bf
000000f0: 8caa e73e c49a cf3e 6416 1bbf cc12 9c3e
00000100: e600 0c3f 203f 01be 4064 1c3d 0044 6d3e
00000110: d55c 1d3f 923f 743f a9a9 43bf eca1 bbbe
00000120: fd5e c63e 59d7 533f 97cd 5f3f 22e2 613f
00000130: 78ca 4b3e f89c 5ebf 736f c13d ac27 20bf
00000140: 2d48 72bf e530 633f ed3f 413f fe5d 7fbf
00000150: 4a2a 343e 9482 39be 3fb8 2ebe 1c5f eabe
00000160: 3be8 c13e 34a1 17bf dcb1 bb3e 4a0f 003f
00000170: e7f9 383f 0c9a bc3e 4a5f 7dbf 0011 26bf
00000180: 97ab 003f 1853 563e 96b3 47bf e868 13bf
00000190: 6777 6f3f b584 2c3f ca88 e6be 43ee 84be
000001a0: 78dd 73bf 0093 64bc 78c8 40bf a277 45bf
000001b0: dd92 51bd 86a9 1d3e f4ad d1be 98e7 173f
000001c0: 38c9 1bbf 0d54 693f d06f 2f3f 64e1 57bf
000001d0: 8a07 85be 80d2 383d 1867 153e d0dd 723e
000001e0: 75cf c13e e059 753d ccd1 f9be 0739 eb3e
000001f0: 5691 75bf a0bb 17bf 3c2b 80be ec66 f9be
00000200: c71a b1be bad2 51bf 00d2 59be e43a 5c3e
00000210: f339 2abf 7b95 46bd 8800 363f f088 d2bd
00000220: 80ac e33c c0ad b0bd 415b 533e 60c6 223f
00000230: 580a 713f 2da0 233f 5e17 713f 601d 94bd
00000240: 5efb 65bf 40ba f2be 85e0 2e3f 006b d4bb
00000250: 609f 00bf 022d 44bf c8b0 6dbf ec10 58bf
00000260: 70b4 4fbe b7de 0c3f f219 0b3f 02e5 76bf
00000270: 044e 1f3f 66b1 49bf f07b 58be fc6b d3be
00000280: f03c 45be 100e 49be bab8 65bf b489 5cbf
00000290: f2da 25be 80e1 533c 8f3b e4be 00ff b93e
000002a0: 3a6a 66bf c036 8abd 79ea 5f3f 74ef d3be
000002b0: b2f8 663f 386c b93e ae07 67bf 00e9 223f
000002c0: 339f e4bd 708f e4be 7146 4b3f 54df 4ebf
000002d0: b0c2 db3d c064 56be 10c6 373f 08ec 8e3e
000002e0: cc04 f63e 40d1 b43e 003f 76be 57f8 54be
000002f0: 982d 52bf 4cb6 0a3f 679e 493f a4ea 2f3f
00000300: 1df4 34bf df8f 1c3d 9076 34bf 88ec 0cbf
00000310: d5b1 18bf 34f9 ae3e fbcc 1bbf 00ba b2bc
00000320: 5f45 3b3d 8a90 233f 5e7f 40bf 44bf 2fbf
00000330: 3ca6 14bf ccde 343f cc0b b8be ef31 543f
00000340: 3c78 b63e 40aa 013e 00ed f3bb 086d 4abe
00000350: cc7d 043e 30d3 69be 003e e6bb c0a7 023e
00000360: 7aae 48bf e400 08bf f56e 4e3f 2147 53bf
00000370: f8d6 8abd 44b2 7b3f bfb4 b33e 986c 973c
00000380: 26da 5dbf 0dd2 fa3e 0858 36bf 7633 94be
00000390: 23ae a9be 38a4 17be d500 9a3b 6f6b 503f
000003a0: 80ab ff3d cc21 633f d43a 1b3f c6d8 21bf
000003b0: f9be e73e 3460 32bf 6ae5 d6be 4097 963e
000003c0: f00e a93e 55a5 3e3f f19b a7be 00d4 d13a
000003d0: 7acb 033f 5a93 77bf 4215 393f 30b1 53bf
000003e0: 9c14 903b e018 2ebe ab51 0abf 468c 0b3e
000003f0: f8b6 543f e8aa 95be f5da 1bbf eeff bebe

bias f4 [1000]
-0.08501732 -0.77987933 -0.006149888 -0.83004427 -0.2151308 0.57477176 -0.6953503 -0.6753541
-0.2441765 -0.27413404 0.1703282 0.16646534 0.50820005 -0.68888056 -0.070571184 0.5584762
0.85157365 -0.06795575 -0.5786202 0.2826061 0.56582445 -0.62584966 -0.5802934 0.4374455
-0.070065975 -0.94449866 -0.5774632 0.40230408 -0.3391757 0.6920304 0.7842071 0.14756806
-0.07907474 -0.31742716 -0.05056584 0.17264639 -0.76385105 -0.2440688 -0.83180094 0.59831506
-0.6368363 0.90076566 -0.2577808 -0.57287526 0.4826743 0.14592607 0.69426084 0.41274107
-0.96333945 0.6266787 -0.19312152 -0.43956664 0.6337909 0.7240776 -0.8789307 -0.090423346
0.8232185 0.3846178 0.838712 -0.3426987 -0.5516424 0.8611385 0.405752 0.960584
-0.41977975 -0.64206684 -0.11721289 -0.94157994 0.3880639 0.7331672 0.23735268 -0.09880686
0.49203122 -0.635796 0.98024166 -0.99434364 -0.9579452 -0.23630166 0.8171701 0.110263415
0.38054395 -0.7340345 0.36101484 -0.11174345 0.3895765 0.69239897 0.43030885 -0.08506417
-0.06833037 -0.6271802 -0.36170208 0.6461721 -0.3927324 0.6172864 -0.39653194 -0.23289883
0.022498496 -0.9176655 -0.00998497 -0.100795746 -0.09614035 -0.19995789 0.77333635 0.7312369
-0.67775726 0.4665247 -0.7843826 -0.85132134 0.30758163 0.016473029 -0.46650636 -0.96450377
-0.3871361 0.33604816 -0.9256015 -0.97146547 0.12322521 -0.72040415 -0.8760803 -0.3852862
-0.17492723 -0.90870523 -0.6677277 0.050963715 -0.9429717 -0.14055443 -0.6457027 -0.6932373
0.3949211 -0.7696897 -0.7578342 0.5694584 0.18488467 0.9114312 -0.27208754 -0.48301506
-0.09254646 0.014913648 0.76464045 -0.9960799 -0.077805445 0.44444335 -0.5596755 -0.5081408
0.48390198 -0.9581852 0.23703288 -0.7741865 0.49350566 -0.85504043 0.6175093 -0.9466326
-0.84056675 0.0144786555 0.788591 -0.8563956 -0.44755736 0.87476367 -0.16769743 0.40818432
-0.9619982 -0.3144809 -0.50783217 0.8428623 0.41135973 -0.72967565 0.1595213 -0.023779491
-0.41086984 -0.57107663 -0.33647135 0.78388 -0.7176231 -0.71234334 -0.30851912 0.019007897
0.27392268 0.039619107 -0.24623294 -0.6063502 -0.17943263 -0.40255332 0.80962986 -0.97340953
-0.637859 -0.81359017 -0.18275678 0.7794614 0.8775023 -0.8705553 -0.050547138 0.58780545
0.4397818 0.8143456 -0.027738214 -0.67189276 0.647089 -0.34291458 0.5074355 -0.24643648
0.42668465 0.8954923 0.9318018 -0.91006505 -0.6614803 -0.4052984 -0.63770103 0.9440685
-0.09381486 -0.66334057 -0.44498944 -0.5523646 0.40987304 -0.87225115 -0.9324031 -0.98576117
0.42787552 0.48877427 -0.62219125 0.2455815 0.74017185 0.14093508 -0.2219132 0.0645227
-0.10722768 0.49981004 -0.67901134 0.5033015 0.5657177 -0.60587466 0.8119761 0.9717012
-0.3942287 -0.28850675 0.49484217 -0.78342044 0.39756906 0.23271213 0.63242 -0.8686068
-0.8307848 0.44541115 0.356583 -0.9307662 -0.5576595 -0.9149785 -0.7164229 -0.45119965
0.81665844 -0.1990509 0.5596377 0.9517714 0.45770264 -0.8952104 0.48876652 0.37640488
00000000: 901d aebd 2ca6 47bf 0085 c9bb c87d 54bf
00000010: 404b 5cbe 3e24 133f 7a02 32bf 02e4 2cbf
00000020: 6809 7abe 4c5b 8cbe 846a 2e3e e475 2a3e
00000030: 6619 023f 7a5a 30bf a087 90bd 4cf8 0e3f
00000040: bb00 5a3f 622c 8bbd 7420 14bf bfb1 903e
00000050: dfd9 103f af37 20bf 1c8e 14bf dbf8 df3e
00000060: c07e 8fbd aaca 71bf a1d4 13bf cdfa cd3e
00000070: 70a8 adbe e728 313f ccc1 483f 151c 173e
00000080: f0f1 a1bd d085 a2be 201e 4fbd 37ca 303e
00000090: be8b 43bf 2ced 79be e8f0 54bf 2d2b 193f
000000a0: b407 23bf 9498 663f d8fb 83be f4a7 12bf
000000b0: 1621 f73e a56d 153e 14bb 313f cc52 d33e
000000c0: 6a9d 76bf 046e 203f a6c1 45be e10e e1be
000000d0: 1f40 223f 265d 393f 9a01 61bf e02f b9bd
000000e0: 73be 523f a0ec c43e d4b5 563f 3476 afbe
000000f0: 7038 0dbf 9373 5c3f babe cf3e d5e8 753f
00000100: 5fed d6be 7e5e 24bf 500d f0bd 620b 71bf
00000110: 50b0 c63e d8b0 3b3f 950c 733e 405b cabd
00000120: 84eb fb3e 87c3 22bf 1ef1 7a3f 4e8d 7ebf
00000130: e63b 75bf 10f9 71be 0f32 513f c9d1 e13d
00000140: a8d6 c23e afe9 3bbf f0d6 b83e c0d9 e4bd
00000150: 9276 c73e 0f41 313f 7151 dc3e 2036 aebd
00000160: cbf0 8bbd e28e 20bf 0431 b9be 896b 253f
00000170: 3914 c9be 7b06 1e3f 3c06 cbbe 087d 6ebe
00000180: c44e b83c 20ec 6abf 0098 23bc 006e cebd
00000190: 3be5 c4bd c3c1 4cbe 5ff9 453f 5732 3b3f
000001a0: 8081 2dbf 53dc ee3e 4ccd 48bf 32f0 59bf
000001b0: 577b 9d3e 72f2 863c ecd9 eebe b8e9 76bf
000001c0: b436 c6be 810e ac3e 38f4 6cbf f6b1 78bf
000001d0: 805d fc3d 686c 38bf cc46 60bf 3c44 c5be
000001e0: 2020 33be e8a0 68bf 34f0 2abf 54bf 503d
000001f0: 9866 71bf 80ed 0fbe c64c 25bf 0078 31bf
00000200: 1933 ca3e 620a 45bf 6c01 42bf 07c8 113f
00000210: 6852 3d3e 8e53 693f 0f4f 8bbe c04d f7be
00000220: 0089 bdbd 6058 743c 7abf 433f 18ff 7ebf
00000230: 7658 9fbd 148e e33e e546 0fbf 8415 02bf
00000240: 00c2 f73e a04b 75bf bfb8 723e 1631 46bf
00000250: c6ac fc3e eee3 5abf 1715 1e3f 8456 72bf
00000260: 622f 57bf e237 6d3c 1ae1 493f be3c 5bbf
00000270: 3d26 e5be 83f0 5f3f e0b8 2bbe 89fd d03e
00000280: 8445 76bf a403 a1be 4a01 02bf d3c5 573f
00000290: be9d d23e 06cc 3abf 8d59 233e 35cd c2bc
000002a0: 885d d2be 1432 12bf f945 acbe 5cac 483f
000002b0: 26b6 37bf 225c 36bf 38f6 9dbe 73b6 9b3c
000002c0: 983f 8c3e a547 223d 7d24 7cbe c439 1bbf
000002d0: 30bd 37be 781b cebe e743 4f3f 5e31 79bf
000002e0: ba4a 23bf 7247 50bf 9824 3bbe c88a 473f
000002f0: fea3 603f b6dc 5ebf 840a 4fbd 6b7a 163f
00000300: 152b e13e f478 503f 403b e3bc 2a01 2cbf
00000310: a0a7 253f 8092 afbe 4be7 013f d859 7cbe
00000320: 6976 da3e fc3e 653f 908a 6e3f 06fa 68bf
00000330: c656 29bf 4683 cfbe 6040 23bf 79ae 713f
00000340: 0122 c0bd b0d0 29bf a8d5 e3be c467 0dbf
00000350: e1da d13e da4b 5fbf f8b1 6ebf d85a 7cbf
00000360: 8012 db3e 9f40 fa3e ed47 1fbf b779 7b3e
00000370: e77b 3d3f 4951 103e 373d 63be 7a24 843d
00000380: 309a dbbd 1ae7 ff3e b0d3 2dbf 5ed8 003f
00000390: e0d2 103f 9a1a 1bbf aadd 4f3f 69c1 783f
000003a0: 58d8 c9be 28b7 93be f45b fd3e 3e8e 48bf
000003b0: 2c8e cb3e 174c 6e3e 47e6 213f 045d 5ebf
000003c0: 50ae 54bf ee0c e43e 0c92 b63e b246 6ebf
000003d0: c6c2 0ebf 083c 6abf 7e67 37bf a403 e7be
000003e0: 8710 513f 00d4 4bbe 6b44 0f3f 4aa7 733f
000003f0: 0058 ea3e 822c 65bf 9b3f fa3e 24b8 c03e

weight f4 [1, 1000]
0.017541064 0.005664956 0.004825999 0.016351921 0.019701302 -0.009807533 -0.0034646369 0.012250334
-0.01532372 0.029568871 -0.024138054 0.014539099 -0.025440572 0.010153013 0.02208715 0.006582881
-3.507312e-05 0.024441993 -0.02270645 -0.02322273 -0.023684284 -0.019184379 0.0008207453 -0.01065707
0.00704508 0.0010671084 0.025993206 -0.01737035 -0.008650935 0.023210434 -0.0058004404 0.03442456
-0.012559936 -0.0003463325 -0.0074923243 0.0049468935 0.01211682 -0.012819009 0.020837562 0.0013057746
-0.007996691 0.0013852629 0.022007735 0.031020083 0.013530743 -0.0020615524 0.023969933 -0.009625518
-0.016526159 -0.0063782157 -0.01639609 0.017517004 0.006182227 -0.007857189 -0.0032104177 -0.0006270114
0.030041033 0.025186637 -0.022815898 0.011589645 0.012211059 0.015188487 -0.0055775465 0.010904404
0.0072945515 0.030778408 -0.030308146 -0.012000075 -0.017618878 -0.011793699 -0.0004464203 0.019286213
-0.020561652 0.020021474 0.029745977 -0.015587089 0.005519395 -0.016234422 0.009604035 -0.02455281
-0.016374549 -0.020272184 -0.022581685 0.025235426 -0.0008287432 0.0016264046 -0.013332803 0.02204117
-0.013665899 -0.012790214 -0.0246852 -0.0232563 0.030870927 -0.02117429 -0.0043657906 -0.009153534
0.01599709 0.008458113 -0.024241732 0.028399603 -0.026951782 0.006916397 -0.0005709096 -0.004908019
0.021549871 0.029363966 0.004119292 -0.011169133 0.025985027 0.023860151 0.0056797066 -0.00864919
0.0013332135 0.0320153 0.0034293183 -0.0062317457 -0.029488906 -0.016946094 0.02283907 -0.0011135514
0.002061042 0.012312665 -0.020805478 0.0021747856 -0.008894045 0.016545696 0.02573537 0.019856181
0.024760026 -0.028261334 -0.011226613 0.0067613474 -0.034533404 0.01125574 -0.016581912 0.013550753
0.025593964 -0.03654333 0.029451635 0.01475523 -0.016273124 0.033791702 -0.025334364 -0.021289075
-0.018430844 -0.0016013279 0.009515572 -0.009280356 -0.028935421 -0.0036502657 0.0220057 0.024347553
0.015830107 0.009061849 0.011079426 -0.0243783 0.012306482 -0.030129824 -0.013059252 -0.0071949754
0.023221621 -0.000921823 -0.014404468 0.006326141 -0.023826608 -0.008372364 0.0034138265 0.002512791
-0.0033210139 0.019327056 -0.019898575 -0.013807238 0.029968988 0.0062925816 -0.0051200753 0.020872816
0.021155512 -0.015152687 -0.009126174 -0.0051689837 0.011482495 -0.004037055 0.021728095 -0.025787907
-0.015515136 0.024107298 0.0041485596 0.008796489 0.011492442 -0.0074722464 -0.008000959 0.012506017
-0.010894683 -0.0102131255 0.004177926 0.00764896 -0.0015080605 -0.021386333 -0.004452894 -0.017921496
0.019430948 -0.017659016 0.02667299 0.012594979 -0.02707912 0.025193565 -0.031272907 0.0015153779
-0.015621068 -0.027204292 0.0031331836 -0.01533258 0.025811993 -0.024858974 0.026247624 0.019077925
0.024844257 -0.008449928 -0.019014388 -0.027858594 0.0289251 -0.011419173 -0.0025205684 -0.0015529515
0.00544031 -0.022511734 0.025498684 -0.021284375 0.033013057 -0.012373493 -0.011303576 -0.0010010201
0.009358955 -0.0018268902 -0.028028306 0.022242945 0.034727816 0.009944233 0.03270787 0.008618798
-0.0024779518 -0.021510739 -0.0262336 -0.021772183 -0.008023426 0.018414162 -0.01304705 -0.001228204
0.002317001 -0.02067114 0.00033573777 0.033393946 0.028914532 0.024084512 -0.002970748 0.0014760935
00000000: 47b2 8f3c 18a1 b93b 6a23 9e3b 77f4 853c
00000010: a064 a13c c6af 20bc f60e 63bb a0b5 483c
00000020: 5710 7bbc 6b3a f23c 2bbd c5bc 6735 6e3c
00000030: bf68 d0bc d358 263c 1cf0 b43c 35b5 d73b
00000040: 7a1b 13b8 933a c83c e102 babc 983d bebc
00000050: 8b05 c2bc 8f28 9dbc 4927 573a fe9a 2ebc
00000060: 6ada e63b 37de 8b3a b4ef d43c 444c 8ebc
00000070: a7bc 0dbc cf23 be3c 9f11 bebb c400 0d3d
00000080: 31c8 4dbc f693 b5b9 2c82 f5bb 8d19 a23b
00000090: a085 463c d206 52bc 89b3 aa3c 8626 ab3a
000000a0: 8e04 03bc b691 b53a 9149 b43c d41d fe3c
000000b0: 0db0 5d3c 1c1b 07bb 985c c43c 59b4 1dbc
000000c0: de61 87bc 5a00 d1bb 1851 86bc d27f 8f3c
000000d0: 4794 ca3b 70bb 00bc df65 52bb 065e 24ba
000000e0: 9d18 f63c 3554 ce3c 68e8 babc 7fe2 3d3c
000000f0: e510 483c 22d9 783c dac3 b6bb 63a8 323c
00000100: 2207 ef3b 0023 fc3c ca48 f8bc f69b 44bc
00000110: 7755 90bc 5c3a 41bc 850d eab9 1ffe 9d3c
00000120: e970 a8bc 1304 a43c d6ad f33c fd60 7fbc
00000130: 0bdc b43b 0dfe 84bc 3e5a 1d3c f922 c9bc
00000140: eb23 86bc da11 a6bc 3afd b8bc 86ba ce3c
00000150: 0440 59ba 152d d53a d471 5abc af8f b43c
00000160: efe6 5fbc 0c8e 51bc 9e38 cabc ff83 bebc
00000170: 07e5 fc3c b475 adbc e80e 8fbb b4f8 15bc
00000180: 540c 833c e693 0a3c 9996 c6bc 49a6 e83c
00000190: fcc9 dcbc f1a2 e23b 18a9 15ba 73d3 a0bb
000001a0: 5b89 b03c b38c f03c 20fb 863b bdfe 36bc
000001b0: 8dde d43c 5d76 c33c d51c ba3b 55b5 0dbc
000001c0: 39bf ae3a 7a22 033d 6abe 603b ac33 ccbb
000001d0: b892 f1bc 89d2 8abc 0019 bb3c 96f4 91ba
000001e0: 8c12 073b 0fbb 493c 4070 aabc d986 0e3b
000001f0: 54b8 11bc d78a 873c fcd2 d23c 6ea9 a23c
00000200: 8ad5 ca3c 5084 e7bc d4ef 37bc 4b8e dd3b
00000210: e672 0dbd ff69 383c cad6 87bc fa03 5e3c
00000220: 6faa d13c 75ae 15bd 8e44 f13c ecbf 713c
00000230: 374f 85bc 2b69 0a3d 038a cfbc 6d66 aebc
00000240: 48fc 96bc a6e3 d1ba 34e7 1b3c a20c 18bc
00000250: fa09 edbc 4c39 6fbb 4c45 b43c 8574 c73c
00000260: 24ae 813c 2678 143c 7b86 353c 00b5 c7bc
00000270: 20a1 493c d2d2 f6bc 79f6 55bc d4c3 ebbb
00000280: 453b be3c 7fa6 71ba b800 6cbc 844b cf3b
00000290: 0530 c3bc 3d2c 09bc 81ba 5f3b a3ad 243b
000002a0: 5ea5 59bb c653 9e3c 5602 a3bc c137 62bc
000002b0: 8681 f53c 0032 ce3b 4ec6 a7bb 78fd aa3c
000002c0: 534e ad3c fa42 78bc f385 15bc 9460 a9bb
000002d0: 1321 3c3c 4649 84bb 1eff b13c 2941 d3bc
000002e0: 3233 7ebc ab7c c53c a4f0 873b 261f 103c
000002f0: cc4a 3c3c bfd9 f4bb 7416 03bc 0ae6 4c3c
00000300: 9d7f 32bc f454 27bc fce6 883b 21a4 fa3b
00000310: 1daa c5ba 6432 afbc 95e9 91bb 1ad0 92bc
00000320: a72d 9f3c a4a9 90bc 5081 da3c 2c5b 4e3c
00000330: 08d5 ddbc bc62 ce3c 0518 00bd a59f c63a
00000340: 82ef 7fbc 89db debc 1956 4d3b 8035 7bbc
00000350: ac73 d33c 0ca5 cbbc 4205 d73c 4f49 9c3c
00000360: 2f86 cb3c 9171 0abc 10c4 9bbc b537 e4bc
00000370: 55f4 ec3c 7c17 3bbc 1f30 25bb 688c cbba
00000380: a144 b23b 876a b8bc 9ee2 d03c 925c aebc
00000390: b338 073d 31ba 4abc a232 39bc a934 83ba
000003a0: 4d56 193c 4374 efba 9e9b e5bc d636 b63c
000003b0: c13e 0e3d 23ed 223c b0f8 053d dc35 0d3c
000003c0: 2265 22bb 4a37 b0bc d9e7 d6bc 945b b2bc
000003d0: b074 03bc 4cd9 963c 4bc3 55bc b0fb a0ba
000003e0: d4d8 173b 8656 a9bc f605 b039 17c8 083d
000003f0: 2bde ec3c e24c c53c e2b0 42bb 7b79 c13a

exp_avg f4 [1000, 1]
0.0 0.0 0.0 0.0 0.0 -0.00027627885 0.0 0.0006630029
0.0 0.0 -0.0005565741 -1.0525776e-05 -0.00058888894 0.0 0.0 0.00031968977
7.916563e-05 0.0009762198 0.0 0.00024680316 -0.0007811068 -0.0008010459 0.0 -0.00030570824
0.0 0.0 0.0013038896 0.00017680158 0.0 0.00092383975 -0.00013349998 0.0013374055
0.0 0.0 0.0 0.0 0.0 -0.0005195894 0.0 0.00012820539
0.0 0.00012719327 0.0 0.0 -0.00012348789 -1.7326535e-07 0.0009544653 -0.00026844145
0.0 -0.00015276737 -0.00068818545 0.0009097471 0.00030626397 -0.00020584287 0.0 0.0
0.0011743598 -0.00011324396 -0.00075502315 0.0 0.0 0.0006340547 7.2635456e-05 0.00047775704
0.00043228595 0.0 0.0 0.0 -0.00055924564 -0.00034734607 -1.3987316e-05 0.0
-0.00066721806 0.0010261012 0.0011647241 0.0 0.0 0.0 0.00042993127 0.0
0.00016472161 -0.0008552861 -0.00073953933 0.0 4.9810453e-05 0.00013730595 -0.00040722397 0.0
-0.0004132821 0.0 0.0 -0.0007652869 0.00041329605 -0.00068977487 0.0 0.0
0.000667293 0.0 0.0 0.0 -0.00089615496 0.00040992463 5.574585e-05 -0.00010032675
0.0 0.001149082 0.0 0.0 0.0010256629 0.00095352635 0.0 0.0
0.0 0.0012487884 0.0 0.0 0.0003307057 0.0 0.0 0.0
0.00017293374 0.0 0.0 0.0001608202 0.0 0.0 0.0 0.0
0.0009769558 0.0 0.0 0.00032691 0.00034433947 0.00048962864 -0.00069691427 0.0
0.0 0.0 0.0011529882 0.0 -0.00050749036 0.0013126422 -0.00025376247 0.0
-0.00041572432 0.0 0.00042954079 0.0 -0.0009799148 0.0 -0.00021032305 0.0
0.0 0.00041464448 0.00048478186 0.0 0.000666641 -0.0010219194 0.0 -0.00018886346
0.0 0.0 0.0 0.00030395258 -0.00078918354 0.0 -5.012753e-05 0.00017318722
0.0 0.0 -0.00085261394 -0.00042496633 0.0014893747 0.0 0.0 0.00084499235
0.0008488554 0.0 -0.00034606401 0.0 0.0 0.0 0.0008728009 0.0
0.0 0.0 0.0 0.0003993228 0.0004931887 0.0 -0.00020660114 0.00053733756
-0.00022860199 -0.0002918954 0.0 0.0 1.8602987e-05 0.0 7.3972195e-05 0.0
0.00078777666 -0.0005615641 0.0010471944 0.0 0.0 0.00034100775 0.0 0.00013630376
-0.0006427929 0.0 0.0 0.0 0.0010206022 0.0 0.0 0.0
0.0006532955 -0.00023539364 -0.0007936827 0.00027645004 0.0011328881 -0.0003319009 -2.4733401e-05 1.9111147e-05
0.0 -0.0007379456 0.0 -0.000697524 0.0012796308 0.0 -0.00033170174 4.485174e-05
0.0 -3.1113539e-06 -0.00093849504 0.0 0.001346444 -0.00012207637 0.0012680225 0.0
0.0 -0.0007008222 -0.0008805219 0.0 0.0 0.0 0.0 0.0
0.00016372642 0.0 8.481394e-05 0.0012962242 0.0011353656 0.0 5.7158188e-05 0.0001266062
00000000: 0000 0000 0000 0000 0000 0000 0000 0000
00000010: 0000 0000 85d9 90b9 0000 0000 5fcd 2d3a
00000020: 0000 0000 0000 0000 0ee7 11ba dd97 30b7
00000030: ab5f 1aba 0000 0000 0000 0000 099c a739
00000040: b905 a638 00e9 7f3a 0000 0000 5c65 8139
00000050: 31c3 4cba 48fd 51ba 0000 0000 7747 a0b9
00000060: 0000 0000 0000 0000 46e7 aa3a d063 3939
00000070: 0000 0000 d62d 723a 21fc 0bb9 e24b af3a
00000080: 0000 0000 0000 0000 0000 0000 0000 0000
00000090: 0000 0000 0e35 08ba 0000 0000 df6e 0639
000000a0: 0000 0000 2f5f 0539 0000 0000 0000 0000
000000b0: 877c 01b9 d10a 3ab4 1535 7a3a 9abd 8cb9
000000c0: 0000 0000 2e30 20b9 5867 34ba 187c 6e3a
000000d0: 0e92 a039 86d7 57b9 0000 0000 0000 0000
000000e0: faec 993a 637d edb8 bfec 45ba 0000 0000
000000f0: 0000 0000 b136 263a dd53 9838 777b fa39
00000100: 70a4 e239 0000 0000 0000 0000 0000 0000
00000110: 579a 12ba 001c b6b9 11ab 6ab7 0000 0000
00000120: 3fe8 2eba 3e7e 863a a8a9 983a 0000 0000
00000130: 0000 0000 0000 0000 6668 e139 0000 0000
00000140: 1fb9 2c39 4735 60ba a5dd 41ba 0000 0000
00000150: 91eb 5038 c9f9 0f39 ad80 d5b9 0000 0000
00000160: c9ad d8b9 0000 0000 0000 0000 899d 48ba
00000170: a8af d839 02d2 34ba 0000 0000 0000 0000
00000180: 46ed 2e3a 0000 0000 0000 0000 0000 0000
00000190: f1eb 6aba 27eb d639 a7d0 6938 8466 d2b8
000001a0: 0000 0000 cb9c 963a 0000 0000 0000 0000
000001b0: 896f 863a 12f6 793a 0000 0000 0000 0000
000001c0: 0000 0000 63ae a33a 0000 0000 0000 0000
000001d0: 9162 ad39 0000 0000 0000 0000 0000 0000
000001e0: 8c55 3539 0000 0000 0000 0000 d8a1 2839
000001f0: 0000 0000 0000 0000 0000 0000 0000 0000
00000200: 320d 803a 0000 0000 0000 0000 1e65 ab39
00000210: 7688 b439 6c5a 003a 20b1 36ba 0000 0000
00000220: 0000 0000 0000 0000 dd1f 973a 0000 0000
00000230: 1a09 05ba f70c ac3a 6c0b 85b9 0000 0000
00000240: 93f5 d9b9 0000 0000 fd33 e139 0000 0000
00000250: 7c70 80ba 0000 0000 2a8a 5cb9 0000 0000
00000260: 0000 0000 a464 d939 522a fe39 0000 0000
00000270: 85c1 2e3a edf1 85ba 0000 0000 a609 46b9
00000280: 0000 0000 0000 0000 0000 0000 d35b 9f39
00000290: 36e1 4eba 0000 0000 0740 52b8 9799 3539
000002a0: 0000 0000 0000 0000 f481 5fba 04ce deb9
000002b0: 1f37 c33a 0000 0000 0000 0000 7a82 5d3a
000002c0: b985 5e3a 0000 0000 ed6f b5b9 0000 0000
000002d0: 0000 0000 0000 0000 adcc 643a 0000 0000
000002e0: 0000 0000 0000 0000 0000 0000 335c d139
000002f0: 5549 013a 0000 0000 12a3 58b9 1ddc 0c3a
00000300: e1b4 6fb9 8a09 99b9 0000 0000 0000 0000
00000310: 9c0d 9c37 0000 0000 8521 9b38 0000 0000
00000320: cc82 4e3a ee35 13ba 0342 893a 0000 0000
00000330: 0000 0000 49c9 b239 0000 0000 c3ec 0e39
00000340: 1a81 28ba 0000 0000 0000 0000 0000 0000
00000350: bac5 853a 0000 0000 0000 0000 0000 0000
00000360: eb41 2b3a 00d4 76b9 250f 50ba 7ff0 9039
00000370: 6b7d 943a fc02 aeb9 937a cfb7 e050 a037
00000380: 0000 0000 b172 41ba 0000 0000 0bda 36ba
00000390: 49b9 a73a 0000 0000 41e8 adb9 301f 3c38
000003a0: 0000 0000 a7cc 50b6 5605 76ba 0000 0000
000003b0: 2a7b b03a a001 00b9 c633 a63a 0000 0000
000003c0: 0000 0000 62b7 37ba d3d2 66ba 0000 0000
000003d0: 0000 0000 0000 0000 0000 0000 0000 0000
000003e0: faad 2b39 0000 0000 23de b138 11e6 a93a
000003f0: 8cd0 943a 0000 0000 23bd 6f38 98c1 0439

exp_avg_sq f4 [1000, 1]
0.0 0.0 0.0 0.0 0.0 2.732519e-07 0.0 1.0272722e-07
0.0 0.0 8.572576e-08 3.1433706e-07 9.538147e-08 0.0 0.0 7.593747e-08
1.0199021e-08 1.0949279e-06 0.0 3.201869e-07 1.3709601e-06 1.2685183e-07 0.0 3.379855e-07
0.0 0.0 3.3602893e-07 4.826184e-09 0.0 1.1241605e-06 9.2014666e-08 2.2971244e-06
0.0 0.0 0.0 0.0 0.0 3.869462e-07 0.0 6.9841932e-09
0.0 8.03779e-09 0.0 0.0 1.9625016e-07 6.8665973e-10 1.119699e-06 2.8156578e-07
0.0 1.226274e-07 5.988969e-07 4.5782707e-07 5.973671e-08 1.810304e-07 0.0 0.0
1.8376467e-06 1.2422502e-07 1.1369976e-06 0.0 0.0 4.337462e-07 1.0703564e-08 2.1560045e-07
4.2070436e-08 0.0 0.0 0.0 8.1572426e-07 3.9532136e-07 8.78006e-10 0.0
1.0581184e-06 2.1299006e-07 1.7613357e-06 0.0 0.0 0.0 1.684595e-07 0.0
3.9769525e-09 1.5086658e-07 1.2972251e-06 0.0 1.6170626e-08 7.86718e-09 4.32459e-07 0.0
5.568632e-07 0.0 0.0 1.3303929e-06 9.875661e-07 1.1091328e-06 0.0 0.0
4.2207333e-07 0.0 0.0 0.0 1.8753308e-06 5.8702025e-08 7.719071e-09 7.3679985e-08
0.0 1.7786062e-06 0.0 0.0 1.3998821e-06 1.0612858e-06 0.0 0.0
0.0 2.00188e-06 0.0 0.0 6.165077e-08 0.0 0.0 0.0
7.8571265e-09 0.0 0.0 8.460583e-09 0.0 0.0 0.0 0.0
1.375567e-06 0.0 0.0 7.582356e-08 1.9271306e-08 2.4175762e-07 6.149056e-07 0.0
0.0 0.0 1.7613589e-06 0.0 7.653389e-07 2.2765173e-06 7.2029195e-07 0.0
4.3861917e-08 0.0 1.383734e-07 0.0 1.7788223e-06 0.0 4.5878082e-07 0.0
0.0 1.0932141e-07 2.15751e-07 0.0 9.235437e-08 1.9610218e-06 0.0 1.072402e-07
0.0 0.0 0.0 1.0987072e-07 1.3131968e-06 0.0 1.8004724e-09 9.206299e-09
0.0 0.0 8.5157495e-07 4.4956968e-07 4.4325927e-07 0.0 0.0 7.6157846e-07
9.4236964e-07 0.0 2.1974205e-07 0.0 0.0 0.0 9.103743e-07 0.0
0.0 0.0 0.0 1.5013624e-07 3.1243474e-07 0.0 2.4490663e-07 2.7325018e-07
1.0979048e-08 2.8059088e-07 0.0 0.0 9.127388e-09 0.0 1.168306e-08 0.0
7.512069e-07 7.946838e-07 1.5670126e-06 0.0 0.0 7.016262e-07 0.0 7.0561423e-09
6.298945e-07 0.0 0.0 0.0 1.3401965e-06 0.0 0.0 0.0
1.7101817e-07 1.3976708e-07 1.2542822e-07 1.1880819e-08 1.7276952e-06 4.0991486e-07 8.207576e-09 2.5566283e-08
0.0 1.2602133e-06 0.0 1.0333262e-06 2.3443374e-06 0.0 3.3492242e-07 1.9467477e-08
0.0 3.0454895e-08 1.9130082e-06 0.0 2.4234262e-06 5.9184657e-09 2.3170035e-06 0.0
0.0 1.1770496e-06 1.4913784e-06 0.0 0.0 0.0 0.0 0.0
1.0549221e-08 0.0 6.110708e-09 2.2930672e-06 1.6314652e-06 0.0 4.65281e-09 1.3901674e-08
00000000: 0000 0000 0000 0000 0000 0000 0000 0000
00000010: 0000 0000 75b3 9234 0000 0000 e39a dc33
00000020: 0000 0000 0000 0000 3c18 b833 28c2 a834
00000030: 85d4 cc33 0000 0000 0000 0000 1113 a333
00000040: c537 2f32 70f5 9235 0000 0000 27e6 ab34
00000050: d501 b835 c434 0834 0000 0000 6074 b534
00000060: 0000 0000 0000 0000 7767 b434 90d3 a531
00000070: 0000 0000 dce1 9635 9999 c533 4c28 1a36
00000080: 0000 0000 0000 0000 0000 0000 0000 0000
00000090: 0000 0000 7bbd cf34 0000 0000 9df9 ef31
000000a0: 0000 0000 9316 0a32 0000 0000 0000 0000
000000b0: d5b8 5234 62bf 3c30 9148 9635 1b2a 9734
000000c0: 0000 0000 90ab 0334 e2c3 2035 46cb f534
000000d0: 9b48 8033 4261 4234 0000 0000 0000 0000
000000e0: 0fa5 f635 b762 0534 f19a 9835 0000 0000
000000f0: 0000 0000 a0dd e834 c6e2 3732 cd7f 6734
00000100: efb0 3433 0000 0000 0000 0000 0000 0000
00000110: 25f8 5a35 8e3c d434 2e58 7130 0000 0000
00000120: ac04 8e35 43b2 6434 0967 ec35 0000 0000
00000130: 0000 0000 0000 0000 cbe1 3434 0000 0000
00000140: a5a5 8831 e4fd 2134 511c ae35 0000 0000
00000150: 95e7 8a32 3928 0732 b62c e834 0000 0000
00000160: 597b 1535 0000 0000 0000 0000 f48f b235
00000170: 838c 8435 83dd 9435 0000 0000 0000 0000
00000180: 5199 e234 0000 0000 0000 0000 0000 0000
00000190: e0b3 fb35 8f1f 7c33 d59c 0432 003a 9e33
000001a0: 0000 0000 72b8 ee35 0000 0000 0000 0000
000001b0: 95e3 bb35 8171 8e35 0000 0000 0000 0000
000001c0: 0000 0000 0958 0636 0000 0000 0000 0000
000001d0: df64 8433 0000 0000 0000 0000 0000 0000
000001e0: 02fc 0632 0000 0000 0000 0000 0a5a 1132
000001f0: 0000 0000 0000 0000 0000 0000 0000 0000
00000200: 1fa0 b835 0000 0000 0000 0000 71d4 a233
00000210: 0d8a a532 eaca 8134 fe0f 2535 0000 0000
00000220: 0000 0000 0000 0000 d567 ec35 0000 0000
00000230: b071 4d35 45c6 1836 165a 4135 0000 0000
00000240: b062 3c33 0000 0000 ca93 1434 0000 0000
00000250: debf ee35 0000 0000 5b4e f634 0000 0000
00000260: 0000 0000 15c4 ea33 2fa9 6734 0000 0000
00000270: 5a54 c633 199a 0336 0000 0000 ec4b e633
00000280: 0000 0000 0000 0000 0000 0000 11f2 eb33
00000290: 1941 b035 0000 0000 7e74 f730 bb29 1e32
000002a0: 0000 0000 0000 0000 c997 6435 635c f134
000002b0: 17f9 ed34 0000 0000 0000 0000 466f 4c35
000002c0: 26f7 7c35 0000 0000 3cf2 6b34 0000 0000
000002d0: 0000 0000 0000 0000 7260 7435 0000 0000
000002e0: 0000 0000 0000 0000 0000 0000 2335 2134
000002f0: b4bc a734 0000 0000 b67b 8334 38b3 9234
00000300: 5d9e 3c32 1ea4 9634 0000 0000 0000 0000
00000310: adce 1c32 0000 0000 a4b6 4832 0000 0000
00000320: 8ca6 4935 4152 5535 2552 d235 0000 0000
00000330: 0000 0000 6357 3c35 0000 0000 7c72 f231
00000340: 0516 2935 0000 0000 0000 0000 0000 0000
00000350: cde0 b335 0000 0000 0000 0000 0000 0000
00000360: 1ea1 3734 e212 1634 72ad 0634 651c 4c32
00000370: 28e3 e735 4512 dc34 4d01 0d32 da9c db32
00000380: 0000 0000 9924 a935 0000 0000 d1b0 8a35
00000390: 6953 1d36 0000 0000 63cf b334 6f39 a732
000003a0: 0000 0000 83cd 0233 3b61 0036 0000 0000
000003b0: 25a2 2236 605b cb31 d17d 1b36 0000 0000
000003c0: 0000 0000 1efb 9d35 5f2b c835 0000 0000
000003d0: 0000 0000 0000 0000 0000 0000 0000 0000
000003e0: f73b 3532 0000 0000 5bf6 d131 98e2 1936
000003f0: b8f8 da35 0000 0000 8dde 9f31 35d4 6e32

exp_avg f4 [1000]
0.0 0.0 0.0 0.0 0.0 -0.00049873703 0.0 0.00075771764
0.0 0.0 -0.0015396912 0.00044944338 -0.0016304208 0.0 0.0 0.0006096001
0.00016095048 0.00076551444 0.0 -0.00023017521 -0.001436088 -0.00091548095 0.0 -0.0005566881
0.0 0.0 0.0014901593 7.300471e-05 0.0 0.0017336098 -0.0002276471 0.002489023
0.0 0.0 0.0 0.0003801952 0.0 -0.0007511931 0.0 0.0002507515
0.0 0.00025711258 0.0 0.0 0.00030145037 5.8305708e-05 0.0017838018 -0.00048699867
0.0 -0.00026694272 -0.0009953778 0.0013188333 0.00058207184 -0.00036674703 0.0 0.0
0.0021944146 0.00036950293 -0.001376674 0.0 0.0 0.0011908042 2.5814896e-05 0.0009014478
0.000494041 0.0 0.0 0.0 -0.0010269531 -0.0006330544 5.9042595e-05 0.0
-0.0012253167 0.0011726872 0.0021739302 0.0 0.0 0.0 0.00081376685 -0.00085188256
7.187099e-05 -0.0009774697 -0.0013623345 0.0 0.00010626287 0.0002728209 -0.00073686335 0.0
-0.00021419747 0.0 0.0 -0.0014071643 -2.5025282e-05 -0.0012664759 0.0 0.0
0.0012439148 0.0 0.0 0.0 -0.0005498531 0.00059502694 0.0001242418 -0.00016751936
0.0 0.0021491963 0.0 0.0 0.0019214104 0.0017778063 0.0 0.0
0.0 0.0023266776 0.0 0.0 0.00012402871 0.0 0.0 0.0
0.00025155707 0.0 0.0 0.00030464766 0.0 0.0 0.0 0.0
0.0018391431 0.0 0.0 0.0006214208 7.657057e-05 0.00092551444 -0.0010080518 0.0
0.0 -0.0013026306 0.0021545885 0.0 -0.0002760107 0.0024471506 0.00010005784 0.0
-0.0011390952 0.0 0.00080654345 0.0 -0.0017909335 0.0 0.00042253127 0.0
0.0 0.0007747461 0.00091302866 0.0 0.00076187536 -0.0018707305 0.0 -0.0003236642
0.0 0.0 0.0 0.0005927421 -0.0014456239 0.0 5.895385e-05 0.00019962965
0.0 0.0 -0.0012335322 -0.000768221 0.0017021425 0.0 0.0 0.0015731143
0.0015955322 -0.0004510869 -0.00049989973 0.0 0.0 0.0 0.0016323291 0.0
0.0 0.0 0.0 0.0007595389 0.0009420768 0.0 -6.405491e-05 0.0010091759
-0.0006090605 -0.0005256953 0.0 0.0 5.9836366e-05 0.0 5.0843864e-05 0.0
0.0014780215 -0.0010289011 0.0019677386 0.0 0.0 -2.4910574e-05 0.0 0.00026554882
-0.000903726 0.0 0.0 0.0 0.0019089546 0.0 0.0 0.0
0.0018952823 -0.0004081154 -0.00090706587 7.4210366e-05 0.0021193735 -0.0006093849 -2.049272e-05 4.8059726e-05
0.0 -0.0013570987 0.0 -0.001273664 0.0023962012 0.0 -0.0005993199 9.593585e-05
0.0 -3.2290518e-06 -0.001729827 0.0 0.0025106287 5.425832e-05 0.0023755773 0.0
0.0 -0.0012897679 -0.001608791 0.0 0.0 0.0 0.0 0.0
0.0003202169 0.0 0.00018361061 0.0024209528 0.002117462 0.0 7.0338196e-05 0.00026298471
00000000: 0000 0000 0000 0000 0000 0000 0000 0000
00000010: 0000 0000 adbd 02ba 0000 0000 92a1 463a
00000020: 0000 0000 0000 0000 77cf c9ba 45a3 eb39
00000030: d8b3 d5ba 0000 0000 0000 0000 92cd 1f3a
00000040: d1c4 2839 ceac 483a 0000 0000 305b 71b9
00000050: 1e3b bcba e3fc 6fba 0000 0000 b5ee 11ba
00000060: 0000 0000 0000 0000 7351 c33a 1b1a 9938
00000070: 0000 0000 4b3a e33a 8eb4 6eb9 e01e 233b
00000080: 0000 0000 0000 0000 0000 0000 f054 c739
00000090: 0000 0000 b7eb 44ba 0000 0000 4c77 8339
000000a0: 0000 0000 11cd 8639 0000 0000 0000 0000
000000b0: fc0b 9e39 478d 7438 75ce e93a db53 ffb9
000000c0: 0000 0000 72f4 8bb9 5677 82ba b4dc ac3a
000000d0: 2e96 183a f447 c0b9 0000 0000 0000 0000
000000e0: 2bd0 0f3b d8b9 c139 8471 b4ba 0000 0000
000000f0: 0000 0000 c214 9c3a 118d d837 234f 6c3a
00000100: 8882 013a 0000 0000 0000 0000 0000 0000
00000110: d49a 86ba 90f3 25ba 81a4 7738 0000 0000
00000120: ce9a a0ba dab4 993a 7f78 0e3b 0000 0000
00000130: 0000 0000 0000 0000 f852 553a df50 5fba
00000140: 72b9 9638 711e 80ba 5c90 b2ba 0000 0000
00000150: 72d9 de38 6709 8f39 102a 41ba 0000 0000
00000160: 329a 60b9 0000 0000 0000 0000 9970 b8ba
00000170: 62ed d1b7 e1ff a5ba 0000 0000 0000 0000
00000180: db0a a33a 0000 0000 0000 0000 0000 0000
00000190: 0424 10ba 95fb 1b3a e746 0239 23a8 2fb9
000001a0: 0000 0000 88d9 0c3b 0000 0000 0000 0000
000001b0: d6d7 fb3a 4805 e93a 0000 0000 0000 0000
000001c0: 0000 0000 2c7b 183b 0000 0000 0000 0000
000001d0: b40d 0239 0000 0000 0000 0000 0000 0000
000001e0: 6be3 8339 0000 0000 0000 0000 1eb9 9f39
000001f0: 0000 0000 0000 0000 0000 0000 0000 0000
00000200: 670f f13a 0000 0000 0000 0000 d8e6 223a
00000210: 8394 a038 399e 723a 9b20 84ba 0000 0000
00000220: 0000 0000 08bd aaba ff33 0d3b 0000 0000
00000230: 87b5 90b9 6060 203b 25d6 d138 0000 0000
00000240: b14d 95ba 0000 0000 376e 533a 0000 0000
00000250: c2bd eaba 0000 0000 3087 dd39 0000 0000
00000260: 0000 0000 5518 4b3a 5158 6f3a 0000 0000
00000270: 97b8 473a 4d33 f5ba 0000 0000 79b1 a9b9
00000280: 0000 0000 0000 0000 0000 0000 4062 1b3a
00000290: 177b bdba 0000 0000 3745 7738 ad53 5139
000002a0: 0000 0000 0000 0000 79ae a1ba 7062 49ba
000002b0: 6d1a df3a 0000 0000 0000 0000 f530 ce3a
000002c0: 2d21 d13a dc7f ecb9 b40b 03ba 0000 0000
000002d0: 0000 0000 0000 0000 e0f3 d53a 0000 0000
000002e0: 0000 0000 0000 0000 0000 0000 cb1b 473a
000002f0: b4f5 763a 0000 0000 3855 86b8 5346 843a
00000300: 5ca9 1fba d0ce 09ba 0000 0000 0000 0000
00000310: cff8 7a38 0000 0000 2f41 5538 0000 0000
00000320: 2cba c13a 31dc 86ba 2df5 003b 0000 0000
00000330: 0000 0000 0df7 d0b7 0000 0000 5c39 8b39
00000340: 06e8 6cba 0000 0000 0000 0000 0000 0000
00000350: e335 fa3a 0000 0000 0000 0000 0000 0000
00000360: 1f6b f83a 52f8 d5b9 29c8 6dba 63a1 9b38
00000370: 30e5 0a3b 21bf 1fba c8e7 abb7 bd93 4938
00000380: 0000 0000 ade0 b1ba 0000 0000 12f1 a6ba
00000390: 9609 1d3b 0000 0000 ad1b 1dba 2b31 c938
000003a0: 0000 0000 b0b2 58b6 5dbb e2ba 0000 0000
000003b0: 5c89 243b 6d93 6338 93af 1b3b 0000 0000
000003c0: 0000 0000 6e0d a9ba 11de d2ba 0000 0000
000003d0: 0000 0000 0000 0000 0000 0000 0000 0000
000003e0: c9e2 a739 0000 0000 9987 4039 d9a8 1e3b
000003f0: 1ec5 0a3b 0000 0000 8882 9338 36e1 8939

exp_avg_sq f4 [1000]
0.0 0.0 0.0 0.0 0.0 1.1041684e-06 0.0 1.3417436e-07
0.0 0.0 1.2409159e-06 1.8509108e-06 1.3823317e-06 0.0 0.0 3.5883926e-07
3.9531184e-08 3.2282155e-06 0.0 2.2384568e-06 5.699764e-06 1.6568404e-07 0.0 1.3713556e-06
0.0 0.0 4.3889483e-07 2.008415e-07 0.0 4.9179193e-06 3.609613e-07 9.976691e-06
0.0 0.0 0.0 9.9735814e-08 0.0 8.376753e-07 0.0 3.2546524e-08
0.0 4.3809887e-08 0.0 0.0 1.5186747e-06 5.2337853e-08 4.9018577e-06 1.1375976e-06
0.0 4.847195e-07 1.2974249e-06 9.983409e-07 2.858139e-07 7.2379265e-07 0.0 0.0
7.994859e-06 2.2240006e-06 4.7240874e-06 0.0 0.0 1.930479e-06 6.546408e-08 9.772726e-07
5.4949126e-08 0.0 0.0 0.0 3.3662438e-06 1.6099864e-06 6.520826e-08 0.0
4.384365e-06 2.781911e-07 7.66788e-06 0.0 0.0 0.0 7.697184e-07 8.412316e-08
1.617118e-07 1.9705026e-07 5.3873046e-06 0.0 6.027961e-08 4.2180808e-08 1.7679687e-06 0.0
1.6519398e-06 0.0 0.0 5.5287805e-06 1.7599749e-06 4.599066e-06 0.0 0.0
1.8814419e-06 0.0 0.0 0.0 5.5571586e-06 1.2878628e-07 3.143737e-08 2.8648336e-07
0.0 7.739808e-06 0.0 0.0 6.1080095e-06 4.6526497e-06 0.0 0.0
0.0 8.705262e-06 0.0 0.0 1.1833005e-06 0.0 0.0 0.0
1.7175374e-08 0.0 0.0 3.8547416e-08 0.0 0.0 0.0 0.0
5.997647e-06 0.0 0.0 3.583382e-07 8.721079e-07 1.0917508e-06 1.3321384e-06 0.0
0.0 2.7088421e-07 7.666583e-06 0.0 2.2701306e-06 9.885508e-06 1.2974966e-06 0.0
6.2766554e-07 0.0 6.3717323e-07 0.0 7.430286e-06 0.0 3.4777672e-06 0.0
0.0 5.0806847e-07 9.781161e-07 0.0 1.2062607e-07 8.196461e-06 0.0 4.2468946e-07
0.0 0.0 0.0 5.0876366e-07 5.4610173e-06 0.0 1.2135361e-07 2.6238823e-08
0.0 0.0 1.845672e-06 1.8399697e-06 5.7895073e-07 0.0 0.0 3.355995e-06
4.1327744e-06 1.1762677e-08 4.7515687e-07 0.0 0.0 0.0 3.9974143e-06 0.0
0.0 0.0 0.0 6.8857327e-07 1.3982207e-06 0.0 7.276035e-07 1.230462e-06
1.511222e-07 1.1352982e-06 0.0 0.0 3.5846895e-08 0.0 7.1273384e-08 0.0
3.307613e-06 3.2793262e-06 6.823119e-06 0.0 0.0 1.2492131e-06 0.0 3.385018e-08
1.6915347e-06 0.0 0.0 0.0 5.85222e-06 0.0 0.0 0.0
2.5962547e-06 5.584303e-07 1.6382458e-07 5.230732e-07 7.520344e-06 1.6687343e-06 1.48812385e-08 9.5305644e-08
0.0 5.2332216e-06 0.0 4.285673e-06 1.0169269e-05 0.0 1.3608271e-06 7.233735e-08
0.0 6.54518e-08 7.981116e-06 0.0 1.0516716e-05 3.5382047e-07 1.0050902e-05 0.0
0.0 4.8826073e-06 6.216726e-06 0.0 0.0 0.0 0.0 0.0
5.6244005e-08 0.0 3.360444e-08 9.953607e-06 7.109724e-06 0.0 2.849818e-08 7.412428e-08
00000000: 0000 0000 0000 0000 0000 0000 0000 0000
00000010: 0000 0000 f032 9435 0000 0000 9111 1034
00000020: 0000 0000 0000 0000 8c8d a635 d06c f835
00000030: 8e88 b935 0000 0000 0000 0000 7ea6 c034
00000040: ffc8 2933 52a4 5836 0000 0000 6538 1636
00000050: 9a40 bf36 e2e6 3134 0000 0000 6b0f b835
00000060: 0000 0000 0000 0000 3fa1 eb34 e4a6 5734
00000070: 0000 0000 9b04 a536 25ca c134 9061 2737
00000080: 0000 0000 0000 0000 0000 0000 582e d633
00000090: 0000 0000 9cdc 6035 0000 0000 48c9 0b33
000000a0: 0000 0000 7b29 3c33 0000 0000 0000 0000
000000b0: 44d5 cb35 14ca 6033 a37a a436 8eaf 9835
000000c0: 0000 0000 ac1d 0235 2e23 ae35 bbfe 8535
000000d0: f771 9934 a74a 4235 0000 0000 0000 0000
000000e0: a821 0637 0a40 1536 9a83 9e36 0000 0000
000000f0: 0000 0000 608d 0136 4295 8c33 d52a 8335
00000100: 3401 6c33 0000 0000 0000 0000 0000 0000
00000110: a1e7 6136 b616 d835 9f08 8c33 0000 0000
00000120: 691d 9336 4b5a 9534 4ba5 0037 0000 0000
00000130: 0000 0000 0000 0000 a59e 4e35 32a7 b433
00000140: 00a3 2d34 c394 5334 98c4 b436 0000 0000
00000150: 1173 8133 4a2a 3533 f14a ed35 0000 0000
00000160: 38b8 dd35 0000 0000 0000 0000 dd83 b936
00000170: 4738 ec35 ad51 9a36 0000 0000 0000 0000
00000180: da85 fc35 0000 0000 0000 0000 0000 0000
00000190: a177 ba36 8148 0a34 c105 0733 f9cd 9934
000001a0: 0000 0000 39da 0137 0000 0000 0000 0000
000001b0: 67f3 cc36 f51d 9c36 0000 0000 0000 0000
000001c0: 0000 0000 d10c 1237 0000 0000 0000 0000
000001d0: e5d1 9e35 0000 0000 0000 0000 0000 0000
000001e0: 0c89 9332 0000 0000 0000 0000 558f 2533
000001f0: 0000 0000 0000 0000 0000 0000 0000 0000
00000200: 653f c936 0000 0000 0000 0000 a161 c034
00000210: cc1a 6a35 4688 9235 edcb b235 0000 0000
00000220: 0000 0000 0b6e 9134 b99f 0037 0000 0000
00000230: 8c58 1836 efd9 2537 a525 ae35 0000 0000
00000240: d97c 2835 0000 0000 360a 2b35 0000 0000
00000250: ac51 f936 0000 0000 9663 6936 0000 0000
00000260: 0000 0000 3362 0835 d047 8335 0000 0000
00000270: 7185 0134 8883 0937 0000 0000 e000 e434
00000280: 0000 0000 0000 0000 0000 0000 f991 0835
00000290: c83d b736 0000 0000 6d4d 0234 c863 e132
000002a0: 0000 0000 0000 0000 cfb8 f735 e1f4 f635
000002b0: 3169 1b35 0000 0000 0000 0000 8e37 6136
000002c0: 43ac 8a36 cd14 4a32 1019 ff34 0000 0000
000002d0: 0000 0000 0000 0000 8721 8636 0000 0000
000002e0: 0000 0000 0000 0000 0000 0000 65d6 3835
000002f0: 7faa bb35 0000 0000 8850 4335 5a26 a535
00000300: 2744 2234 8d60 9835 0000 0000 0000 0000
00000310: 14f6 1933 0000 0000 f50e 9933 0000 0000
00000320: 5cf8 5d36 6512 5c36 25f2 e436 0000 0000
00000330: 0000 0000 a3aa a735 0000 0000 ab62 1133
00000340: b108 e335 0000 0000 0000 0000 0000 0000
00000350: 305e c436 0000 0000 0000 0000 0000 0000
00000360: 513b 2e36 0ae7 1535 c2e7 2f34 5169 0c35
00000370: 4357 fc36 46f9 df35 61a8 7f32 d5aa cc33
00000380: 0000 0000 0899 af36 0000 0000 a7cd 8f36
00000390: ae9c 2a37 0000 0000 aaa5 b635 e157 9b33
000003a0: 0000 0000 828e 8c33 a2e6 0537 0000 0000
000003b0: f470 3037 b7f4 bd34 4ca0 2837 0000 0000
000003c0: 0000 0000 47d5 a336 4599 d036 0000 0000
000003d0: 0000 0000 0000 0000 0000 0000 0000 0000
000003e0: f090 7133 0000 0000 7954 1033 6bfe 2637
000003f0: 1090 ee36 0000 0000 29cc f432 412e 9f33

exp_avg f4 [1, 1000]
0.0 0.0 0.0 0.0 0.0 0.04813613 0.0 0.0011167971
0.0 0.0 0.004271945 0.0045291446 0.011822606 0.0 0.0 0.03940471
0.0714175 0.020498311 0.0 0.008328369 0.051010054 0.0051159984 0.0 0.056348946
0.0 0.0 0.011588857 0.009656352 0.0 0.037929077 0.03829101 0.04183654
0.0 0.0 0.0 0.007393564 0.0 0.023388479 0.0 0.057629514
0.0 0.041918363 0.0 0.0 0.014375372 0.0054009752 0.070272915 0.04877957
0.0 0.04054569 0.016514895 0.0171706 0.05758698 0.053368337 0.0 0.0
0.06280035 0.008149243 0.03097616 0.0 0.0 0.07320266 0.011678003 0.07626154
0.003330349 0.0 0.0 0.0 0.048362903 0.08403991 0.008059747 0.0
0.047108386 0.0048994767 0.09830661 0.0 0.0 0.0 0.05891469 0.0044271825
0.009715119 0.00207242 0.05163594 0.0 0.032629155 0.04032948 0.022622257 0.0
0.011816133 0.0 0.0 0.061625574 0.0096602915 0.054874066 0.0 0.0
0.02009831 0.0 0.0 0.0 0.031363677 0.01834583 0.03578946 0.039739434
0.0 0.031264808 0.0 0.0 0.019173045 0.006985399 0.0 0.0
0.0 0.056145772 0.0 0.0 0.0026032494 0.0 0.0 0.0
0.006046931 0.0 0.0 0.020317756 0.0 0.0 0.0 0.0
0.014336448 0.0 0.0 0.046584386 0.006838532 0.060073443 0.014724816 0.0
0.0 0.00044023764 0.0594269 0.0 0.032062262 0.053553473 0.012247842 0.0
0.011519379 0.0 0.041172836 0.0 0.014796996 0.0 0.018476456 0.0
0.0 0.021316687 0.073329985 0.0 0.0053622597 0.030161181 0.0 0.012303759
0.0 0.0 0.0 0.025820222 0.02165015 0.0 0.0047361515 0.012683162
0.0 0.0 0.018036742 0.037646197 0.00402391 0.0 0.0 0.024725327
0.014697591 0.0014326354 0.02041137 0.0 0.0 0.0 0.08109236 0.0
0.0 0.0 0.0 0.045352455 0.029638963 0.0 0.027166067 0.065001756
0.013166411 0.0561775 0.0 0.0 0.021869713 0.0 0.013197468 0.0
0.030750576 0.08352094 0.035822347 0.0 0.0 0.009502476 0.0 0.09406852
0.010207232 0.0 0.0 0.0 0.032658823 0.0 0.0 0.0
0.010840178 0.0134327905 0.004245268 0.008507176 0.04779003 0.045098495 0.0044746413 0.004902195
0.0 0.051362548 0.0 0.023219176 0.026404228 0.0 0.054794244 0.0951775
0.0 0.021992698 0.05526542 0.0 0.043595113 0.0073754685 0.027694412 0.0
0.0 0.056967042 0.01192322 0.0 0.0 0.0 0.0 0.0
0.055541504 0.0 0.018204778 0.06951356 0.061432634 0.0 0.012924909 0.012060408
00000000: 0000 0000 0000 0000 0000 0000 0000 0000
00000010: 0000 0000 642a 453d 0000 0000 7e61 923a
00000020: 0000 0000 0000 0000 acfb 8b3b 3869 943b
00000030: 9bb3 413c 0000 0000 0000 0000 d566 213d
00000040: 5743 923d 13ec a73c 0000 0000 b673 083c
00000050: ebef 503d 1ba4 a73b 0000 0000 27ce 663d
00000060: 0000 0000 0000 0000 30df 3d3c ad35 1e3c
00000070: 0000 0000 855b 1b3d 09d7 1c3d cb5c 2b3d
00000080: 0000 0000 0000 0000 0000 0000 b645 f23b
00000090: 0000 0000 3299 bf3c 0000 0000 ed0c 6c3d
000000a0: 0000 0000 97b2 2b3d 0000 0000 0000 0000
000000b0: ae86 6b3c aafa b03b 3feb 8f3d 16cd 473d
000000c0: 0000 0000 3d13 263d 3f4a 873c 5ca9 8c3c
000000d0: 53e0 6b3d c298 5a3d 0000 0000 0000 0000
000000e0: 789d 803d 6784 053c b7c1 fd3c 0000 0000
000000f0: 0000 0000 47eb 953d 1855 3f3c 032f 9c3d
00000100: fc41 5a3b 0000 0000 0000 0000 0000 0000
00000110: 2e18 463d 1e1d ac3d 070d 043c 0000 0000
00000120: b9f4 403d ca8b a03b fa54 c93d 0000 0000
00000130: 0000 0000 0000 0000 8850 713d e611 913b
00000140: 2a2c 1f3c 70d1 073b 3580 533d 0000 0000
00000150: 26a6 053d 8630 253d 5052 b93c 0000 0000
00000160: 7498 413c 0000 0000 0000 0000 196b 7c3d
00000170: 3346 1e3c a1c3 603d 0000 0000 0000 0000
00000180: 36a5 a43c 0000 0000 0000 0000 0000 0000
00000190: 3377 003d fe49 963c f897 123d d1c5 223d
000001a0: 0000 0000 870f 003d 0000 0000 0000 0000
000001b0: ca10 9d3c c6e5 e43b 0000 0000 0000 0000
000001c0: 0000 0000 1cf9 653d 0000 0000 0000 0000
000001d0: 479b 2a3b 0000 0000 0000 0000 0000 0000
000001e0: 5525 c63b 0000 0000 0000 0000 6c71 a63c
000001f0: 0000 0000 0000 0000 0000 0000 0000 0000
00000200: 6ce3 6a3c 0000 0000 0000 0000 45cf 3e3d
00000210: c415 e03b 920f 763d 5b40 713c 0000 0000
00000220: 0000 0000 b2cf e639 9f69 733d 0000 0000
00000230: b853 033d e35a 5b3d 2cab 483c 0000 0000
00000240: c7bb 3c3c 0000 0000 d9a4 283d 0000 0000
00000250: 196f 723c 0000 0000 f05b 973c 0000 0000
00000260: 0000 0000 55a0 ae3c 082e 963d 0000 0000
00000270: e5b5 af3b 9514 f73c 0000 0000 b595 493c
00000280: 0000 0000 0000 0000 0000 0000 ee84 d33c
00000290: a85b b13c 0000 0000 b831 9b3b 09cd 4f3c
000002a0: 0000 0000 0000 0000 cac1 933c e632 1a3d
000002b0: 01db 833b 0000 0000 0000 0000 c58c ca3c
000002c0: 2ace 703c 44c7 bb3a bf35 a73c 0000 0000
000002d0: 0000 0000 0000 0000 c013 a63d 0000 0000
000002e0: 0000 0000 0000 0000 0000 0000 7fc3 393d
000002f0: 69cd f23c 0000 0000 5f8b de3c a41f 853d
00000300: eeb7 573c 611a 663d 0000 0000 0000 0000
00000310: 1d28 b33c 0000 0000 313a 583c 0000 0000
00000320: a2e8 fb3c 070d ab3d 74ba 123d 0000 0000
00000330: 0000 0000 46b0 1b3c 0000 0000 ffa6 c03d
00000340: 3c3c 273c 0000 0000 0000 0000 0000 0000
00000350: 42c5 053d 0000 0000 0000 0000 0000 0000
00000360: 009b 313c 3515 5c3c e41b 8b3b af61 0b3c
00000370: 7abf 433d 33b9 383d 03a0 923b 98a2 a03b
00000380: 0000 0000 8961 523d 0000 0000 2436 be3c
00000390: ae4d d83c 0000 0000 ee6f 603d 6cec c23d
000003a0: 0000 0000 082a b43c fe5d 623d 0000 0000
000003b0: ca90 323d eaad f13b 64df e23c 0000 0000
000003c0: 0000 0000 4656 693d 9c59 433c 0000 0000
000003d0: 0000 0000 0000 0000 0000 0000 0000 0000
000003e0: 7d7f 633d 0000 0000 3022 953c 205d 8e3d
000003f0: c9a0 7b3d 0000 0000 ffc2 533c 0499 453c
