DL/AI_Deep_Dive/Regularization/model_save/best_L2C1000_l2.pt (torch, 42485 bytes, 9 tensors)

weight f4 [1000, 1]
0	0xba76ec38	-0.00094193546
1	0x3f00fe5f	0.5038814
2	0xbf4a58e1	-0.7904187
3	0xbf340d37	-0.70332664
4	0xbeb490b9	-0.35266665
5	0x3e7176cf	0.23580478
6	0x3b1634e2	0.0022919704
7	0x3f42a0ba	0.760265
8	0xbd6aa2c5	-0.057284135
9	0x3e6dd29d	0.23224874
10	0xbe8a226f	-0.26979396
11	0xbe284e44	-0.16436106
12	0xbf6c3652	-0.92270386
13	0xbf213306	-0.6296848
14	0xbec26a62	-0.3797179
15	0x3c0847bc	0.008317884
16	0x3eb9c6a7	0.36284372
17	0x3f114327	0.5674309
18	0xbf253506	-0.6453403
19	0xbece4d81	-0.40293506
20	0x3ea95abc	0.33077037
21	0x3f4c3a3e	0.7977637
22	0xbe31b809	-0.1735536
23	0x3f373858	0.7157035
24	0xbe042fd4	-0.1290887
25	0x3d97c940	0.07411432
26	0x3f5f7216	0.87283456
27	0xbf6520ae	-0.8950299
28	0xbf18d19b	-0.5969483
29	0xbe6225a5	-0.22084673
30	0xbeb6f050	-0.3573022
31	0x3f54d3e1	0.831358
32	0xbf1d9704	-0.61558557
33	0xbedb08db	-0.42780194
34	0xbf2a814b	-0.66603535
35	0xbf676750	-0.9039202
36	0xbf0d1908	-0.5511632
37	0x3f53b478	0.8269725
38	0x3ed3cfc1	0.4136944
39	0x3ee77de1	0.45213225
40	0x3cb6e528	0.022326067
41	0xbef5d388	-0.48012948
42	0x3e0c587d	0.1370563
43	0xbf66ab7e	-0.90105426
44	0xbf30a140	-0.6899605
45	0xbef748a6	-0.48297614
46	0x3f192cb3	0.5983383
47	0x3f0dc29f	0.55375093
48	0xbed26afc	-0.41097248
49	0xbbf45d02	-0.0074573765
50	0x3f1b62f2	0.60697854
51	0x3f7623b2	0.96148217
52	0x3eba90a1	0.36438468
53	0x3dd349bf	0.103168
54	0x3f234c95	0.6378873
55	0xbf0e64ab	-0.5562236
56	0x3e1dcefc	0.1541099
57	0xbf3e20c4	-0.74268746
58	0xbf2914a1	-0.660471
59	0xbef7d29d	-0.48402873
60	0x3ed70325	0.41994587
61	0x3ebd431d	0.36965266
62	0xbf0f4d33	-0.5597717
63	0x3e8a1447	0.26968595
64	0x3f043300	0.5164032
65	0xbdc12e4b	-0.09432658
66	0x3c1880df	0.009308069
67	0x3e4c2f28	0.19939864
68	0x3f167a18	0.5878005
69	0x3f6d744e	0.9275559
70	0xbf3cedf0	-0.73800564
71	0xbeab017a	-0.33399564
72	0x3eb89855	0.3605372
73	0x3f4bc150	0.79591846
74	0x3f566aac	0.8375652
75	0x3f598766	0.84972227
76	0x3e2aca0c	0.16678637
77	0xbf564257	-0.83694977
78	0x3d77a17d	0.06045674
79	0xbf17cff3	-0.5930168
80	0xbf663967	-0.8993134
81	0x3f5b19af	0.85586065
82	0x3f3a4e1c	0.72775435
83	0xbf770269	-0.9648805
84	0x3e1eb50e	0.15498754
85	0xbe0b9a90	-0.1363318
86	0xbe0798f8	-0.13241947
87	0xbed9b762	-0.42522722
88	0x3eb4448c	0.35208547
89	0xbf0f4a12	-0.559724
90	0x3eab1166	0.3341171
91	0x3ef243f8	0.4731748
92	0x3f2ee99e	0.6832522
93	0x3eaed2f6	0.34145325
94	0xbf7503c0	-0.9570885
95	0xbf1db8e9	-0.61610276
96	0x3eeefb2e	0.4667601
97	0x3e354b81	0.17704584
98	0xbf3f59cb	-0.7474639
99	0xbf0b1216	-0.5432447
100	0x3f687a7a	0.90811884
101	0x3f2426cc	0.641217
102	0xbece981b	-0.40350422
103	0xbe60987c	-0.21933168
104	0xbf6b8233	-0.91995543
105	0x3b1ea45b	0.002420685
106	0xbf386efc	-0.7204435
107	0xbf3d1df3	-0.73873824
108	0xbccba6f5	-0.024859885
109	0x3df1c84c	0.11805782
110	0xbec109a7	-0.37702677
111	0x3f0f9072	0.5607978
112	0xbf1371c8	-0.5759549
113	0x3f5feddd	0.87472326
114	0x3f27172e	0.65269744
115	0xbf4f86fd	-0.8106535
116	0xbe5dbb9b	-0.21653597
117	0x3c7cd3d9	0.015431368
118	0x3de93b0c	0.113882154
119	0x3e51c626	0.20485744
120	0x3eb849c3	0.35993776
121	0x3cef94a7	0.029245688
122	0xbee92846	-0.4553854
123	0x3ee19d6b	0.44065413
124	0xbf6d3605	-0.9266055
125	0xbf0f647c	-0.560127
126	0xbe5f3889	-0.2179891
127	0xbee8bd70	-0.4545703
128	0xbea2819e	-0.31739515
129	0xbf49788c	-0.78699565
130	0xbe38c833	-0.1804512
131	0x3e39d74b	0.18148534
132	0xbf1e6e3d	-0.6188696
133	0xbcada429	-0.021196442
134	0x3f2ee98c	0.68325114
135	0xbd91afd2	-0.07113613
136	0x3aab520a	0.0013070714
137	0xbd60adbe	-0.054853193
138	0x3e2e2fca	0.17010418
139	0x3f1a6e7c	0.60324836
140	0x3f6a23f7	0.9146113
141	0x3f1a3a35	0.60245067
142	0x3f6ab203	0.91677874
143	0xbd28dab1	-0.041224185
144	0xbf5d9d6e	-0.86568344
145	0xbee21183	-0.44153985
146	0x3f25f717	0.64830154
147	0xba0f0e22	-0.0005457123
148	0xbeedd050	-0.46447992
149	0xbf3bd362	-0.7336942
150	0xbf673929	-0.90321594
151	0xbf4fb681	-0.81137854
152	0xbe2eb144	-0.17059809
153	0x3f040def	0.5158376
154	0x3f02111e	0.5080737
155	0xbf6e89a6	-0.93178785
156	0x3f175846	0.5911907
157	0xbf3ff7e9	-0.74987656
158	0xbe3772f7	-0.1791495
159	0xbebef53a	-0.37296468
160	0xbe244164	-0.1604057
161	0xbe280fa0	-0.1641221
162	0xbf5d5dde	-0.86471355
163	0xbf54afd2	-0.8308078
164	0xbdfeabec	-0.12435135
165	0xba924956	-0.0011160772
166	0xbed7ef55	-0.42174783
167	0x3eb03d9c	0.34422004
168	0xbf5e0f59	-0.8674217
169	0xbd15a922	-0.03653825
170	0x3f58c77a	0.8467938
171	0xbec03160	-0.3753767
172	0x3f5ecffe	0.8703612
173	0x3ea8cc39	0.3296831
174	0xbf5eacc6	-0.8698238
175	0x3f19a019	0.60009915
176	0xbdab537a	-0.08365531
177	0xbed3e874	-0.41388285
178	0x3f445c6e	0.76703537
179	0xbf468543	-0.7754709
180	0x3d9ace14	0.075588375
181	0xbe355d1c	-0.177113
182	0x3f2e7692	0.68149674
183	0x3e7cae96	0.24675974
184	0x3ee55baf	0.44796512
185	0x3ea43234	0.32069552
186	0xbe5525b3	-0.20815162
187	0xbe36547c	-0.17805666
188	0xbf4a9d07	-0.79145855
189	0x3f02602f	0.50928015
190	0x3f42e897	0.76136154
191	0x3f26d07d	0.6516188
192	0xbf2c3ab5	-0.6727708
193	0x3c76f332	0.015072631
194	0xbf2c1dab	-0.6723277
195	0xbf04963a	-0.5179173
196	0xbf0cd520	-0.550127
197	0x3e9e5b71	0.3092914
198	0xbf103677	-0.56333107
199	0x3ae70c58	0.001762758
200	0x3c4e123d	0.0125775905
201	0x3f1caeae	0.6120404
202	0xbf392b25	-0.7233146
203	0xbf27669f	-0.6539096
204	0xbf0c4f52	-0.54808533
205	0x3f2ad563	0.6673185
206	0xbea76c17	-0.32699654
207	0x3f4f9489	0.8108602
208	0x3ea88736	0.32915658
209	0x3dc202e9	0.09473211
210	0xba7478e7	-0.0009325877
211	0xbe296d95	-0.16545708
212	0x3dbf8a1b	0.093525134
213	0xbe48c027	-0.1960455
214	0xba53066b	-0.00080499676
215	0x3dc3fa1a	0.095691875
216	0xbf3fe4f5	-0.74958736
217	0xbefbaecb	-0.49156794
218	0x3f465e02	0.77487195
219	0xbf47675e	-0.778921
220	0xbd2762c1	-0.040865663
221	0x3f74e396	0.9565977
222	0x3ea85498	0.3287704
223	0x3ae04b44	0.0017112275
224	0xbf557f8c	-0.83397746
225	0x3eecfa7e	0.4628486
226	0xbf2dff0b	-0.6796729
227	0xbe80bd96	-0.25144643
228	0xbe9b2fc8	-0.30309892
229	0xbdedaf0f	-0.116056554
230	0xba0879d0	-0.000520614
231	0x3f4acc7a	0.79218256
232	0x3dbe6124	0.09295872
233	0x3f5cf16e	0.8630589
234	0x3f1442cd	0.5791443
235	0xbf1980f1	-0.59962374
236	0x3ed4f86a	0.41595775
237	0xbf2c9e49	-0.67429024
238	0xbec85d52	-0.39133698
239	0x3e85ffff	0.26171872
240	0x3e987291	0.29774907
241	0x3f37b638	0.7176242
242	0xbe94332e	-0.28945297
243	0xb92b5d60	-0.00016342616
244	0x3ef6ec04	0.4822694
245	0xbf6f37fa	-0.9344479
246	0x3f30bc1f	0.6903705
247	0xbf4b56f1	-0.7942954
248	0xbac9433b	-0.0015355119
249	0xbe0d31c1	-0.13788511
250	0xbefcfc78	-0.49411368
251	0x3dcd24a4	0.10016754
252	0x3f4b5619	0.7942825
253	0xbe8513f0	-0.25991774
254	0xbf0fa51c	-0.5611131
255	0xbeacbaca	-0.3373626

bias f4 [1000]
0	0xbd5ba5fc	-0.053625092
1	0xbf3f4c61	-0.7472592
2	0xb9c51c76	-0.00037595973
3	0xbf4c2382	-0.7974168
4	0xbe3b3fea	-0.182861
5	0x3f0c0720	0.5469837
6	0xbf29a9b4	-0.6627457
7	0xbf24366c	-0.6414554
8	0xbe58ee4e	-0.21184656
9	0xbe778ef2	-0.24175623
10	0x3e0c7be5	0.13719137
11	0x3e09132e	0.13386223
12	0x3ef2f8f7	0.4745557
13	0xbf2801cc	-0.6562774
14	0xbd21e48e	-0.039524607
15	0x3f06d713	0.5267193
16	0x3f55145d	0.83234197
17	0xbd2c12ed	-0.042010237
18	0xbf0bc993	-0.5460445
19	0x3e829c6b	0.25509962
20	0x3f097459	0.5369316
21	0xbf179793	-0.5921566
22	0xbf0c3733	-0.5477173
23	0x3ed1a96e	0.40949577
24	0xbd1fe2d0	-0.039034665
25	0xbf696f74	-0.9118569
26	0xbf0b44bb	-0.5440175
27	0x3ebefea3	0.37303647
28	0xbe9d0afd	-0.30672446
29	0x3f28592f	0.65761083
30	0x3f420752	0.7579242
31	0x3de82b66	0.113364026
32	0xbd43d090	-0.047806323
33	0xbe91eb1c	-0.28499687
34	0xbca765d7	-0.020434303
35	0x3e1970e4	0.1498447
36	0xbf3b3224	-0.73123384
37	0xbe539a4a	-0.20664325
38	0xbf4c969d	-0.7991732
39	0x3f14c7b7	0.5811724
40	0xbf1aafcc	-0.60424495
41	0x3f618317	0.8809065
42	0xbe66d683	-0.22542767
43	0xbf0a5131	-0.5403014
44	0x3ee55344	0.4479009
45	0x3defaf8f	0.11703407
46	0x3f28eb23	0.6598379
47	0x3ec51c2a	0.3849805
48	0xbf6e420f	-0.9306955
49	0x3f19939e	0.5999087
50	0xbe1fd052	-0.15606812
51	0xbed1a50e	-0.4094624
52	0x3f1a3aec	0.6024616
53	0x3f325cc7	0.69672817
54	0xbf58a6e6	-0.84629667
55	0xbd7165f2	-0.058935113
56	0x3f49df5b	0.7885644
57	0x3eb5a6db	0.35478863
58	0x3f4f52bc	0.8098562
59	0xbe9ed857	-0.3102443
60	0xbf04e21c	-0.51907516
61	0x3f53c811	0.8272715
62	0x3ec4c58b	0.38431963
63	0x3f6d65da	0.9273354
64	0xbec537e5	-0.38519207
65	0xbf1c0680	-0.6094742
66	0xbdaee4a9	-0.08539707
67	0xbf68b02f	-0.90893835
68	0x3eb81257	0.35951492
69	0x3f347a13	0.7049877
70	0x3e54b737	0.20773016
71	0xbd899cf3	-0.06719389
72	0x3eed340d	0.46328774
73	0xbf1a2785	-0.6021655
74	0x3f7211d7	0.9455847
75	0xbf7631bf	-0.96169657
76	0xbf6ce098	-0.925302
77	0xbe50e1d6	-0.2039865
78	0x3f48c254	0.7842152
79	0x3d8c489e	0.06849788
80	0x3eb40018	0.35156322
81	0xbf334cc5	-0.70039016
82	0x3eaa1d77	0.33225605
83	0xbda3cc84	-0.07997993
84	0x3ebc9614	0.3683325
85	0x3f2c7380	0.6736374
86	0x3ecdeb04	0.40218365
87	0xbd5bd62c	-0.053671047
88	0xbcfb7f62	-0.03070039
89	0xbf183723	-0.5945913
90	0xbea89114	-0.32923186
91	0x3f1e0535	0.61726695
92	0xbebcaf54	-0.36852515
93	0x3f16a648	0.58847475
94	0xbeba6302	-0.36403662
95	0xbe4d678e	-0.20059034
96	0xbafacb9a	-0.0019134164
97	0xbf62911f	-0.8850269
98	0xb9efdd5f	-0.00045750567
99	0xbd8da20a	-0.06915672
100	0xbd6e5568	-0.05818692
101	0xbe2bb41d	-0.16767927
102	0x3f417964	0.7557585
103	0x3f3493d1	0.7053805
104	0xbf2528fa	-0.6451565
105	0x3edd2aa5	0.43196598
106	0xbf40737b	-0.7517621
107	0xbf5195b8	-0.8186908
108	0x3e8be466	0.27322692
109	0xbad24676	-0.0016042728
110	0xbede31a5	-0.4339725
111	0xbf6e8e5c	-0.93185973
112	0xbeb5944d	-0.35464707
113	0x3e9a5ff4	0.3015133
114	0xbf649923	-0.8929617
115	0xbf70568e	-0.9388207
116	0x3dc2a40a	0.09503944
117	0xbf301352	-0.6877948
118	0xbf57ec20	-0.84344673
119	0xbeb4a1fe	-0.3527984
120	0xbe03fe21	-0.12889911
121	0xbf6045f5	-0.87606746
122	0xbf2297d3	-0.63512915
123	0x3d0e34f0	0.034718454
124	0xbf690b63	-0.91033
125	0xbdde5804	-0.108566314
126	0xbf1cf4b9	-0.6131092
127	0xbf291f43	-0.66063327
128	0x3eb89478	0.36050773
129	0xbf3cb0b8	-0.7370715
130	0xbf39a7e2	-0.72521794
131	0x3f09a719	0.53770596
132	0x3e1e82c9	0.15479578
133	0x3f60c93a	0.8780705
134	0xbe7087b4	-0.23489267
135	0xbee6a47f	-0.45047376
136	0xbd79f46d	-0.06102412
137	0xb832ffbc	-4.267668e-05
138	0x3f3ae1f5	0.73001033
139	0xbf76a386	-0.96343267
140	0xbd23c1fb	-0.039979916
141	0x3ed1d100	0.40979767
142	0xbf04a218	-0.51809835
143	0xbef3806a	-0.4755891
144	0x3ee6c6a4	0.45073426
145	0xbf6cf051	-0.92554194
146	0x3e518a7c	0.20462984
147	0xbf3dd75f	-0.74156755
148	0x3eedd978	0.46454978
149	0xbf52896e	-0.8224095
150	0x3f150b5b	0.5822045
151	0xbf69fb4a	-0.9139906
152	0xbf4ed502	-0.80793774
153	0xbae880c1	-0.0017738567
154	0x3f415f73	0.7553627
155	0xbf52e239	-0.8237644
156	0xbed3bba4	-0.41354096
157	0x3f587dbc	0.84566855
158	0xbe0ad42e	-0.13557503
159	0x3ec37a07	0.38179037
160	0xbf6dea2c	-0.9293544
161	0xbe906958	-0.2820537
162	0xbef357ff	-0.47528073
163	0x3f4f7845	0.8104289
164	0x3ec3e03f	0.38257024
165	0xbf3272d1	-0.69706446
166	0x3e043865	0.12912138
167	0x395bff3a	0.00020980547
168	0xbec1b922	-0.37836558
169	0xbf09db5a	-0.5385033
170	0xbe9945fa	-0.299362
171	0x3f41701c	0.7556169
172	0xbf2f2b0b	-0.68425053
173	0xbf2e0324	-0.6797354
174	0xbe8d5cc5	-0.2760984
175	0xbb0efb82	-0.002181739
176	0x3e758eb6	0.23980221
177	0x3b3994d5	0.002831747
178	0xbe5560b3	-0.20837669
179	0xbf12e260	-0.5737667
180	0xbe16ccde	-0.14726588
181	0xbebd77c0	-0.37005424
182	0x3f4679a5	0.77529365
183	0xbf70d5f5	-0.9407647
184	0xbf1af2cc	-0.6052673
185	0xbf47ed4f	-0.7809648
186	0xbe1a3146	-0.15057859
187	0x3f3f2474	0.74665
188	0x3f5809d3	0.8438999
189	0xbf568214	-0.83792233
190	0xbc5f9a8c	-0.013647687
191	0x3f0debec	0.55438113
192	0x3ed10a45	0.40828148
193	0x3f495735	0.7864869
194	0xbaa6bdf5	-0.0012721407
195	0xbf23a8bf	-0.6392936
196	0x3f2101f6	0.6289362
197	0xbe9ef49a	-0.3104599
198	0x3ef870bb	0.48523507
199	0xbe5b3db2	-0.21410254
200	0x3ec8fdfc	0.39256275
201	0x3f5de6c6	0.8668026
202	0x3f65af08	0.897202
203	0xbf609f10	-0.8774271
204	0xbf20fe7b	-0.62888306
205	0xbec31042	-0.3809834
206	0xbf1ae872	-0.60510933
207	0x3f6d4699	0.9268585
208	0xbd686355	-0.056735355
209	0xbf217860	-0.630743
210	0xbed32ebf	-0.41246602
211	0xbf05116d	-0.51979715
212	0x3ec03c48	0.3754599
213	0xbf56f135	-0.839618
214	0xbf6656da	-0.89976275
215	0xbf73ff58	-0.953115
216	0x3ecbc612	0.39799553
217	0x3eec80bd	0.4619197
218	0xbf16a710	-0.5884867
219	0x3e5cd482	0.2156544
220	0x3f349f39	0.70555454
221	0x3de8278f	0.1133567
222	0xbe379dbd	-0.17931266
223	0x3d2f4976	0.042794667
224	0xbd9aa606	-0.07551198
225	0x3ef12432	0.47097927
226	0xbf257b29	-0.6464105
227	0x3ef2fbe5	0.47457805
228	0x3f07f149	0.53102547
229	0xbf12c336	-0.5732912
230	0x3f48b0d2	0.78394806
231	0x3f731530	0.94954205
232	0xbeb93550	-0.36173487
233	0xbe7da48a	-0.24769798
234	0x3eee8330	0.46584463
235	0xbf40346f	-0.7508001
236	0x3eb9d16a	0.36292583
237	0x3e4dcee4	0.20098454
238	0x3f1903e6	0.59771574
239	0xbf560266	-0.8359741
240	0xbf4c5408	-0.7981572
241	0x3ed5515c	0.41663635
242	0x3ea7d3c8	0.32778764
243	0xbf65eb98	-0.8981261
244	0xbf066c52	-0.52509034
245	0xbf61e109	-0.88234
246	0xbf2f0e73	-0.6838142
247	0xbed65c56	-0.41867322
248	0x3f4b7f60	0.79491234
249	0xbe2ad38b	-0.1668226
250	0x3f0ab1ff	0.5417785
251	0x3f6ac201	0.91702276
252	0x3ed8aaae	0.42317718
253	0xbf5cd1a7	-0.86257404
254	0x3ef0fc73	0.47067603
255	0x3eb2a991	0.34894994

weight f4 [1, 1000]
0	0xbb20dc79	-0.0024545474
1	0x37c7fdb0	2.3840781e-05
2	0xb9e7f81c	-0.0004424461
3	0xbb187057	-0.002326032
4	0xbb177dc9	-0.0023115745
5	0xbbe649c1	-0.007027835
6	0x39123eb4	0.00013947004
7	0xbacdf684	-0.0015713726
8	0x3b08ede9	0.0020893759
9	0x3b2463b1	0.0025083835
10	0xba3bce68	-0.0007164241
11	0xba0217b7	-0.000496264
12	0xbc141cca	-0.009040067
13	0x39cf210c	0.00039506739
14	0xbada9a4d	-0.0016678065
15	0x3bb2373e	0.0054387143
16	0x3a34b5c7	0.0006893542
17	0x3c51e0e9	0.01280997
18	0x3abb8f78	0.0014309725
19	0xbb9dc417	-0.0048146355
20	0xbc952d81	-0.018210175
21	0x3ab64bf8	0.0013908138
22	0xb8e52bff	-0.00010927766
23	0xbbfbb56b	-0.007681539
24	0x3a54e1fc	0.00081208325
25	0x38b814d9	8.777687e-05
26	0x39ddfcda	0.00042340794
27	0xbb95e2c1	-0.0045741503
28	0xba770819	-0.0009423509
29	0x3c8fb35a	0.017541576
30	0xbb891269	-0.004183103
31	0x3cda6974	0.026661612
32	0x3a71887a	0.0009213757
33	0xb7c9914a	-2.4028723e-05
34	0xba773983	-0.0009430872
35	0xbb89748d	-0.004194802
36	0xba3245a6	-0.00068005396
37	0xbb974540	-0.0046164095
38	0xbb0721a5	-0.002061942
39	0x3af63d22	0.001878653
40	0xba832096	-0.0010004218
41	0x3aa19acf	0.0012329462
42	0xbade559b	-0.0016962768
43	0x3b68ffcb	0.0035552855
44	0x3b61f975	0.0034480963
45	0xbb19e073	-0.002347973
46	0x3cacbf34	0.021087267
47	0xbbd9d406	-0.0066475896
48	0x3b1a4ed0	0.002354551
49	0xbb8e986e	-0.004351667
50	0xbb9a3283	-0.0047057285
51	0x3bcac830	0.006188415
52	0x3bbf09f8	0.005830046
53	0xbbbc6a43	-0.005749972
54	0xb87e6244	-6.0649836e-05
55	0xb8b85e48	-8.791365e-05
56	0x3cd1baf4	0.025601842
57	0x3bd22914	0.0064135883
58	0xbc87448c	-0.016512178
59	0xb9c9ad8f	-0.0003846702
60	0xba3fe8f0	-0.0007320782
61	0x3c603879	0.013685339
62	0xbb5fb569	-0.0034135228
63	0x3c24d97f	0.010061621
64	0x3a52ca73	0.00080410315
65	0x3b5d560e	0.0033773216
66	0xbb46e7c9	-0.0030350557
67	0x3a214490	0.0006151879
68	0xbc5375a2	-0.012906464
69	0xbc192ead	-0.009349507
70	0xbb8488eb	-0.004044642
71	0xbb1b9a9c	-0.0023743277
72	0xbc7b5961	-0.015341134
73	0xbb24b267	-0.002513075
74	0x3cdf2fc7	0.027244462
75	0x3b0da13a	0.002161099
76	0xb8981194	-7.251199e-05
77	0x3b170ddc	0.0023049032
78	0x3c0b1f44	0.008491341
79	0x3a725fdf	0.0009245853
80	0xbb871c7f	-0.00412327
81	0x3acee852	0.001578579
82	0xbc8b89a8	-0.017033413
83	0xb96abf2c	-0.00022387196
84	0x38ad7e73	8.272836e-05
85	0x3ad67288	0.0016361037
86	0xbc02076a	-0.007936338
87	0xbadcc534	-0.0016843439
88	0xbb2ba467	-0.002619052
89	0x3a88af9c	0.0010428312
90	0x3a074076	0.0005159447
91	0xbc97c8fc	-0.018528454
92	0x3b84c02c	0.004051229
93	0xbc86d706	-0.016459953
94	0x3a0cb1c2	0.0005367064
95	0xba54d963	-0.00081195513
96	0x3c186d05	0.009303336
97	0x3a7f431d	0.00097374787
98	0x3a409b28	0.0007347339
99	0x3adfb3a3	0.0017067086
100	0xbc88bdbf	-0.01669204
101	0x3b5deab5	0.003386182
102	0xb99a5150	-0.00029433751
103	0xbb5fc492	-0.0034144265
104	0xbaf2b19d	-0.0018516068
105	0x3caa67bb	0.020801416
106	0xba04040a	-0.0005036002
107	0x391af10b	0.0001477638
108	0x3c6f2543	0.014596286
109	0x3b504a60	0.0031782612
110	0x380d6394	3.370976e-05
111	0xba771e7d	-0.00094268454
112	0x38c0edda	9.199577e-05
113	0x3cdb74dd	0.026789123
114	0xb8ea8518	-0.0001118278
115	0xb9d00dd9	-0.0003968317
116	0xbafaf01c	-0.0019145044
117	0x3b1de94b	0.0024095352
118	0xbab47ae5	-0.0013769536
119	0xb90444b6	-0.00012614098
120	0x3a342efd	0.0006873457
121	0xba4e8338	-0.00078778295
122	0x3b07b0d8	0.0020704772
123	0x3b217ed1	0.002464224
124	0xba68a6de	-0.0008874963
125	0xbb1a80f6	-0.0023575402
126	0x38627a00	5.399622e-05
127	0xbb15b177	-0.0022841373
128	0x3c419221	0.011814625
129	0xbad3a349	-0.0016146685
130	0x393cc255	0.00018001471
131	0x3bc2c5cd	0.00594399
132	0xbb2c33d1	-0.0026276002
133	0x3c21420e	0.009842409
134	0xbb86acce	-0.0041099554
135	0xbab9e0d7	-0.0014181387
136	0xb7d81280	-2.5757821e-05
137	0xba5f4d07	-0.0008518253
138	0x3ccb9128	0.02484949
139	0xbafa36b2	-0.0019089787
140	0xbc197ef5	-0.009368648
141	0x3ce468fc	0.027882092
142	0xbb985623	-0.00464894
143	0x3afd622c	0.0019331626
144	0xbbd90c62	-0.0066237906
145	0x392bb30e	0.00016374534
146	0x3c0599f5	0.008154382
147	0xba49a965	-0.0007692783
148	0xbc80d040	-0.015724301
149	0x3990d5ed	0.00027625207
150	0x3c1ec1a0	0.0096897185
151	0xba34417e	-0.0006876214
152	0xbb11861b	-0.0022205177
153	0x3bcaecba	0.006192771
154	0x3c27e463	0.010247323
155	0x3a303904	0.0006722363
156	0xbabe6c8b	-0.0014528198
157	0xbcb2e17b	-0.021836033
158	0x3a9aba70	0.001180483
159	0xbb715cce	-0.0036828998
160	0xba9f3d14	-0.001214894
161	0x38978ae4	7.2261115e-05
162	0x3ae966ae	0.001780709
163	0x3b720330	0.003692817
164	0xbc6afdc1	-0.014342726
165	0xba80faa2	-0.0009840319
166	0xbb4a4808	-0.0030865688
167	0x3b1a629c	0.002355731
168	0x37d94918	2.5902453e-05
169	0xbb1b3ee7	-0.0023688616
170	0xbbe21405	-0.006899359
171	0xbc26d455	-0.01018246
172	0x3b3cc250	0.0028802343
173	0x39e3b4ac	0.00043431425
174	0x39a475fa	0.00031368417
175	0x3c5bc867	0.013414479
176	0x3c1ee2d7	0.0096976375
177	0x38801162	6.1067534e-05
178	0xbb16dfac	-0.0023021502
179	0x399674f6	0.00028697372
180	0xb9a9f820	-0.0003241906
181	0x39fb1246	0.00047888065
182	0x3ca0d1eb	0.019631347
183	0xb8afd8c8	-8.385029e-05
184	0x3b0c6521	0.0021422582
185	0xba535110	-0.00080610905
186	0xba05e326	-0.0005107395
187	0x3bed53d4	0.007242659
188	0x3bfc655e	0.0077025136
189	0xba761bd8	-0.00093883043
190	0xbb5f37a5	-0.0034060266
191	0x3c396e2a	0.011317769
192	0xbba5d117	-0.005060326
193	0xbbffcf33	-0.0078066825
194	0xba07890b	-0.00051702623
195	0x3a7e8de4	0.00097104744
196	0xbaaa378c	-0.0012986525
197	0x3af979d0	0.0019033495
198	0xbb4628fc	-0.003023683
199	0x3b2172d4	0.0024635093
200	0x3c5fe167	0.01366458
201	0xbc6f330a	-0.014599571
202	0x3ca229fe	0.019795414
203	0xba766e03	-0.00094005483
204	0xba5fe77e	-0.000854127
205	0x3a28d5ca	0.00064405485
206	0xbb754b80	-0.0037429035
207	0x3b0f8c72	0.002190378
208	0xbb0471b8	-0.0020209383
209	0xba746590	-0.00093229953
210	0x38f78ce1	0.000118041185
211	0x3b091874	0.0020919116
212	0x3c978ca8	0.018499687
213	0x39defcf1	0.00042531596
214	0x39b7a0ca	0.00035024277
215	0xbb1d4541	-0.0023997577
216	0x3bff4185	0.007789793
217	0xbb9ac7f1	-0.004723542
218	0x3ad1645a	0.0015975342
219	0xbae552c2	-0.0017495977
220	0x3cbea00a	0.023269672
221	0xbbf4a5ab	-0.007466038
222	0xb93272e4	-0.00017018203
223	0x39ba9735	0.00035589343
224	0xb901a044	-0.00012362102
225	0xbc8cbb36	-0.017179113
226	0xb8a5a570	-7.898628e-05
227	0xbc5ade9c	-0.013358738
228	0x3cb5ce6c	0.022193156
229	0x3a5732eb	0.00082091865
230	0xbc0e1ff7	-0.008674613
231	0xb86382d6	-5.4242868e-05
232	0x3a42453c	0.00074108294
233	0x3a307ec3	0.0006732756
234	0xbcb3a139	-0.021927463
235	0xbad31d6e	-0.0016106793
236	0x3cdec5df	0.027193962
237	0xbb5285aa	-0.0032123127
238	0x3cb79e72	0.02241442
239	0x3a789b0f	0.0009483555
240	0xb98c27d7	-0.00026732564
241	0xbc87ec12	-0.01659206
242	0xbc45d235	-0.012074043
243	0x3ae90ea7	0.0017780856
244	0xba832f5e	-0.0010008623
245	0xbb20be75	-0.0024527584
246	0x3a99ec94	0.0011743479
247	0xb91f0ba6	-0.00015167761
248	0x3b204bbf	0.002445921
249	0x3b09f93a	0.0021053092
250	0xb9772967	-0.00023571179
251	0x3cecc146	0.028900754
252	0x3cca79f0	0.024716347
253	0xba563840	-0.0008171834
254	0xbb1baa49	-0.002375262
255	0xb840802c	-4.5895737e-05

exp_avg f4 [1000, 1]
0	0xba013c99	-0.0004929989
1	0x3ffda8ff	1.9817199
2	0xc045cf06	-3.0907607
3	0xc0303c52	-2.7536817
4	0xbfb2bc38	-1.396369
5	0x3f719fda	0.9438454
6	0xbb3002f2	-0.0026857224
7	0x403e55df	2.9739912
8	0xbe80a772	-0.2512775
9	0x3f6e1bcc	0.93011165
10	0xbf89ac8f	-1.0755786
11	0xbf2acd38	-0.6671939
12	0xc06697b3	-3.603009
13	0xc01dfe6f	-2.4686544
14	0xbfc023c8	-1.501092
15	0x3d67904c	0.056534097
16	0x3fb7c9fa	1.4358513
17	0x400e960f	2.2279088
18	0xc021df37	-2.529249
19	0xbfcb9dba	-1.5907509
20	0x3fa7dbad	1.3113915
21	0x4047a159	3.1192229
22	0xbf33e69c	-0.70273757
23	0x40334c8f	2.8015478
24	0xbf07c654	-0.53037
25	0x3ea23c97	0.3168685
26	0x405a3a06	3.4097915
27	0xc05fb74e	-3.495563
28	0xc015e277	-2.3419473
29	0xbf62b824	-0.88562226
30	0xbfb5081a	-1.4143097
31	0x404ffa8b	3.249667
32	0xc01a8058	-2.4140835
33	0xbfd7f71d	-1.6872288
34	0xc026ff90	-2.6093483
35	0xc061ec4b	-3.5300472
36	0xc00a8afa	-2.1647325
37	0x404edc5f	3.2322004
38	0x3fd0f9a6	1.6326187
39	0x3fe4089c	1.7815127
40	0x3de8d1b0	0.1136812
41	0xbff1e19b	-1.8896974
42	0x3f0faf4e	0.5612687
43	0xc0613691	-3.5189555
44	0xc02ceeef	-2.7020833
45	0xbff34c6b	-1.9007696
46	0x4016411f	2.3477247
47	0x400b2eb7	2.1747262
48	0xbfcfa061	-1.6220819
49	0xbd5833bd	-0.052783716
50	0x40185df0	2.3807335
51	0x4070317d	3.7530205
52	0x3fb8900b	1.4418958
53	0x3edc0909	0.42975643
54	0x40200697	2.5004022
55	0xc00bcbe2	-2.184319
56	0x3f20bb99	0.6278625
57	0xc039fe3f	-2.906143
58	0xc025a180	-2.5879822
59	0xbff3d2f4	-1.9048753
60	0x3fd4129e	1.6568182
61	0x3fbb305b	1.4624132
62	0xc00cab8e	-2.1979709
63	0x3f89a413	1.0753196
64	0x4001ef6b	2.030238
65	0xbeca78e2	-0.3954535
66	0x3d781a35	0.060571868
67	0x3f4d88f9	0.8028713
68	0x40139c79	2.3064253
69	0x4067c5fa	3.6214585
70	0xc038d2e1	-2.887871
71	0xbfa97b9f	-1.3240851
72	0x3fb69d6d	1.4266793
73	0x40472af5	3.111997
74	0x405184d3	3.273732
75	0x40547f8c	3.3202848
76	0x3f2d2ffe	0.67651355
77	0xc05155a3	-3.2708519
78	0x3e871970	0.26386595
79	0xc014e923	-2.3267295
80	0xc060c707	-3.5121477
81	0x40560548	3.3440723
82	0x40364679	2.8480513
83	0xc07105d2	-3.7659802
84	0x3f217f9a	0.6308533
85	0xbf0ef141	-0.55836874
86	0xbf0b1850	-0.5433397
87	0xbfd6b085	-1.677262
88	0x3fb2750e	1.3941972
89	0xc00ca9dd	-2.1978676
90	0x3fa98b09	1.3245555
91	0x3fee6b5d	1.8626515
92	0x402b3f70	2.675747
93	0x3fad27c7	1.3527764
94	0xc06f17bb	-3.7358234
95	0xc01aa122	-2.4160848
96	0x3feb4a95	1.8382136
97	0x3f375d72	0.7162696
98	0xc03b2b2d	-2.9245102
99	0xc00894cf	-2.1340826
100	0x4062f42f	3.5461538
101	0x4020dc21	2.5134356
102	0xbfcbeb08	-1.5931101
103	0xbf614c28	-0.8800683
104	0xc065e519	-3.592108
105	0xb920fc0c	-0.00015352684
106	0xc03479bf	-2.8199308
107	0xc03901db	-2.8907382
108	0xbdfcd946	-0.12346129
109	0x3ef9a47d	0.48758307
110	0xbfbece69	-1.4906741
111	0x400cedf5	2.2020237
112	0xc010af2b	-2.2606914
113	0x405ab8ad	3.4175217
114	0x4023b1c3	2.5577247
115	0xc04ad225	-3.1690762
116	0xbf5e81b7	-0.8691668
117	0x3dafdfd1	0.085876115
118	0x3ef15853	0.471377
119	0x3f52f2cf	0.82401747
120	0x3fb6594c	1.4246001
121	0x3e109b0e	0.14121649
122	0xbfe5a1da	-1.7940018
123	0x3fde58f7	1.73709
124	0xc0678ac8	-3.6178455
125	0xc00cc36c	-2.1994276
126	0xbf5ff84d	-0.8748825
127	0xbfe53a77	-1.7908467
128	0xbfa13be7	-1.2596406
129	0xc044f5f7	-3.0775125
130	0xbf3abe2e	-0.7294644
131	0x3f3bcf57	0.7336325
132	0xc01b4f3b	-2.4267108
133	0xbddf0a20	-0.10890603
134	0x402b42f7	2.6759622
135	0xbe9c4cff	-0.30527493
136	0x3ccc12a1	0.024911227
137	0xbe779689	-0.24178518
138	0x3f309900	0.6898346
139	0x401771fa	2.3663316
140	0x40649195	3.5713856
141	0x4017476b	2.363734
142	0x40651fc8	3.5800648
143	0xbe40f3ae	-0.18842956
144	0xc05876a8	-3.3822422
145	0xbfdec5ad	-1.7404076
146	0x40229e35	2.5409062
147	0xbaa8c7c0	-0.0012876913
148	0xbfea27b2	-1.8293364
149	0xc037c201	-2.871216
150	0xc061c3ac	-3.5275679
151	0xc04b0020	-3.1718826
152	0xbf30f809	-0.6912847
153	0x4001cd47	2.0281541
154	0x3fffc458	1.9981794
155	0xc068d367	-3.637903
156	0x401474a1	2.3196185
157	0xc03bc836	-2.934095
158	0xbf3973a4	-0.7244208
159	0xbfbcca7c	-1.4749293
160	0xbf26db60	-0.6517849
161	0xbf2a8b51	-0.6661883
162	0xc058362a	-3.378306
163	0xc04fce75	-3.2469761
164	0xbf031bdc	-0.51214385
165	0xbbac9e7c	-0.0052679162
166	0xbfd4f638	-1.663764
167	0x3fae905c	1.3637805
168	0xc058e1e5	-3.3887875
169	0xbe2e16c0	-0.17000866
170	0x4053c461	3.308861
171	0xbfbdffd2	-1.4843695
172	0x40599e9f	3.4003065
173	0x3fa75887	1.3073891
174	0xc0597a37	-3.3980844
175	0x4016ae4a	2.3543878
176	0xbeb525cb	-0.35380396
177	0xbfd1118b	-1.6333479
178	0x4040049d	3.0002816
179	0xc0421b2a	-3.032908
180	0x3ea52c7d	0.32260504
181	0xbf376e82	-0.71652997
182	0x402ada36	2.6695685
183	0x3f7c7ec6	0.9863094
184	0x3fe1f4a8	1.7652788
185	0x3fa2e454	1.272593
186	0xbf563711	-0.83677775
187	0xbf385263	-0.7200071
188	0xc0460e4b	-3.0946224
189	0x40002ae1	2.0026171
190	0x403e9d36	2.9783454
191	0x4023716d	2.553798
192	0xc028ac98	-2.6355343
193	0x3dac988a	0.08427532
194	0xc0288e95	-2.6337025
195	0xc0024e9f	-2.0360487
196	0xc00a488f	-2.1606786
197	0x3f9d3d85	1.2284399
198	0xc00d8d50	-2.21175
199	0xbbf43c8c	-0.007453507
200	0x3d988fa2	0.07449271
201	0x40199d0c	2.4002104
202	0xc0352a37	-2.8307016
203	0xc023fea0	-2.562416
204	0xc009c7c6	-2.1528182
205	0x40274de3	2.6141288
206	0xbfa603b3	-1.2969879
207	0x404ae112	3.1699872
208	0x3fa718c7	1.3054436
209	0x3ecb475e	0.39702886
210	0xba0dc697	-0.00054083153
211	0xbf2bde62	-0.67136204
212	0x3ec90ec3	0.39269075
213	0xbf4a35ab	-0.7898814
214	0xba78eed4	-0.00094960374
215	0x3ecd3003	0.40075693
216	0xc03bad16	-2.9324393
217	0xbff78f0f	-1.9340533
218	0x4041f5d8	3.03063
219	0xc042f4e6	-3.0461974
220	0xbe3eff87	-0.18652163
221	0x406ef82e	3.7338977
222	0x3fa6e5ba	1.3038857
223	0x3cdc37a9	0.02688201
224	0xc0509928	-3.259348
225	0x3fe94e6d	1.8227059
226	0xc02a605c	-2.6621313
227	0xbf809612	-1.0045798
228	0xbf9a1fdf	-1.2040976
229	0xbef5aa3f	-0.4798145
230	0xbba57c09	-0.0050501865
231	0x4046401e	3.0976634
232	0x3ec7c05e	0.39013952
233	0x4057cebf	3.3719938
234	0x40117539	2.2727797
235	0xc0168c1f	-2.3523023
236	0x3fd2282b	1.6418508
237	0xc0290b10	-2.6413002
238	0xbfc5d993	-1.5457023
239	0x3f85a995	1.0442377
240	0x3f978522	1.1837504
241	0x4033c426	2.808847
242	0xbf936b04	-1.1517034
243	0xb8b61256	-8.6818516e-05
244	0x3ff2f3cc	1.8980651
245	0xc0697c13	-3.648198
246	0x402d06bf	2.7035367
247	0xc046c4d9	-3.1057646
248	0xbba99eae	-0.005176387
249	0xbf1081e9	-0.5644823
250	0xbff8d051	-1.9438573
251	0x3ed65e42	0.41868788
252	0x4046cb61	3.1061633
253	0xbf84c50f	-1.0372638
254	0xc00d00f4	-2.2031832
255	0xbfab2523	-1.3370708

exp_avg_sq f4 [1000, 1]
0	0x365dfa40	3.307723e-06
1	0x3e0f3ce3	0.1398807
2	0x3eac5090	0.33655214
3	0x3e891b5c	0.26778686
4	0x3d900f37	0.07034152
5	0x3d068900	0.032845497
6	0x383182da	4.2321954e-05
7	0x3e9fa7ac	0.3118261
8	0x3b34cfa8	0.0027589593
9	0x3d029e7e	0.03188943
10	0x3d2d26ab	0.042273205
11	0x3c89f5f2	0.016840909
12	0x3ee97fe4	0.45605385
13	0x3e5cf1c5	0.21576603
14	0x3da5fa3b	0.08104368
15	0x398fc727	0.00027423466
16	0x3d982c12	0.07430281
17	0x3e345226	0.17609462
18	0x3e67c9b2	0.22635534
19	0x3db9e05e	0.09075998
20	0x3d7f44ab	0.062321346
21	0x3eaf7c33	0.34274444
22	0x3c98426f	0.018586366
23	0x3e8debf9	0.27719095
24	0x3c3249a4	0.010881815
25	0x3b891cc3	0.004184337
26	0x3ed150f2	0.4088207
27	0x3edbe711	0.42949727
28	0x3e471c02	0.19444278
29	0x3cee0a3b	0.029057613
30	0x3d93a084	0.0720835
31	0x3ebe2a74	0.37141764
32	0x3e5366ac	0.20644635
33	0x3dd0c3f7	0.10193627
34	0x3e768545	0.24074276
35	0x3ee03b02	0.4379502
36	0x3e2a79d3	0.16648035
37	0x3ebc5891	0.3678632
38	0x3dc3b430	0.095558524
39	0x3de85597	0.1134445
40	0x3a4045fe	0.00073346484
41	0x3e026d23	0.12736945
42	0x3c467120	0.012111932
43	0x3eded5ea	0.43522578
44	0x3e8418b5	0.258001
45	0x3e03f299	0.12885512
46	0x3e47ef6f	0.1952493
47	0x3e2c1e24	0.16808373
48	0x3dc13b70	0.09435165
49	0x398310fe	0.00024998927
50	0x3e4dc664	0.20095211
51	0x3efd25ba	0.49442846
52	0x3d995fd3	0.0748898
53	0x3bf0d1ba	0.00734922
54	0x3e6297e5	0.22128256
55	0x3e2d8808	0.16946423
56	0x3c74b913	0.014936703
57	0x3e988ac0	0.29793358
58	0x3e725ae0	0.23667479
59	0x3e0481dc	0.12940162
60	0x3dc9709b	0.09835931
61	0x3d9d9890	0.076951146
62	0x3e2fa788	0.17153752
63	0x3d2cf904	0.042229667
64	0x3e163565	0.14668806
65	0x3bcde468	0.0062833317
66	0x399d54b5	0.00030008485
67	0x3cc4a5ac	0.02400478
68	0x3e415698	0.18880689
69	0x3eebfa1d	0.4608926
70	0x3e96a4c5	0.29422584
71	0x3d81d608	0.06339651
72	0x3d9673e4	0.07346323
73	0x3eaea7ac	0.34112298
74	0x3ec0fa25	0.37690845
75	0x3ec696ba	0.3878687
76	0x3c8d928e	0.017281797
77	0x3ec0c5c9	0.37650898
78	0x3b44e005	0.0030040753
79	0x3e44903a	0.19195643
80	0x3eddfa03	0.43354806
81	0x3ec96f11	0.3934255
82	0x3e92ab90	0.28646517
83	0x3efeee74	0.497913
84	0x3c77edd5	0.015132387
85	0x3c447391	0.011990444
86	0x3c3a30f0	0.011364207
87	0x3dce59a3	0.100756906
88	0x3d8fbc49	0.070183344
89	0x3e2fa928	0.17154372
90	0x3d81ed1b	0.063440524
91	0x3dfde279	0.12396712
92	0x3e817720	0.25286198
93	0x3d87996b	0.06621059
94	0x3efae5c1	0.49003413
95	0x3e53bf51	0.2067845
96	0x3df6f84a	0.12059076
97	0x3c9ded26	0.01927812
98	0x3e9a7295	0.30165544
99	0x3e25bfbf	0.16186427
100	0x3ee26a6f	0.44221827
101	0x3e64ebc7	0.22355567
102	0x3dba7ad9	0.091054626
103	0x3cea8ffc	0.02863311
104	0x3ee81d8a	0.45335037
105	0x3820ea25	3.8365037e-05
106	0x3e8fb591	0.28068212
107	0x3e96f001	0.29479983
108	0x3a5d68c7	0.0008446094
109	0x3c17e0f0	0.009269938
110	0x3da3ba3c	0.07994506
111	0x3e30510d	0.17218418
112	0x3e39b461	0.18135215
113	0x3ed223bd	0.4104289
114	0x3e6cf933	0.23141937
115	0x3eb511fc	0.35365283
116	0x3ce509fa	0.027958859
117	0x39fcf7e0	0.00048249867
118	0x3c0ecf31	0.0087163905
119	0x3ccebf21	0.025237622
120	0x3d95d62f	0.07316243
121	0x3a87932c	0.0010343543
122	0x3deb85cc	0.11500129
123	0x3ddd14a2	0.10794951
124	0x3eeb6ce2	0.45981508
125	0x3e2fe825	0.171784
126	0x3ce813a5	0.02832968
127	0x3deab574	0.11460391
128	0x3d6bd65d	0.05757748
129	0x3eaadae9	0.3337014
130	0x3ca38d45	0.019964823
131	0x3ca54ae4	0.020177312
132	0x3e55936d	0.2085702
133	0x3a34f574	0.00069030304
134	0x3e819d94	0.25315535
135	0x3b8025fc	0.003910778
136	0x38f4079f	0.00011636246
137	0x3b28e7a0	0.0025772825
138	0x3c9282b9	0.017884599
139	0x3e4b3926	0.19846019
140	0x3ee59153	0.44837436
141	0x3e4a92cc	0.19782561
142	0x3ee6abd7	0.45052978
143	0x3adb20f5	0.0016718196
144	0x3ecdfd01	0.4023209
145	0x3ddde3eb	0.108344875
146	0x3e69dcd2	0.22838143
147	0x361e4061	2.3581308e-06
148	0x3df46e93	0.11935153
149	0x3e94ed47	0.29087278
150	0x3edff956	0.43744916
151	0x3eb56355	0.35427347
152	0x3c938b53	0.01801077
153	0x3e15e6a2	0.1463876
154	0x3e118b50	0.142133
155	0x3eee055b	0.4648846
156	0x3e435dba	0.19078723
157	0x3e9b5025	0.30334583
158	0x3ca163d1	0.019700916
159	0x3da046a5	0.078259744
160	0x3c83d9fd	0.016095156
161	0x3c8978b4	0.016781189
162	0x3ecd8692	0.40141732
163	0x3ebe0228	0.3711102
164	0x3c2644db	0.010148252
165	0x375f3738	1.3304692e-05
166	0x3dcb1be6	0.099174306
167	0x3d899262	0.067173734
168	0x3ececaa2	0.40388972
169	0x3ab821f7	0.0014048208
170	0x3ec5527f	0.38539502
171	0x3da2393f	0.07921075
172	0x3ed0276e	0.40655082
173	0x3d7d4fc4	0.06184365
174	0x3ecfeae7	0.40608904
175	0x3e491a17	0.19638859
176	0x3ba840ac	0.0051346626
177	0x3dc3e01e	0.09564231
178	0x3ea2830e	0.31740612
179	0x3ea5fc7c	0.32419193
180	0x3b8da908	0.0043231286
181	0x3c9e0951	0.019291552
182	0x3e80dfae	0.25170654
183	0x3d125778	0.035727948
184	0x3de42a8b	0.11140927
185	0x3d704f3d	0.058669318
186	0x3cd4f6aa	0.025996525
187	0x3c9f9b3a	0.019483197
188	0x3eacc70d	0.33745614
189	0x3e123a69	0.14280094
190	0x3ea02cd5	0.31284204
191	0x3e6c2fb7	0.23065077
192	0x3e7b6abf	0.24552439
193	0x39f91697	0.00047509812
194	0x3e7b170b	0.24520509
195	0x3e17138b	0.14753549
196	0x3e29d133	0.1658371
197	0x3d604dde	0.05476176
198	0x3e31d529	0.1736647
199	0x386b3816	5.60806e-05
200	0x39ccb470	0.00039044349
201	0x3e512a79	0.20426358
202	0x3e90e4e2	0.28299624
203	0x3e6dd554	0.2322591
204	0x3e28a16f	0.16467832
205	0x3e774cd4	0.24150401
206	0x3d79639a	0.060886003
207	0x3eb52ed2	0.35387284
208	0x3d7ccc03	0.061718
209	0x3bcf69f1	0.006329768
210	0x365afa9b	3.2630403e-06
211	0x3c8b84d5	0.017031113
212	0x3bca687a	0.0061770054
213	0x3cbe9191	0.02326277
214	0x363f1b2b	2.8477032e-06
215	0x3bd30993	0.0064403503
216	0x3e9b47e6	0.30328292
217	0x3e08794a	0.13327518
218	0x3ea5c08d	0.32373467
219	0x3ea76c0b	0.32699618
220	0x3ad9c4fc	0.0016614492
221	0x3efab962	0.4896956
222	0x3d7c0944	0.061532274
223	0x390353da	0.0001252437
224	0x3ebf6e77	0.37388965
225	0x3df34770	0.1187886
226	0x3e803d14	0.250466
227	0x3d175e75	0.036955316
228	0x3d58213e	0.052766077
229	0x3c13a46c	0.009011369
230	0x372d5c9b	1.0333165e-05
231	0x3ead1965	0.33808437
232	0x3bc8ccfc	0.0061279517
233	0x3eccc960	0.39997387
234	0x3e3be30c	0.1834833
235	0x3e48d9ed	0.19614382
236	0x3dc5965a	0.09647818
237	0x3e7c88e9	0.24661602
238	0x3db00c28	0.085960686
239	0x3d237bd9	0.039913032
240	0x3d50aa94	0.050943926
241	0x3e8eb336	0.27871102
242	0x3d4576ba	0.04820893
243	0x34087a0c	1.2710387e-07
244	0x3e039394	0.12849265
245	0x3eef5bd9	0.46749762
246	0x3e843672	0.25822788
247	0x3eadf9ae	0.33979553
248	0x37865550	1.6013772e-05
249	0x3c4899a2	0.01224366
250	0x3e09e1b9	0.13465013
251	0x3be39e84	0.006946387
252	0x3eade72d	0.33965436
253	0x3d215ea7	0.039396908
254	0x3e307b45	0.17234524
255	0x3d845210	0.06460965

exp_avg f4 [1000]
0	0xbe72acd5	-0.23698743
1	0xc03b1e34	-2.9237185
2	0xbab63e4c	-0.0013904064
3	0xc0478ac9	-3.1178458
4	0xbf3d2219	-0.73880154
5	0x40097d49	2.1482718
6	0xc0262ef4	-2.5966158
7	0xc020ea0b	-2.5142848
8	0xbf59e10c	-0.8510902
9	0xbf7788e2	-0.9669324
10	0x3f0fbea0	0.56150246
11	0x3f0c84b6	0.5489
12	0x3fef0274	1.8672624
13	0xc02494c7	-2.5715806
14	0xbe3a1dc4	-0.18175417
15	0x4004849e	2.0705943
16	0x4050348f	3.253208
17	0xbe440c36	-0.19145283
18	0xc009465e	-2.1449199
19	0x3f8261c8	1.018609
20	0x4006f49d	2.10868
21	0xc014b1f7	-2.323362
22	0xc009b070	-2.151394
23	0x3fceda5a	1.6160386
24	0xbe382500	-0.17982864
25	0xc063e392	-3.5607648
26	0xc008c4dc	-2.1370153
27	0x3fbcd2a0	1.4751778
28	0xbf9bf7db	-1.2185014
29	0x4024fd28	2.5779514
30	0x403dc0cc	2.9648924
31	0x3ef1390e	0.47113842
32	0xbe5b5f71	-0.21423127
33	0xbf913332	-1.1343749
34	0xbdd94a52	-0.106098786
35	0x3f1c581c	0.61071944
36	0xc03725fe	-2.8616939
37	0xbf54be7e	-0.8310317
38	0xc047fa29	-3.1246436
39	0x4011fe4b	2.2811458
40	0xc017b12d	-2.370189
41	0x405c3cae	3.4412036
42	0xbf675877	-0.9036936
43	0xc007da27	-2.12269
44	0x3fe1f0fe	1.765167
45	0x3ef79acc	0.48360288
46	0x40258de5	2.5867856
47	0x3fc2b6a9	1.5211993
48	0xc0688e21	-3.6336749
49	0x40169c4d	2.3532898
50	0xbf2294b5	-0.6350816
51	0xbfced630	-1.6159115
52	0x40174849	2.363787
53	0x402e9695	2.7279408
54	0xc053a654	-3.3070269
55	0xbe83f402	-0.257721
56	0x40457539	3.0852797
57	0x3fb3cfea	1.4047825
58	0x404a9198	3.1651363
59	0xbf9db66a	-1.2321293
60	0xc002980d	-2.0405304
61	0x404effee	3.2343707
62	0x3fc26c41	1.5189286
63	0x4067c57b	3.6214283
64	0xbfc2d846	-1.5222251
65	0xc018fcca	-2.390429
66	0xbeb8b4b8	-0.36075377
67	0xc0632a7f	-3.5494688
68	0x3fb60ba1	1.4222299
69	0x40309ec7	2.759691
70	0x3f55cbcd	0.835141
71	0xbe947085	-0.28992096
72	0x3fe97224	1.8237958
73	0xc0172e3d	-2.3621972
74	0x406c5bac	3.6930952
75	0xc0703bed	-3.7536576
76	0xc0673821	-3.6128008
77	0xbf5215b2	-0.82064354
78	0x40445082	3.0674138
79	0x3e9709e2	0.29499727
80	0x3fb22f07	1.3920602
81	0xc02f818e	-2.7422824
82	0x3fa8813b	1.3164438
83	0xbeadebd5	-0.33968988
84	0x3fba8453	1.4571632
85	0x4028e5b8	2.639021
86	0x3fcb3a4c	1.5877166
87	0xbe72dbe8	-0.237167
88	0xbe165774	-0.14681798
89	0xc0154cfe	-2.3328242
90	0xbfa71f47	-1.305642
91	0x401adae1	2.4196093
92	0xbfbaa6f4	-1.45822
93	0x4013bb11	2.3082926
94	0xbfb85e90	-1.4403858
95	0xbf4eb784	-0.8074877
96	0x3bc19b82	0.0059084306
97	0xc05d3e40	-3.4569244
98	0x3b45c352	0.0030176234
99	0xbe985aac	-0.29756677
100	0xbe826441	-0.25467113
101	0xbf2e0372	-0.6797401
102	0x403d3b56	2.9567466
103	0x4030bda1	2.761574
104	0xc021d38e	-2.5285373
105	0x3fda3554	1.7047524
106	0xc03c3bbd	-2.9411461
107	0xc04ccfcd	-3.2001832
108	0x3f8b7f5b	1.0898241
109	0xbbac4774	-0.0052575413
110	0xbfdb05cf	-1.7111148
111	0xc068d7f4	-3.6381807
112	0xbfb3b772	-1.4040358
113	0x3f999cd8	1.200099
114	0xc05f3569	-3.487635
115	0xc06a915d	-3.6651223
116	0x3ecbdac0	0.3981533
117	0xc02c6367	-2.693567
118	0xc052f19a	-3.2959962
119	0xbfb2ccee	-1.396879
120	0xbf078e49	-0.52951485
121	0xc05b061f	-3.4222486
122	0xc01f57ad	-2.4897263
123	0x3e2700ed	0.16308947
124	0xc06382bf	-3.554855
125	0xbee6c831	-0.4507461
126	0xc019e34c	-2.404498
127	0xc025a8ff	-2.5884397
128	0x3fb6ba87	1.4275674
129	0xc038982c	-2.8842878
130	0xc035a882	-2.83841
131	0x40073ddf	2.1131513
132	0x3f2144b5	0.62995464
133	0x405b915f	3.4307477
134	0xbf70bfa0	-0.94042397
135	0xbfe332dc	-1.7749896
136	0xbe882035	-0.26587072
137	0x3a698462	0.0008907971
138	0x4036f373	2.858609
139	0xc070aa02	-3.7603765
140	0xbe3bd678	-0.18343532
141	0x3fcf478f	1.6193713
142	0xc0025257	-2.0362756
143	0xbfefa47d	-1.8722073
144	0x3fe33eb2	1.7753508
145	0xc0674758	-3.6137295
146	0x3f52e2d7	0.8237738
147	0xc039b548	-2.9016895
148	0x3fea10f4	1.8286424
149	0xc04dbb9d	-3.214576
150	0x40124024	2.2851648
151	0xc0646adf	-3.569023
152	0xc04a25f2	-3.158566
153	0xbb9cd11f	-0.0047856714
154	0x403d2ca7	2.9558504
155	0xc04e118a	-3.2198205
156	0xbfd0e7c9	-1.6320735
157	0x40536b2c	3.3034163
158	0xbf0e36de	-0.5555247
159	0x3fc1280d	1.5090348
160	0xc0683919	-3.628485
161	0xbf8fbdc5	-1.1229788
162	0xbfef7d5c	-1.8710132
163	0x404aca04	3.16858
164	0x3fc1752a	1.5113881
165	0xc02eaf36	-2.729444
166	0x3f07cf43	0.5305063
167	0x3b9949f1	0.004678004
168	0xbfbf783c	-1.4958568
169	0xc0076820	-2.1157303
170	0xbf9857eb	-1.190183
171	0x403d2880	2.955597
172	0xc02b7ff6	-2.679685
173	0xc02a6455	-2.6623738
174	0xbf8cca29	-1.0999194
175	0xbae3d67b	-0.0017382646
176	0x3f75c85c	0.9600885
177	0x3d03d0c3	0.032181513
178	0xbf567001	-0.83764654
179	0xc0102464	-2.252221
180	0xbf19d179	-0.60085255
181	0xbfbb59ea	-1.4636815
182	0x404225cf	3.0335577
183	0xc06b0ca0	-3.6726456
184	0xc017f201	-2.3741457
185	0xc043778c	-3.0541716
186	0xbf1d1b14	-0.6136944
187	0x403b0138	2.9219494
188	0x4053186e	3.298366
189	0xc051934e	-3.2746158
190	0xbda0cbd5	-0.07851378
191	0x400b64b2	2.178021
192	0x3fce3dd0	1.6112614
193	0x4044d062	3.0752187
194	0xbccaa8f0	-0.024738759
195	0xc0205fc3	-2.5058448
196	0x401dd01f	2.4658277
197	0xbf9dd1c5	-1.2329642
198	0x3ff46d19	1.9095794
199	0xbf5c1dba	-0.8598286
200	0x3fc6a10c	1.5517898
201	0x4058ae92	3.385655
202	0x40605848	3.5053883
203	0xc05b5c57	-3.427511
204	0xc01dcb99	-2.4655516
205	0xbfc0cef3	-1.5063156
206	0xc017e7fd	-2.3735344
207	0x40679f6f	3.619106
208	0xbe7ee795	-0.24893029
209	0xc01e4189	-2.47275
210	0xbfd05dd5	-1.6278635
211	0xc002c5d6	-2.043325
212	0x3fbe311d	1.4858738
213	0xc051fed5	-3.2811787
214	0xc060e4aa	-3.5139565
215	0xc06e1bc5	-3.720445
216	0x3fc9554d	1.5729157
217	0x3fe8da0a	1.819154
218	0xc013c91e	-2.3091502
219	0x3f5da4ce	0.86579597
220	0x4030e31a	2.7638612
221	0x3ef01f1b	0.46898732
222	0xbf399b37	-0.72502464
223	0x3e475c8b	0.19468896
224	0xbea50587	-0.3223078
225	0x3fed3e12	1.8534567
226	0xc0222313	-2.5333908
227	0x3fef0e18	1.8676176
228	0x4005a62e	2.0882678
229	0xc010063f	-2.2503812
230	0x40442e85	3.0653393
231	0x406d3b97	3.706762
232	0xbfb73a93	-1.431475
233	0xbf7d6469	-0.9898134
234	0x3feaa946	1.8332908
235	0xc03bfebc	-2.9374228
236	0x3fb80c73	1.4378799
237	0x3f4f1c26	0.80902326
238	0x40162ba1	2.346413
239	0xc05117c5	-3.2670758
240	0xc047b9bd	-3.1207116
241	0x3fd2523a	1.6431344
242	0x3fa65399	1.2994262
243	0xc0607ce5	-3.507623
244	0xc0041585	-2.0638134
245	0xc05c93e2	-3.446526
246	0xc02b66fe	-2.6781611
247	0xbfd3712d	-1.6518914
248	0x4046f0d7	3.1084497
249	0xbf2d3932	-0.676654
250	0x40083a07	2.1285417
251	0x40654a2e	3.5826526
252	0x3fd5e26b	1.6709722
253	0xc057ae80	-3.3700256
254	0x3fed36e3	1.8532375
255	0x3fb0e962	1.3821223

exp_avg_sq f4 [1000]
0	0x3b230ac3	0.002487824
1	0x3e9a5d65	0.3014938
2	0x360d0c2f	2.101773e-06
3	0x3eaf5174	0.3424183
4	0x3ca79796	0.020458024
5	0x3e280fd3	0.16412286
6	0x3e7425fa	0.23842612
7	0x3e651a0d	0.22373219
8	0x3cdc0bd9	0.026861118
9	0x3d0cd1cf	0.034379777
10	0x3c4677eb	0.012113552
11	0x3c3e3c3c	0.011611041
12	0x3dfeda47	0.12443977
13	0x3e6f847b	0.23390381
14	0x3ace17aa	0.0015723605
15	0x3e1c29aa	0.15250269
16	0x3ebec0da	0.3725651
17	0x3ae3b70f	0.0017373281
18	0x3e2769a9	0.163489
19	0x3d1bf612	0.038076468
20	0x3e2222af	0.15833543
21	0x3e43faab	0.19138591
22	0x3e286922	0.16446355
23	0x3dc00968	0.09376794
24	0x3aca682c	0.0015442423
25	0x3ee41dba	0.4455393
26	0x3e263b81	0.16233636
27	0x3da06cac	0.078332275
28	0x3d5cc70f	0.053900775
29	0x3e7085db	0.23488562
30	0x3e9ec3b6	0.3100869
31	0x3c0de858	0.008661352
32	0x3b08a70f	0.0020851528
33	0x3d400bb8	0.046886176
34	0x3a2cf40e	0.0006597646
35	0x3c692804	0.014230732
36	0x3e93f379	0.28896692
37	0x3cd1c9ae	0.025608864
38	0x3eb0137b	0.34389862
39	0x3e3d1293	0.18464117
40	0x3e4be0b9	0.19909944
41	0x3ed53590	0.41642427
42	0x3cf712e5	0.030160377
43	0x3e24024b	0.160165
44	0x3de41df6	0.11138527
45	0x3c15e5cf	0.009149029
46	0x3e722041	0.23645116
47	0x3daa8cf6	0.083276674
48	0x3eed7903	0.46381387
49	0x3e49210d	0.19641514
50	0x3c7a545d	0.015278903
51	0x3dbfe7ef	0.0937041
52	0x3e4ac8a3	0.198031
53	0x3e86a844	0.2630025
54	0x3ec5053b	0.38480553
55	0x3b3d2024	0.0028858269
56	0x3eab8e61	0.33507064
57	0x3d91cd1b	0.07119199
58	0x3eb4cc4e	0.35312122
59	0x3d619ed5	0.055083115
60	0x3e17bb79	0.14817609
61	0x3ebc77fd	0.36810294
62	0x3da9f308	0.08298308
63	0x3eebd82f	0.46063372
64	0x3daa9f56	0.08331172
65	0x3e4f5475	0.20247062
66	0x3badcc78	0.0053039156
67	0x3ee2aef8	0.44274116
68	0x3d95995b	0.07304641
69	0x3e89cc9a	0.2691391
70	0x3cd43ecd	0.025908852
71	0x3b697d77	0.0035627761
72	0x3df3aa6a	0.11897738
73	0x3e4a8b6d	0.19779749
74	0x3ef50b53	0.47860202
75	0x3efd4776	0.49468583
76	0x3eeac64e	0.4585442
77	0x3ccd1e4e	0.025038864
78	0x3ea9b85d	0.3314847
79	0x3b708acd	0.0036703825
80	0x3d8f34f8	0.06992525
81	0x3e87f8da	0.26557046
82	0x3d80afd7	0.06283539
83	0x3b9ba569	0.004749943
84	0x3d9cab4d	0.076498605
85	0x3e7c22ac	0.24622601
86	0x3db9807b	0.09057709
87	0x3b234273	0.0024911433
88	0x3a8eefb7	0.0010905181
89	0x3e4594be	0.19295022
90	0x3d7ca691	0.061682288
91	0x3e54a612	0.20766476
92	0x3d9d0e14	0.07668701
93	0x3e41c14c	0.18921393
94	0x3d991539	0.07474751
95	0x3cc6d497	0.024271293
96	0x385b1bd1	5.2239575e-05
97	0x3ed71d78	0.4201467
98	0x36e3eac5	6.792458e-06
99	0x3b74b6b9	0.0037340357
100	0x3b36cedf	0.00278943
101	0x3c8ee6eb	0.017444095
102	0x3e9ddf4d	0.30834427
103	0x3e89f157	0.2694194
104	0x3e67a8be	0.22622964
105	0x3dd4c34c	0.103888124
106	0x3e9c30ff	0.3050613
107	0x3eb89bac	0.36056268
108	0x3d3162bd	0.043307055
109	0x37a28fe9	1.9378918e-05
110	0x3dd69c76	0.10479061
111	0x3eee0e9a	0.46495515
112	0x3d919c86	0.071099326
113	0x3d55d2bb	0.05220292
114	0x3edaeba2	0.427579
115	0x3ef190f7	0.47180912
116	0x3bd0b269	0.0063689244
117	0x3e83400e	0.25634807
118	0x3ec3b865	0.3822662
119	0x3d902994	0.070391804
120	0x3c31a4b4	0.010842491
121	0x3ed2dbce	0.41183323
122	0x3e60af95	0.21941979
123	0x3aac2cad	0.0013135873
124	0x3ee35db5	0.4440743
125	0x3c0354ea	0.008015851
126	0x3e51bf27	0.20483075
127	0x3e72a193	0.23694448
128	0x3d964785	0.0733786
129	0x3e96458b	0.29349932
130	0x3e91941a	0.28433305
131	0x3e228c91	0.15873934
132	0x3c7709a2	0.01507798
133	0x3ed3db52	0.41378266
134	0x3d05364c	0.032522485
135	0x3de6a3e3	0.11261728
136	0x3b47e91e	0.003050394
137	0x35c0f830	1.4377347e-06
138	0x3e937f6b	0.2880815
139	0x3efe2dec	0.4964441
140	0x3acee0cb	0.0015783546
141	0x3dc03deb	0.0938681
142	0x3e16f3bd	0.14741416
143	0x3e001278	0.12507045
144	0x3de6c7df	0.11268591
145	0x3eeae4f6	0.45877808
146	0x3cce87c4	0.025211222
147	0x3e98123f	0.2970142
148	0x3df4fa55	0.119618095
149	0x3eba41b0	0.3637824
150	0x3e3da1f3	0.1851881
151	0x3ee52a9a	0.44759065
152	0x3eb3e1ec	0.35133302
153	0x37a28199	1.9372254e-05
154	0x3e9db461	0.3080168
155	0x3ebadbeb	0.3649591
156	0x3dc398db	0.09550639
157	0x3ec4d266	0.3844177
158	0x3c429d12	0.011878269
159	0x3da7d6da	0.081952766
160	0x3eeccce6	0.46250075
161	0x3d3c4eca	0.045973577
162	0x3dffd2a9	0.12491352
163	0x3eb503cf	0.35354468
164	0x3da88aae	0.08229576
165	0x3e86baef	0.26314494
166	0x3c327293	0.010891574
167	0x37189e00	9.096693e-06
168	0x3da4d849	0.080490656
169	0x3e22f352	0.15913132
170	0x3d528895	0.051399786
171	0x3e9dd3b9	0.30825594
172	0x3e81f23f	0.25380132
173	0x3e8042fa	0.250511
174	0x3d34db38	0.044154376
175	0x37fe77b6	3.0334904e-05
176	0x3d0ac06f	0.033874925
177	0x391a60a5	0.00014722587
178	0x3cd51cc3	0.026014691
179	0x3e38558c	0.18001384
180	0x3c61d721	0.013784201
181	0x3d9df82f	0.07713353
182	0x3ea5f3a3	0.32412443
183	0x3ef28d03	0.47373208
184	0x3e4c8cea	0.1997563
185	0x3ea84c6a	0.328708
186	0x3c6b1c2a	0.014349977
187	0x3e9a2967	0.30109712
188	0x3ec3f79b	0.38274845
189	0x3ec13660	0.37736797
190	0x39db94b7	0.00041881736
191	0x3e2c7b21	0.16843845
192	0x3dbec62a	0.093151405
193	0x3eaab395	0.33340135
194	0x38f297a7	0.00011567707
195	0x3e6391a1	0.22223522
196	0x3e5c8410	0.21534753
197	0x3d61eb3a	0.05515597
198	0x3e053427	0.13008176
199	0x3ce06d70	0.027395934
200	0x3db0ffe7	0.086425595
201	0x3ece93fe	0.40347284
202	0x3edcff53	0.43163547
203	0x3ed3807d	0.41308966
204	0x3e5c6568	0.21523058
205	0x3da74f3c	0.0816941
206	0x3e4c724f	0.1996548
207	0x3eeb9d79	0.4601858
208	0x3b309d98	0.0026949402
209	0x3e5dab4b	0.21647374
210	0x3dc29624	0.09501293
211	0x3e18245a	0.14857617
212	0x3da27c6e	0.07933889
213	0x3ec1faff	0.37886807
214	0x3ede355d	0.43400088
215	0x3ef8da4b	0.48604044
216	0x3db5fa12	0.08885588
217	0x3df23dcd	0.11828194
218	0x3e419ee1	0.18908264
219	0x3ce36ad2	0.027760897
220	0x3e89fc40	0.26950264
221	0x3c0e03c4	0.00866789
222	0x3ca1924b	0.019723078
223	0x3ae88264	0.0017739055
224	0x3b8d6c3a	0.00431588
225	0x3dfb8d03	0.12282755
226	0x3e6889de	0.22708842
227	0x3dff47c6	0.124648616
228	0x3e1e9c78	0.15489376
229	0x3e380981	0.17972375
230	0x3ea99fcf	0.33129737
231	0x3ef716a5	0.48259464
232	0x3d973bec	0.07384476
233	0x3d1346ca	0.03595618
234	0x3df64a90	0.120259404
235	0x3e9bccdb	0.3042973
236	0x3d983fae	0.07434021
237	0x3cc7a126	0.024368834
238	0x3e47a342	0.19495872
239	0x3ec054f7	0.37564823
240	0x3eafa334	0.34304202
241	0x3dc68f09	0.096952505
242	0x3d7ad663	0.06123961
243	0x3edd6a38	0.432451
244	0x3e1b29af	0.1515262
245	0x3ed5d591	0.417645
246	0x3e81c515	0.25345674
247	0x3dc843ee	0.097785816
248	0x3eae4af2	0.34041554
249	0x3c8da0f3	0.01728866
250	0x3e24f31d	0.16108365
251	0x3ee6b30a	0.4505847
252	0x3dcc84b2	0.09986247
253	0x3ecc8748	0.3994696
254	0x3dfb2717	0.12263315
255	0x3d8d4103	0.068971656
