DL/AI_Deep_Dive/Regularization/model_save/best_L2C1000_l1.pt (torch, 42485 bytes, 9 tensors)

weight f4 [1000, 1]
00000000: 267f 6bb9 eb36 013f a395 4abf 0d49 34bf
00000010: 01f8 b4be 90cf 783e 3092 89b8 f63b 433f
00000020: 27a7 69bd ac80 6e3e a553 8cbe 472b 31be
00000030: bd73 6dbf df6d 21bf f5d3 c2be 0648 d53b
00000040: 01b6 ba3e 2580 163f 1970 25bf bc8c d5be
00000050: 4e96 b03e 3a9c 4d3f 4e47 32be 5554 393f
00000060: 4697 04be 30c9 973d 5763 623f 0f5c 65bf
00000070: f30b 19bf 914e 70be d63a babe e736 5b3f
00000080: a7d1 1dbf cd75 dbbe a7bc 2abf 03a5 67bf
00000090: 9152 0dbf f106 563f c93b d43e 0948 e83e
000000a0: e624 ab3c eb3b f6be c6c8 0c3e 2be9 66bf
000000b0: 7824 32bf c8d2 f7be bf77 1e3f 00b0 0f3f
000000c0: d5d6 d2be df6e 3ebc ae2d 1e3f 01d8 793f
000000d0: a16b bb3e 855d de3d 8b87 233f 4d9e 0ebf
000000e0: 0eae 353e 6b7f 3fbf 43ab 2ebf b142 f8be
000000f0: 996f d73e f5ae c43e 7c76 0fbf e20a 8f3e
00000100: 1f81 043f 5f92 c1bd 9663 d43b 06ce 4c3e
00000110: 9c86 193f 6db9 6f3f e836 3dbf f966 abbe
00000120: fc3c bf3e f408 4e3f a66c 5c3f afc4 593f
00000130: 7e54 2b3e 857f 56bf 40d1 893d 390a 18bf
00000140: a774 66bf f290 5c3f 31e7 3d3f 8b40 77bf
00000150: 0c95 203e 9ee5 0bbe 731f 17be 2924 dabe
00000160: 5e78 b93e c183 0fbf e976 ab3e 7379 f93e
00000170: ff73 343f 5b91 b53e d741 75bf 8df3 1dbf
00000180: 2541 f63e 1edd 353e 2396 3fbf 754b 0bbf
00000190: 0083 6c3f 7c91 243f 95c1 cebe 58f0 65be
000001a0: 05c0 6bbf 2cf6 cbba 05ab 38bf 2f5a 3dbf
000001b0: a70a 1abd a018 0d3e 0173 c1be 25ca 0f3f
000001c0: c5ab 13bf 761f 663f 5d52 273f f1c3 4fbf
000001d0: f705 63be ccea 5b3c 3ce2 e93d d667 523e
000001e0: 320c b93e 2e04 e73c d996 e9be d870 e23e
000001f0: e373 6dbf 2d9e 0fbf 7ee0 5fbe f92b e9be
00000200: 5a23 aabe 47b5 49bf 065c 39be ae9c 3b3e
00000210: 02b5 1ebf 28e3 d3bc 3cbd 313f 109d 91bd
00000220: 4b82 11bb c983 5fbd a1d9 453e eda8 1a3f
00000230: e324 6d3f 4d98 203f ae65 6d3f 0263 26bd
00000240: c1f4 5dbf 4d7f e2be 4fe7 263f a023 ecb7
00000250: 8e50 fabe 8f0f 3cbf a076 69bf 79f3 4fbf
00000260: 763e 2fbe debb 043f d092 043f 8fc7 6ebf
00000270: 6ee6 173f 1c61 46bf f605 38be 6e8b c2be
00000280: f6c6 24be 1698 28be 479b 5dbf 55e5 55bf
00000290: cb1c 16be 805b 5238 0d7c d8be 2b09 b13e
000002a0: c74c 5ebf bd95 12bd 2200 5c3f 9145 c8be
000002b0: 3a26 623f 4531 a93e 3bea 5ebf bf44 1e3f
000002c0: bbbd c4bd 7d54 d4be 8d24 463f e1c1 46bf
000002d0: d0d6 9a3d c6ee 35be de6c 333f 2a62 7d3e
000002e0: d9c9 e53e 4d96 a43e 06c9 55be 9a90 3bbe
000002f0: 0dbf 4cbf d998 023f 73be 443f f6c0 293f
00000300: 4267 2cbf c3b0 9f3c 1d59 2cbf 15cf 04bf
00000310: 94ee 0cbf 41be 9e3e 0b5e 10bf 483f 083b
00000320: e841 e23c ddb2 1f3f bf2d 3dbf d1a1 27bf
00000330: c988 0cbf e2be 2f3f d9d0 a7be c6fc 4f3f
00000340: ac0d ae3e 9f68 c23d 269f 3eb9 0ef7 29be
00000350: cbd3 ea3d 365d 49be 2bb8 003a 9e63 c43d
00000360: 3c94 41bf a402 00bf 0ebb 473f 25a8 47bf
00000370: ff5c 62bd 5635 773f 2537 a93e f63a c0ba
00000380: b3bc 55bf 990f f43e 953a 2ebf a084 8bbe
00000390: b5fd a3be 7c5c eebd f075 aa3a 296b 4b3f
000003a0: a0bf be3d 7ab0 5d3f 984a 183f 53bb 19bf
000003b0: 6bd9 e13e 4ff5 2cbf a72e d1be 4d5c 863e
000003c0: fdd3 983e f631 3b3f c220 a0be 450e 1cb9
000003d0: 015c f73e e775 6fbf cff7 303f bd93 4bbf
000003e0: 2d99 fa39 e6a2 0dbe 585b fdbe 3cf5 fe3d
000003f0: 9839 513f f56f 85be 15cc 0fbf 995b adbe
-0.00022458713 0.50474423 -0.7913458 -0.70423967 -0.35345462 0.24297929 -6.5598986e-05 0.7626337
-0.057044175 0.23291272 -0.27407566 -0.17301665 -0.9275473 -0.63058275 -0.38052335 0.00650883
0.36466983 0.58789283 -0.6462417 -0.41708934 0.34489673 0.8031651 -0.17410013 0.72394305
-0.12948331 0.0741142 0.8843283 -0.89593595 -0.5978386 -0.2346747 -0.36373013 0.8563065
-0.6164803 -0.42863312 -0.6669411 -0.9048616 -0.5520411 0.8360434 0.41451862 0.45367458
0.020891618 -0.4809259 0.13748464 -0.90199536 -0.69586897 -0.48403 0.6190147 0.5612793
-0.4117953 -0.011623113 0.6178845 0.9759522 0.36605552 0.10857681 0.638787 -0.557103
0.17742178 -0.748038 -0.68230075 -0.48488382 0.4207733 0.38414732 -0.5604017 0.2793799
0.51759523 -0.09451746 0.006481598 0.20000467 0.5997102 0.9364231 -0.73911905 -0.33477
0.37351215 0.8048241 0.86103284 0.8506574 0.1673145 -0.8378833 0.067293644 -0.593906
-0.9002175 0.8615867 0.74180895 -0.9658286 0.15681857 -0.13661811 -0.1475809 -0.42605713
0.36224645 -0.56060416 0.3348916 0.4872547 0.70489496 0.3546246 -0.9580359 -0.61699754
0.48096576 0.17760131 -0.74838465 -0.54412013 0.9238739 0.6428449 -0.40382066 -0.22454965
-0.92089874 -0.0015561036 -0.72135955 -0.73965734 -0.037607815 0.13778925 -0.37783054 0.56167823
-0.57683975 0.89891756 0.6536005 -0.8115836 -0.22170244 0.013422679 0.11420104 0.20547423
0.36142117 0.028200235 -0.456229 0.44226718 -0.92754954 -0.5610073 -0.2186298 -0.4554136
-0.33230096 -0.7879223 -0.1810151 0.18321487 -0.61994946 -0.025865152 0.69429374 -0.071100354
-0.0022202905 -0.05456904 0.193213 0.6041401 0.9263441 0.6273239 0.92733276 -0.040621765
-0.8670159 -0.44237748 0.651967 -2.8149982e-05 -0.48889583 -0.7346124 -0.9119663 -0.81230885
-0.1711367 0.5184916 0.5178652 -0.9327325 0.5933598 -0.7749193 -0.17971024 -0.37997
-0.16091523 -0.16464266 -0.8656506 -0.8355306 -0.14659421 5.0153118e-05 -0.42282143 0.34577307
-0.868359 -0.035787333 0.859377 -0.39115575 0.8833958 0.33045402 -0.8707616 0.6182365
-0.09606501 -0.4147071 0.7739952 -0.77639586 0.075605035 -0.17766866 0.70087993 0.24744478
0.4488056 0.3214592 -0.20877466 -0.1831688 -0.7997902 0.51014477 0.768531 0.6631006
-0.6734506 0.019493466 -0.67323476 -0.5187848 -0.5505154 0.31004527 -0.563935 0.0020789672
0.027619317 0.623823 -0.7389793 -0.6548129 -0.5489622 0.6865064 -0.32776526 0.81245077
0.33994806 0.09492611 -0.000181791 -0.1659815 0.114661776 -0.19664463 0.00049102557 0.09589313
-0.7561681 -0.5000403 0.780198 -0.77990943 -0.05526447 0.9656576 0.33049884 -0.0014666009
-0.8349106 0.4766815 -0.6805814 -0.27249622 -0.320295 -0.11638734 0.0013005119 0.7946039
0.09313893 0.86597407 0.5948882 -0.6005146 0.4411119 -0.6756181 -0.40855905 0.26242295
0.29849234 0.7312311 -0.31274992 -0.00014882635 0.4831238 -0.9353928 0.69128126 -0.79522306
0.0004779784 -0.13831672 -0.49483752 0.124491185 0.81728506 -0.2606198 -0.5617078 -0.33858946

bias f4 [1000]
00000000: 6b63 5abd b988 3fbf c029 d6b9 5560 4cbf
00000010: 46d5 3bbe 348d 0f3f 07e5 29bf 895e 25bf
00000020: 6e93 59be b240 78be d7b4 1d3e ca99 1d3e
00000030: 3949 fc3e 073d 28bf 8137 1fbd 56ad 093f
00000040: c0dc 553f acee 6ebd 0103 0cbf f006 8b3e
00000050: cde8 0e3f 55ba 19bf a970 0cbf 3f43 d93e
00000060: c025 1dbd 37ad 69bf ff0a 0ebf 7ef7 c13e
00000070: 7d6d 9dbe 8113 2f3f c82f 443f 5a18 113e
00000080: 290c 42bd dd4a 92be a58c 9abc 1eaa 1b3e
00000090: 4b6e 3bbf 2577 67be 75d3 4cbf 4268 153f
000000a0: 41ea 1abf 5712 623f bd81 67be 818a 0abf
000000b0: cb34 f03e 0d1f f23d d5a3 2f3f 4c37 cc3e
000000c0: f77f 6ebf 8311 1c3f d132 36be b5cc d8be
000000d0: f33c 1c3f 9e59 353f 27e4 58bf 0588 70bd
000000e0: cf13 513f c364 bf3e 6098 543f 413b 9fbe
000000f0: fd1a 05bf 205c 593f 094c c63e 3dfa 713f
00000100: e2a8 c6be 0b41 1cbf 7021 afbd efed 68bf
00000110: 20d9 c13e cc81 383f 1ca1 563e 606f 89bd
00000120: 5993 f73e 0646 1cbf b73d 793f db6f 76bf
00000130: 731e 6dbf 1683 51be bef6 4c3f 6985 903d
00000140: b38c b63e 55b3 35bf 5fdd b43e e0ed a3bd
00000150: 4b6a be3e fc03 2d3f 0e1e d63e 8b94 5abd
00000160: 5d5b 5dbd 6f71 18bf 11f6 a8be 0374 233f
00000170: ca7d c3be 70e5 1b3f 49cb babe 0e07 4ebe
00000180: d834 273c adce 62bf c076 2d3a 2082 8dbd
00000190: 6198 b4bd ce0e 30be 1b27 423f ae82 363f
000001a0: 0d64 25bf c379 eb3e d9af 40bf bfd2 51bf
000001b0: 63b3 993e 9be2 033c f99e debe 45cc 6ebf
000001c0: c1fb b5be 6dd9 a83e c5d6 64bf 8394 70bf
000001d0: 9afd de3d f54e 30bf 5929 58bf 4909 b5be
000001e0: 5dd5 03be 7583 60bf c1d2 22bf 46d0 113d
000001f0: 2549 69bf 11ef debd 532f 1dbf 8d5a 29bf
00000200: 5565 c63e efec 3cbf f9e3 39bf 9575 0c3f
00000210: 24c6 2b3e 4c8a 653f 309d 83be cd12 e7be
00000220: 423a 79bd 0af8 4038 470c 423f a5e1 76bf
00000230: c823 86bd ce89 e03e 020f 0bbf 15f0 f3be
00000240: 9758 ed3e 2d2e 6dbf eaa4 603e a313 3ebf
00000250: bb32 f93e 7bc6 52bf 339a 1b3f 1139 6abf
00000260: ef11 4fbf 312c 08bb 43f1 453f 4b1f 53bf
00000270: 2b41 d6be 8147 5e3f e642 0bbe b2fc c73e
00000280: 1128 6ebf b1c8 90be a1c7 f3be 1717 533f
00000290: f6a5 ce3e 93ae 32bf 6242 073e 8039 ad36
000002a0: 9522 c2be a114 0abf 9593 a5be b59d 453f
000002b0: b645 32bf af3e 2ebf 45bb 8dbe 808c 183c
000002c0: 74bd 873e f72d 9fba 72ae 65be 511c 13bf
000002d0: 3647 17be 85e0 bdbe dcf9 4c3f eb13 71bf
000002e0: 472d 1bbf ff29 48bf 9eae 1abe 022e 433f
000002f0: 582f 5d3f 43bf 56bf b9d6 fabc bfd3 123f
00000300: 04d3 d33e 84e8 4c3f 202c 153b b7e3 23bf
00000310: f5b4 213f 8d57 9fbe 2d2b fa3e dee3 5bbe
00000320: 237f d53e 79cc 623f 29c0 6c3f 93dc 60bf
00000330: 5339 21bf 553c c9be ed22 1bbf ede7 6d3f
00000340: 4510 a6bd 3db3 21bf b59a d3be 514a 05bf
00000350: 9eff cd3e 672e 57bf 8594 66bf 653d 74bf
00000360: f70e d63e 17a8 f13e 3ac7 18bf f52b 673e
00000370: f1c4 3b3f d7c1 033e 7ba5 37be 0fc1 3b3d
00000380: 50ae 9abd eedf fb3e 3db6 25bf 5849 fd3e
00000390: c156 0f3f 27fd 12bf 507e 4c3f bd1e 743f
000003a0: 659d b9be 877f 81be d403 fa3e cb70 40bf
000003b0: 93a0 c83e 3d8f 593e 2168 203f 913f 56bf
000003c0: dd90 4cbf 46e7 df3e b1ce b23e 3f29 66bf
000003d0: 53a5 06bf 951e 62bf 0b4a 2fbf b1c8 d6be
000003e0: 2718 4c3f 065e 2bbe 8d33 0b3f e826 723f
000003f0: 00d1 e63e 0f0f 5dbf cd22 f23e 1eca b33e
-0.05331747 -0.74818 -0.00040848367 -0.7983449 -0.18343076 0.56074834 -0.66365093 -0.64597374
-0.21247646 -0.2424343 0.15401016 0.15390697 0.49274614 -0.6571812 -0.038871292 0.53780115
0.8353996 -0.058333084 -0.54692084 0.2715373 0.55823976 -0.60049945 -0.54859406 0.42434117
-0.03836608 -0.9127993 -0.5548553 0.37884134 -0.30747595 0.68389136 0.7663541 0.14169446
-0.047374878 -0.2857274 -0.018865893 0.15201613 -0.7321517 -0.22604044 -0.8001016 0.5836221
-0.60513693 0.88309234 -0.22608085 -0.5411759 0.46915278 0.11822329 0.6860936 0.39885938
-0.9316401 0.6096422 -0.17792822 -0.4234368 0.610305 0.7083987 -0.8472313 -0.05872347
0.8167085 0.37381563 0.83045006 -0.31099895 -0.51994306 0.84906197 0.38729885 0.9452246
-0.38800722 -0.6103675 -0.085512996 -0.9098806 0.37860966 0.72073054 0.20959896 -0.06710696
0.48354605 -0.6104435 0.97359794 -0.9626443 -0.92624587 -0.20460162 0.80064 0.07056696
0.3565422 -0.70976764 0.35325143 -0.080043554 0.3719047 0.67584205 0.41819805 -0.053364318
-0.05404221 -0.59548086 -0.33000234 0.63848895 -0.38181907 0.6089697 -0.3648322 -0.20119879
0.01020547 -0.8859661 0.00066171214 -0.06909585 -0.088181265 -0.17193148 0.7584092 0.7129315
-0.6460579 0.45991334 -0.7526832 -0.819622 0.30019674 0.008049632 -0.43480662 -0.9328044
-0.35543635 0.32978383 -0.8939021 -0.9397661 0.108882144 -0.6887048 -0.8443809 -0.35358647
-0.1287436 -0.8770059 -0.63602835 0.035599016 -0.91127235 -0.10885442 -0.61400336 -0.66153795
0.38749185 -0.7379903 -0.72613484 0.54866916 0.16774803 0.8966415 -0.25705862 -0.4513153
-0.060846575 4.600737e-05 0.75799984 -0.96438056 -0.065497935 0.43855137 -0.54319775 -0.47644106
0.4635665 -0.92648584 0.2193791 -0.74248713 0.48671517 -0.8233411 0.60782164 -0.91493326
-0.8088674 -0.0020778293 0.7732126 -0.82469624 -0.41846594 0.86827856 -0.13599738 0.3905998
-0.93029886 -0.28278115 -0.47613242 0.8245711 0.40360993 -0.6979763 0.13208917 5.1624957e-06
-0.3791701 -0.5393773 -0.3233916 0.77193767 -0.6963762 -0.680644 -0.27681938 0.009310842
0.2651173 -0.0012144436 -0.22429827 -0.5746508 -0.14773259 -0.37085357 0.80068755 -0.9417102
-0.6061596 -0.7818908 -0.15105674 0.7624208 0.86400366 -0.8388559 -0.030619966 0.5735435
0.4137193 0.8004229 0.0022761896 -0.6401934 0.63166744 -0.31121483 0.48861066 -0.21473643
0.4169856 0.8859325 0.92480713 -0.8783657 -0.62978095 -0.39303842 -0.6060017 0.92932016
-0.08108572 -0.6316412 -0.4132897 -0.5206652 0.40234083 -0.8405518 -0.9007037 -0.9540618
0.41808292 0.47198555 -0.59678996 0.22575362 0.73347384 0.12866913 -0.1793422 0.045838412
-0.07552779 0.49194282 -0.647312 0.4947002 0.5599175 -0.5741753 0.7988024 0.953594
-0.36252895 -0.25292608 0.48831046 -0.7517211 0.39185008 0.21246047 0.6265889 -0.83690745
-0.79908544 0.43731135 0.34923318 -0.89906687 -0.52596015 -0.88327914 -0.68472356 -0.4194999
0.79724354 -0.16735086 0.54375535 0.94590616 0.4508133 -0.863511 0.47292176 0.3511514

weight f4 [1, 1000]
00000000: dafd 433a 2002 d138 24c8 9738 76e2 683a
00000010: 181b 42b8 3c51 1abc 0cc3 8039 06fc e5ba
00000020: 2d7c 91ba c2a2 d0ba 5039 a8bc dc5e 433c
00000030: 50ec c7bc 9e59 8539 d01c edba 75ca d03b
00000040: ea46 9438 eca5 c33c c16f 1f3b 1771 afbc
00000050: 7cd7 bebc af11 31bc eed6 16b8 fb02 28bc
00000060: b6a9 f7b9 bf3c 6ab9 ddc0 b93c 46eb 81bc
00000070: 068c e3b9 9ab5 bb3c 93ae b2bb 766d 0c3d
00000080: 6015 46ba 4400 3a39 a644 71b9 cdac 363a
00000090: a5d8 a339 29d9 3ebc 3ab4 bbb9 ce0f a53a
000000a0: 75ff 81b9 2f58 973a 8085 f7ba 9838 32ba
000000b0: 95ff 483c 2610 6abb 2cd9 c33c 1ba8 16bc
000000c0: a947 8bba c72c c4bb 9383 73bc 93bf 873c
000000d0: 7044 c83b e84c f6bb e305 4db9 ffd2 7b38
000000e0: a821 f53c d545 be3c a8f3 b7bc 97d7 75b9
000000f0: 4141 d539 77b5 773c 2b5d 91bb c099 313c
00000100: 6848 2fbb 55e2 40ba 8614 9e3a c896 9aba
00000110: 10b8 8cbc 1e22 3cbc 2ca1 20bb abe3 f1b9
00000120: c404 a5bc a00d 493c fc9d f33c 6582 3fba
00000130: 004a 103a 3615 4aba db55 1b3c c33a 65bc
00000140: b77c 71bc 02c9 72bb f866 b5bc 449a 0cbb
00000150: 185b f5b9 dfd7 b83a 1a97 50bc a023 f3ba
00000160: e4d5 42bc 408c c038 83a9 303b daa5 bbbc
00000170: d51d e73c ac73 aabc 319b 8739 c862 163a
00000180: 4c28 7e3c 08a5 30ba 28b2 073b 19d4 13bb
00000190: 9e56 d6bc 1ace c83b f558 e8b9 8410 95bb
000001a0: d101 87ba 9baf ed3c 7b75 103a 566e a9b9
000001b0: 38b6 cf3c 0327 b33c a0f1 ef38 c6a1 e2b9
000001c0: 100b 4eb7 d9d2 023d cb54 43b8 e495 a5b9
000001d0: 0598 c3bc ac15 80ba cbbe 16bb b0ef cbb9
000001e0: 808b 76b8 4243 053a 6a86 cc39 282c f53a
000001f0: e851 fd38 39d7 8d3a 8c4d 2cbb 30c0 e338
00000200: 1d79 c33c e1e3 1c3b 3691 c7b9 87d1 d83b
00000210: 86c3 f6bc 7831 363c 40cb 73bc f2bd 483a
00000220: f491 35bb 80f8 303b 3438 f03c dab6 7a3a
00000230: b120 7ebc 56f4 093d 8303 b6bc ae30 a93a
00000240: a415 8ebc 1591 1b39 b1c2 193c d047 ea39
00000250: bc52 e7bc b0c3 9e38 deab ab3c 2429 00bb
00000260: 1937 7f3a 6a83 0e3c a7a7 343c 984a fc3a
00000270: a53b aa3b 28f3 f3bc fe5e 97ba e137 d1bb
00000280: 4659 fbba 8860 6a39 79f7 b3ba a59d be3b
00000290: acff bdbc 9c1f 473a de36 9aba f98b fe3a
000002a0: 7931 3eb9 eb79 dcb9 0708 97bc d654 5cbc
000002b0: 5a98 a93c 207b c539 b4e7 6fb8 9917 a83c
000002c0: 5a57 a63c 04c4 0ab9 2f6d 00bc ae0a b1b8
000002d0: 4e19 b3b9 06c1 0839 29b2 b13c 24dc 283b
000002e0: 0493 aaba f4e7 0fbb 9b21 183a a093 0c3c
000002f0: 5ee3 343c 2637 5cb9 14b3 eabb d1e1 4b3c
00000300: 0e91 20bc a91d 22bc 4852 92b7 50c0 5239
00000310: 367a a9ba 3d71 9c3a 1793 71bb d108 4bba
00000320: 7050 9c3c 264c 8ebc 2879 d73c 1045 4f3a
00000330: 34f3 0d3b b7d7 b33c b0e3 df39 1e34 c83a
00000340: 5f1e 5bbc 030a 383b c68e afb8 75a5 92ba
00000350: d3dc d03c 1546 253b 5ebb 0abb d68b 2fba
00000360: 5fec bd3c 93e4 fdbb 3704 17bc 5f27 cbbc
00000370: 0e48 eb3c eb75 32bc fe68 4fba 069d 4939
00000380: 5d1d f739 421c b5bc 7bd0 3bbb 8eca a9bc
00000390: a24a 053d 6235 15ba 7204 34bc b827 47ba
000003a0: 9a38 3dba 8ca9 2eba 565e e2bc 30b1 d8ba
000003b0: ef81 0d3d f669 d53b 221a 043d a885 06ba
000003c0: bfde ceb8 89ec acbc c748 cfbc 82bc 533a
000003d0: 9cfc 533a 3c0d 4f39 8ec5 95ba 809c e635
000003e0: 9266 103b 777a 093a c06f 00b7 f15c 083d
000003f0: ea4e ec3c 3c66 11bb 7cfb 23bb fd8f 1c3a
0.00074764865 9.9662924e-05 7.23752e-05 0.0008883843 -4.6278437e-05 -0.009418782 0.00024559384 -0.0017546422
-0.0011099629 -0.0015917646 -0.020535141 0.011924472 -0.024404675 0.00025434507 -0.0018090252 0.006371791
7.070399e-05 0.023882829 0.0024328085 -0.02141623 -0.02329611 -0.010807439 -3.5962956e-05 -0.010254617
-0.00047237956 -0.00022338609 0.022674972 -0.015859257 -0.0004340114 0.022913743 -0.00545294 0.034284078
-0.0007556286 0.00017738441 -0.00023009125 0.00069684983 0.00031251195 -0.011648455 -0.000358017 0.0012593211
-0.00024795128 0.0011546667 -0.0018884391 -0.0006798594 0.012267967 -0.0035715192 0.023907267 -0.009195353
-0.0010626215 -0.005986783 -0.014862913 0.016570842 0.006111674 -0.007516492 -0.00019552516 6.003957e-05
0.029923275 0.023226658 -0.022455052 -0.00023445334 0.00040675144 0.015118948 -0.0044361553 0.0108398795
-0.0026746038 -0.0007357945 0.001206056 -0.0011794204 -0.017177612 -0.011482744 -0.0024510128 -0.00046136728
-0.020143874 0.012271315 0.029738419 -0.0007305502 0.0005504191 -0.0007708849 0.009480919 -0.013991061
-0.014739207 -0.003704608 -0.022143826 -0.0021454254 -0.00046797912 0.001410242 -0.012731338 -0.0018550046
-0.011891816 9.181397e-05 0.0026956506 -0.022906233 0.028212467 -0.02080711 0.00025864833 0.00057367655
0.015512537 -0.0006738459 0.0020705555 -0.002255684 -0.02616435 0.006128085 -0.00044316766 -0.004549088
-0.0010300224 0.0290144 0.000551067 -0.000323164 0.025355443 0.021869188 0.00011441414 -0.0004322661
-1.22811325e-05 0.03193936 -4.6570593e-05 -0.0003158293 -0.0238762 -0.0009772084 -0.0023001905 -0.00038897758
-5.878089e-05 0.00050835696 0.00039010058 0.0018705176 0.00012079236 0.0010821588 -0.0026291339 0.00010860001
0.023861462 0.0023939537 -0.00038064428 0.0066167745 -0.03012253 0.011120193 -0.014880002 0.00076576986
-0.0027705403 0.0027003586 0.029323675 0.000956399 -0.015510724 0.033680283 -0.022218471 0.0012908184
-0.017344303 0.00014835999 0.009384797 0.00044685462 -0.028237693 7.570477e-05 0.020955976 -0.0019555772
0.0009735688 0.008698324 0.0110263 0.0019248305 0.0051950985 -0.029779032 -0.0011548696 -0.006384835
-0.0019176386 0.0002235194 -0.0013730369 0.0058171325 -0.023193203 0.0007595958 -0.0011765619 0.0019420377
-0.00018138242 -0.00042052506 -0.018436445 -0.013447961 0.02070253 0.00037666503 -5.719783e-05 0.020519065
0.020305324 -0.00013233727 -0.007838531 -8.442007e-05 -0.00034160394 0.00013041878 0.021691399 0.002576598
-0.0013013785 -0.0021958323 0.00058033474 0.008580118 0.011040537 -0.0002100138 -0.007162461 0.012443976
-0.009800209 -0.009894767 -1.7442871e-05 0.00020098803 -0.0012930098 0.0011935603 -0.0036861354 -0.0007745149
0.019081324 -0.017370295 0.026302889 0.00079067145 0.0021659853 0.021953447 0.00042703515 0.0015274321
-0.01337394 0.002808214 -8.371244e-05 -0.0011188226 0.025495922 0.0025218774 -0.0021168808 -0.00066965574
0.023184 -0.0077481954 -0.0092173135 -0.024799047 0.028720882 -0.010892372 -0.00079120684 0.0001922735
0.0004713339 -0.022108201 -0.00286582 -0.020726468 0.03254188 -0.00056918536 -0.010987388 -0.0007597166
-0.0007218212 -0.00066628377 -0.027632874 -0.0016532298 0.034547742 0.0065128757 0.032251485 -0.00051316107
-9.864335e-05 -0.021108883 -0.025303258 0.0008077101 0.0008086653 0.00019745989 -0.0011426674 1.7181883e-06
0.0022033793 0.0005244384 -7.655413e-06 0.03329176 0.028846223 -0.002218618 -0.0025021723 0.00059723837

exp_avg f4 [1000, 1]
00000000: fb77 e03a dec6 9e3b dec6 9ebb dec6 9ebb
00000010: dec6 9ebb 5b16 973b ff38 2b3b 83d5 9c3b
00000020: dec6 9ebb dec6 9e3b 90b2 aebb 7532 8bbb
00000030: 5c59 b1bb dec6 9ebb dec6 9ebb 4742 a83b
00000040: fa75 a13b d09f bb3b dec6 9ebb 342f 96bb
00000050: bef3 873b fe64 8f3b dec6 9ebb 873a 963b
00000060: dec6 9ebb dec6 9e3b 7665 c33b 9e5b 99bb
00000070: dec6 9ebb df35 83bb b334 a2bb bdee c63b
00000080: dec6 9ebb dec6 9ebb dec6 9ebb dec6 9ebb
00000090: dec6 9ebb 258c 903b dec6 9e3b 5cbb a23b
000000a0: dec6 9e3b 000a 9bbb dec6 9e3b dec6 9ebb
000000b0: 9735 a3bb 7f6c 9ebb 8186 bb3b 595f 973b
000000c0: dec6 9ebb f8ba a2bb 91df 8b3b 3f6a b93b
000000d0: c608 a83b 4225 993b dec6 9e3b dec6 9ebb
000000e0: 260f c23b fbb5 8cbb 93d8 b4bb dec6 9ebb
000000f0: dec6 9e3b 3de5 b13b 7150 9cbb d234 ad3b
00000100: 6571 9f3b dec6 9ebb dec6 9e3b dec6 9e3b
00000110: d7aa 8e3b 40e2 943b 8aab 9ebb dec6 9ebb
00000120: 8366 8b3b b767 b53b 33e7 c13b dec6 9e3b
00000130: dec6 9e3b dec6 9ebb b6b1 ab3b dec6 9ebb
00000140: 34c7 99bb 09f9 963b 3f42 893b dec6 9ebb
00000150: a9ce a03b 09b6 9abb 4321 aabb dec6 9ebb
00000160: 678f 943b dec6 9ebb dec6 9e3b 0863 883b
00000170: 0ecc a73b 31ab 8a3b dec6 9ebb dec6 9ebb
00000180: d360 b23b dec6 9e3b dec6 9ebb dec6 9ebb
00000190: 3ef6 843b 4c5f aa3b 24c7 9cbb f731 a1bb
000001a0: dec6 9ebb b703 79bb dec6 9ebb dec6 9ebb
000001b0: 6488 80bb 642a b93b dec6 9ebb dec6 9e3b
000001c0: dec6 9ebb e358 c43b dec6 9e3b dec6 9ebb
000001d0: 69e3 93bb dec6 9e3b dec6 9e3b dec6 9e3b
000001e0: 3596 a13b dec6 9e3b dec6 9ebb 345d a33b
000001f0: dec6 9ebb dec6 9ebb dec6 9ebb dec6 9ebb
00000200: d351 82bb dec6 9ebb dec6 9ebb d98f a83b
00000210: 6282 94bb f00d 90bb b3d4 8b3b dec6 9ebb
00000220: c559 b83a dec6 9ebb d267 c13b dec6 9e3b
00000230: 639a 903b 7738 c63b 2665 9a3b dec6 9ebb
00000240: 94aa abbb dec6 9ebb 79a9 ab3b 49e4 ce3a
00000250: 9636 bbbb dec6 9ebb ea43 a6bb dec6 9ebb
00000260: dec6 9ebb 05e6 aa3b 536e ad3b dec6 9ebb
00000270: 1204 ab3b 2ede bcbb dec6 9ebb 2259 a3bb
00000280: dec6 9ebb dec6 9ebb dec6 9ebb 5914 96bb
00000290: fe8d b5bb 003d e63a 9278 9fbb 9396 a33b
000002a0: dec6 9ebb dec6 9ebb 56be 863b 68f0 aabb
000002b0: d4ee c13b dec6 9e3b dec6 9ebb e8e2 b73b
000002c0: a518 86bb dec6 9ebb 9705 963b dec6 9ebb
000002d0: dec6 9e3b dec6 9ebb e41a b93b dec6 9e3b
000002e0: dec6 9e3b dec6 9e3b dec6 9ebb 5fdc 92bb
000002f0: cf53 90bb dec6 9e3b 34bb 993b 9bff ae3b
00000300: 9f8f a5bb 9c8a 963b dec6 9ebb dec6 9ebb
00000310: d6cb 9dbb dec6 9e3b c246 9cbb c997 da3a
00000320: 472b b63b 8b6e 8e3b 1334 7fbb dec6 9ebb
00000330: dec6 9ebb 7e9f a53b dec6 9ebb d10d a33b
00000340: 785d 923b dec6 9e3b fb77 e03a dec6 9ebb
00000350: 7334 bd3b dec6 9ebb d0cc 563a dec6 9e3b
00000360: 0e78 8abb dfde a4bb 0d3c 913b e570 96bb
00000370: f5a7 79bb f194 953b a157 a03b 69cc 803b
00000380: dec6 9ebb eb43 893b dec6 9ebb 55e4 b2bb
00000390: 4e79 71bb dec6 9ebb 02c7 05bb 2891 a03b
000003a0: dec6 9e3b 3361 a03b 113e 833b dec6 9ebb
000003b0: 3f27 c73b 2513 a2bb e323 72bb dec6 9e3b
000003c0: dec6 9e3b 5661 8a3b 9af6 b7bb 67f5 cf39
000003d0: dec6 9e3b dec6 9ebb dec6 9e3b dec6 9ebb
000003e0: 0e5b 873a dec6 9ebb 9d60 9cbb 44bc c53b
000003f0: 58f3 c03b dec6 9ebb c0cf 9cbb 47d7 9bbb
0.0017125601 0.004845484 -0.004845484 -0.004845484 -0.004845484 0.0046108193 0.0026126502 0.004786195
-0.004845484 0.004845484 -0.005331345 -0.0042479583 -0.005412264 -0.004845484 -0.004845484 0.005134854
0.004927394 0.0057258382 -0.004845484 -0.004583264 0.0041489294 0.004376053 -0.004845484 0.0045846137
-0.004845484 0.004845484 0.005963023 -0.004680111 -0.004845484 -0.0040042247 -0.00495013 0.0060709403
-0.004845484 -0.004845484 -0.004845484 -0.004845484 -0.004845484 0.004411238 0.004845484 0.0049661826
0.004845484 -0.0047314167 0.004845484 -0.004845484 -0.0049807536 -0.004834711 0.005722821 0.0046195206
-0.004845484 -0.004966136 0.0042685946 0.0056584175 0.005127999 0.004673631 0.004845484 -0.004845484
0.005922216 -0.0042941547 -0.0055189817 -0.004845484 0.004845484 0.0054289387 -0.0047703316 0.0052858377
0.0048658126 -0.004845484 0.004845484 0.004845484 0.004353862 0.0045435727 -0.0048422264 -0.004845484
0.0042541637 0.0055360454 0.0059174537 0.004845484 0.004845484 -0.004845484 0.0052396907 -0.004845484
-0.0046929363 0.004607324 0.0041888054 -0.004845484 0.0049074483 -0.0047214073 -0.0051919534 -0.004845484
0.0045336965 -0.004845484 0.004845484 0.004162196 0.0051207608 0.0042318334 -0.004845484 -0.004845484
0.0054436713 0.004845484 -0.004845484 -0.004845484 0.0040576747 0.0051993486 -0.0047844816 -0.0049192864
-0.004845484 -0.00379966 -0.004845484 -0.004845484 -0.003922509 0.0056508053 -0.004845484 0.004845484
-0.004845484 0.0059920414 0.004845484 -0.004845484 -0.0045131934 0.004845484 0.004845484 0.004845484
0.004931236 0.004845484 -0.004845484 0.004985476 -0.004845484 -0.004845484 -0.004845484 -0.004845484
-0.0039770394 -0.004845484 -0.004845484 0.005144101 -0.0045321444 -0.0043961927 0.004267299 -0.004845484
0.0014064839 -0.004845484 0.005902269 0.004845484 0.0044129356 0.0060492116 0.004711765 -0.004845484
-0.0052388404 -0.004845484 0.0052387086 0.0015784587 -0.0057132943 -0.004845484 -0.005074014 -0.004845484
-0.004845484 0.0052154087 0.0052926927 -0.004845484 0.005218991 -0.0057637906 -0.004845484 -0.0049849907
-0.004845484 -0.004845484 -0.004845484 -0.0045800623 -0.0055406084 0.0017565787 -0.004866668 0.004992315
-0.004845484 -0.004845484 0.0041120453 -0.005216647 0.005918363 0.004845484 -0.004845484 0.005611766
-0.0040922933 -0.004845484 0.004578303 -0.004845484 0.004845484 -0.004845484 0.0056489576 0.004845484
0.004845484 0.004845484 -0.004845484 -0.0044818367 -0.004404522 0.004845484 0.004691506 0.005340529
-0.0050525214 0.0045941602 -0.004845484 -0.004845484 -0.004815559 0.004845484 -0.004769177 0.0016677316
0.0055593583 0.004346674 -0.003894095 -0.004845484 -0.004845484 0.0050544133 -0.004845484 0.0049760123
0.0044667087 0.004845484 0.0017125601 -0.004845484 0.0057740747 -0.004845484 0.00081939716 0.004845484
-0.0042257374 -0.005031451 0.0044322074 -0.004591095 -0.0038094495 0.0045648743 0.0048932587 0.0039306176
-0.004845484 0.0041890047 -0.004845484 -0.005459348 -0.0036845985 -0.004845484 -0.0020412807 0.0049001165
0.004845484 0.0048943995 0.0040052016 -0.004845484 0.0060776765 -0.00494613 -0.003694766 0.004845484
0.004845484 0.004223029 -0.005614114 0.00039664956 0.004845484 -0.004845484 0.004845484 -0.004845484
0.0010326819 -0.004845484 -0.0047722594 0.006034406 0.005888384 -0.004845484 -0.004785508 -0.0047558877

exp_avg_sq f4 [1000, 1]
00000000: cdf3 5935 cdf3 5935 cdf3 5935 cdf3 5935
00000010: cdf3 5935 74ed a235 cdf3 5935 9cf9 6835
00000020: cdf3 5935 cdf3 5935 6946 8235 2ca4 8735
00000030: d3cb 8535 cdf3 5935 cdf3 5935 a8ed 7835
00000040: 9d27 7235 6f4c f735 cdf3 5935 db41 6435
00000050: b341 1f36 d379 6d35 cdf3 5935 1a9f ac35
00000060: cdf3 5935 cdf3 5935 758f b035 7f64 4a35
00000070: cdf3 5935 9319 0436 9d3c 5635 3930 4836
00000080: cdf3 5935 cdf3 5935 cdf3 5935 cdf3 5935
00000090: cdf3 5935 5fe2 ac35 cdf3 5935 e47a 6f35
000000a0: cdf3 5935 c0f8 4a35 cdf3 5935 cdf3 5935
000000b0: f723 9a35 1d2d 5a35 7026 fb35 fd4f a435
000000c0: cdf3 5935 1274 5c35 125f c935 7c17 af35
000000d0: e631 7635 4c22 9535 cdf3 5935 cdf3 5935
000000e0: 36d3 2a36 bd8e 4d35 c134 ea35 cdf3 5935
000000f0: cdf3 5935 5433 a635 094b 4835 d83e 8c35
00000100: 02b8 6935 cdf3 5935 cdf3 5935 cdf3 5935
00000110: 7de1 f035 02f3 b435 7d73 5b35 cdf3 5935
00000120: 316b 0936 c2d1 9635 4c27 2636 cdf3 5935
00000130: cdf3 5935 cdf3 5935 69b6 8635 cdf3 5935
00000140: 3f87 4b35 304e 7935 ec36 1a36 cdf3 5935
00000150: 4e04 7535 2f55 4a35 df6d 9235 cdf3 5935
00000160: 32bb cb35 cdf3 5935 cdf3 5935 f978 1c36
00000170: 9792 c935 3bfe 0c36 cdf3 5935 cdf3 5935
00000180: e398 a435 cdf3 5935 cdf3 5935 cdf3 5935
00000190: 5445 4236 d69f 7935 7abf 4735 5038 5235
000001a0: cdf3 5935 5967 3136 cdf3 5935 cdf3 5935
000001b0: 1e07 1736 6c68 f035 cdf3 5935 cdf3 5935
000001c0: cdf3 5935 776b 3536 cdf3 5935 cdf3 5935
000001d0: 62df 3935 cdf3 5935 cdf3 5935 cdf3 5935
000001e0: f323 6d35 cdf3 5935 cdf3 5935 f4e5 6f35
000001f0: cdf3 5935 cdf3 5935 cdf3 5935 cdf3 5935
00000200: e787 1536 cdf3 5935 cdf3 5935 e135 7935
00000210: 7559 3f35 1d99 8a35 a883 cb35 cdf3 5935
00000220: cdf3 5935 cdf3 5935 edf8 2536 cdf3 5935
00000230: 7fef e935 0ed9 4636 38f7 f235 cdf3 5935
00000240: 5ba0 7435 cdf3 5935 1ba6 8335 cdf3 5935
00000250: 0e57 1d36 cdf3 5935 7f65 ca35 cdf3 5935
00000260: cdf3 5935 a269 8035 c959 8c35 cdf3 5935
00000270: f435 8235 a444 2936 cdf3 5935 779c 5935
00000280: cdf3 5935 cdf3 5935 cdf3 5935 3d23 6f35
00000290: 9e9f ff35 cdf3 5935 245b 5e35 7025 7035
000002a0: cdf3 5935 cdf3 5935 6957 eb35 40dc 9435
000002b0: f6ea b935 cdf3 5935 cdf3 5935 5d4b ce35
000002c0: 8e42 ee35 cdf3 5935 9243 9635 cdf3 5935
000002d0: cdf3 5935 cdf3 5935 9b03 e135 cdf3 5935
000002e0: cdf3 5935 cdf3 5935 cdf3 5935 f1f2 7935
000002f0: 2fa2 9535 cdf3 5935 963b 9f35 f220 9335
00000300: 28f1 6135 bfe7 a335 cdf3 5935 cdf3 5935
00000310: 1d23 4835 cdf3 5935 0853 4835 cdf3 5935
00000320: 578f cc35 fde2 ed35 9b15 2336 cdf3 5935
00000330: cdf3 5935 d5d1 a935 cdf3 5935 ea5e 6f35
00000340: 5ff2 d635 cdf3 5935 cdf3 5935 cdf3 5935
00000350: 5e22 0b36 cdf3 5935 cdf3 5935 cdf3 5935
00000360: 7076 5e35 4a1e 6135 64c2 6e35 2a95 4335
00000370: e101 2e36 793f b735 35c7 6c35 0f94 7835
00000380: cdf3 5935 6092 1736 cdf3 5935 75b4 dc35
00000390: 6880 5836 cdf3 5935 2ff0 9835 e277 7635
000003a0: cdf3 5935 1773 7835 ade7 4436 cdf3 5935
000003b0: ba20 5036 8f45 6735 ebad 5636 cdf3 5935
000003c0: cdf3 5935 f5d2 1136 c5de 0a36 cdf3 5935
000003d0: cdf3 5935 cdf3 5935 cdf3 5935 cdf3 5935
000003e0: 8e65 7635 cdf3 5935 79a2 4a35 01d8 4736
000003f0: 32e2 1d36 cdf3 5935 fc37 4b35 2154 4f35
8.1193576e-07 8.1193576e-07 8.1193576e-07 8.1193576e-07 8.1193576e-07 1.2139049e-06 8.1193576e-07 8.6789964e-07
8.1193576e-07 8.1193576e-07 9.706247e-07 1.0106064e-06 9.968593e-07 8.1193576e-07 8.1193576e-07 9.2733035e-07
9.020967e-07 1.8425179e-06 8.1193576e-07 8.503245e-07 2.3731088e-06 8.846666e-07 8.1193576e-07 1.2861303e-06
8.1193576e-07 8.1193576e-07 1.3154773e-06 7.5397105e-07 8.1193576e-07 1.968442e-06 7.9809416e-07 2.9830392e-06
8.1193576e-07 8.1193576e-07 8.1193576e-07 8.1193576e-07 8.1193576e-07 1.2880881e-06 8.1193576e-07 8.921327e-07
8.1193576e-07 7.5612843e-07 8.1193576e-07 8.1193576e-07 1.1484361e-06 8.1276977e-07 1.8712144e-06 1.2242232e-06
8.1193576e-07 8.212529e-07 1.5003336e-06 1.3045351e-06 9.1714753e-07 1.1111347e-06 8.1193576e-07 8.1193576e-07
2.5454915e-06 7.657616e-07 1.7449712e-06 8.1193576e-07 8.1193576e-07 1.2382902e-06 7.4614996e-07 1.0449103e-06
8.706703e-07 8.1193576e-07 8.1193576e-07 8.1193576e-07 1.7947019e-06 1.348177e-06 8.1751915e-07 8.1193576e-07
2.0476984e-06 1.1236918e-06 2.4758801e-06 8.1193576e-07 8.1193576e-07 8.1193576e-07 1.0036866e-06 8.1193576e-07
7.58202e-07 9.2873506e-07 2.2979757e-06 8.1193576e-07 9.1275876e-07 7.537482e-07 1.0909824e-06 8.1193576e-07
1.517916e-06 8.1193576e-07 8.1193576e-07 2.3316227e-06 1.501833e-06 2.1009607e-06 8.1193576e-07 8.1193576e-07
1.2263448e-06 8.1193576e-07 8.1193576e-07 8.1193576e-07 2.8948607e-06 9.299232e-07 7.441191e-07 7.831304e-07
8.1193576e-07 2.6435212e-06 8.1193576e-07 8.1193576e-07 2.2504896e-06 1.7911784e-06 8.1193576e-07 8.1193576e-07
8.1193576e-07 2.7033655e-06 8.1193576e-07 8.1193576e-07 6.9242935e-07 8.1193576e-07 8.1193576e-07 8.1193576e-07
8.8341693e-07 8.1193576e-07 8.1193576e-07 8.9369064e-07 8.1193576e-07 8.1193576e-07 8.1193576e-07 8.1193576e-07
2.2281836e-06 8.1193576e-07 8.1193576e-07 9.283813e-07 7.128322e-07 1.0326363e-06 1.5162996e-06 8.1193576e-07
8.1193576e-07 8.1193576e-07 2.473181e-06 8.1193576e-07 1.7429555e-06 2.9630642e-06 1.8102355e-06 8.1193576e-07
9.113043e-07 8.1193576e-07 9.808604e-07 8.1193576e-07 2.3445496e-06 8.1193576e-07 1.5079712e-06 8.1193576e-07
8.1193576e-07 9.567486e-07 1.0456944e-06 8.1193576e-07 9.701457e-07 2.5222917e-06 8.1193576e-07 8.1066486e-07
8.1193576e-07 8.1193576e-07 8.1193576e-07 8.9085717e-07 1.9045435e-06 8.1193576e-07 8.283407e-07 8.9461446e-07
8.1193576e-07 8.1193576e-07 1.7534304e-06 1.109096e-06 1.3851957e-06 8.1193576e-07 8.1193576e-07 1.537013e-06
1.7751752e-06 8.1193576e-07 1.1195536e-06 8.1193576e-07 8.1193576e-07 8.1193576e-07 1.6764856e-06 8.1193576e-07
8.1193576e-07 8.1193576e-07 8.1193576e-07 9.3113255e-07 1.1148567e-06 8.1193576e-07 1.1863765e-06 1.0961942e-06
8.416996e-07 1.2211893e-06 8.1193576e-07 8.1193576e-07 7.45569e-07 8.1193576e-07 7.462663e-07 8.1193576e-07
1.5240902e-06 1.7723938e-06 2.4301469e-06 8.1193576e-07 8.1193576e-07 1.265255e-06 8.1193576e-07 8.9172556e-07
1.6014782e-06 8.1193576e-07 8.1193576e-07 8.1193576e-07 2.0732618e-06 8.1193576e-07 8.1193576e-07 8.1193576e-07
8.2873794e-07 8.386311e-07 8.8944785e-07 7.2860223e-07 2.5929114e-06 1.3653035e-06 8.8206735e-07 9.2602653e-07
8.1193576e-07 2.2585955e-06 8.1193576e-07 1.6443797e-06 3.226125e-06 8.1193576e-07 1.1394785e-06 9.1816594e-07
8.1193576e-07 9.255468e-07 2.934113e-06 8.1193576e-07 3.1013465e-06 8.6155427e-07 3.1989719e-06 8.1193576e-07
8.1193576e-07 2.1729477e-06 2.0693271e-06 8.1193576e-07 8.1193576e-07 8.1193576e-07 8.1193576e-07 8.1193576e-07
9.1789923e-07 8.1193576e-07 7.5487293e-07 2.9779042e-06 2.3526486e-06 8.1193576e-07 7.570486e-07 7.7235933e-07

exp_avg f4 [1000]
00000000: dec6 9ebb dec6 9ebb dd8a 893a dec6 9ebb
00000010: dec6 9ebb f2df 8e3b dec6 9ebb 42ff a0bb
00000020: dec6 9ebb dec6 9ebb d39c 5e3b 9543 c43b
00000030: f1f9 4e3b dec6 9ebb dec6 9ebb 9562 b23b
00000040: 6a41 a43b 0157 89bb dec6 9ebb 9eff 953b
00000050: 6882 5f3b 465b b0bb dec6 9ebb 90fb 8c3b
00000060: dec6 9ebb dec6 9ebb 0fda 69bb 84ac 9e3b
00000070: dec6 9ebb 2da9 d73b 12dd 973b 6f0c f13b
00000080: dec6 9ebb dec6 9ebb dec6 9ebb b5d9 a73b
00000090: dec6 9ebb bb8a b3bb dec6 9ebb efdc a63b
000000a0: dec6 9ebb 47c2 a63b dec6 9ebb dec6 9ebb
000000b0: c032 a93b a635 9f3b b6ca d93b e158 8f3b
000000c0: dec6 9ebb a9a4 963b a05e babb b3b6 6fbb
000000d0: c8ca b13b 8f29 933b dec6 9ebb dec6 9ebb
000000e0: d352 e73b 275f d93b 3f72 633b dec6 9ebb
000000f0: dec6 9ebb 1d11 c63b ebe9 9f3b 0475 bc3b
00000100: f803 9ebb dec6 9ebb dec6 9ebb dec6 9ebb
00000110: 2ce4 7a3b a245 8a3b ca64 a03b dec6 9ebb
00000120: f29f 6d3b 73ea 84bb 6fe1 e63b dec6 9ebb
00000130: dec6 9ebb dec6 9ebb 9067 b93b d3c7 893b
00000140: 23d4 9e3b 17b2 a7bb 199b 643b dec6 9ebb
00000150: fbdb a23b e350 a73b 107a 873b dec6 9ebb
00000160: d82b a2bb dec6 9ebb dec6 9ebb b147 613b
00000170: 6647 a4bb 17b1 6a3b dec6 9ebb dec6 9ebb
00000180: 9dd8 c63b dec6 9ebb 8b67 39ba dec6 9ebb
00000190: d6a4 acbb 0dd2 8dbb 3419 a33b 50e2 993b
000001a0: dec6 9ebb 2d5b e53b dec6 9ebb dec6 9ebb
000001b0: ed31 dd3b b53f d53b dec6 9ebb dec6 9ebb
000001c0: dec6 9ebb 75cc eb3b dec6 9ebb dec6 9ebb
000001d0: db98 a13b dec6 9ebb dec6 9ebb dec6 9ebb
000001e0: 61a5 9abb dec6 9ebb dec6 9ebb 16ff a73b
000001f0: dec6 9ebb dec6 9ebb dec6 9ebb dec6 9ebb
00000200: 75e3 d93b dec6 9ebb dec6 9ebb c3ee b23b
00000210: cda1 9c3b d325 bd3b 066f babb dec6 9ebb
00000220: dec6 9ebb 8098 f838 0efa e53b dec6 9ebb
00000230: 08ff a4bb 94ba ef3b c0a5 97bb dec6 9ebb
00000240: 1278 713b dec6 9ebb 321a b93b dec6 9ebb
00000250: 045d 493b dec6 9ebb fc58 ae3b dec6 9ebb
00000260: dec6 9ebb 124e 303a bcdc bc3b dec6 9ebb
00000270: 0dca 90bb 1894 423b dec6 9ebb 41ab 953b
00000280: dec6 9ebb dec6 9ebb dec6 9ebb 044c b13b
00000290: 3afe 5f3b dec6 9ebb c861 a03b 74ff d0b9
000002a0: dec6 9ebb dec6 9ebb 2fdc c1bb 5fed 853b
000002b0: 6032 6dbb dec6 9ebb dec6 9ebb ed1b d23b
000002c0: b1e5 d13b f624 7b3b bb8c abbb dec6 9ebb
000002d0: dec6 9ebb dec6 9ebb bdd0 d43b dec6 9ebb
000002e0: dec6 9ebb dec6 9ebb dec6 9ebb d175 b73b
000002f0: 4b08 bd3b dec6 9ebb f7f4 9ebb b708 c03b
00000300: f53c 8b3b efd7 8d3b 81c6 b8ba dec6 9ebb
00000310: 0029 a13b dec6 9ebb fb8c a03b dec6 9ebb
00000320: 90fc ce3b 012a 7a3b b649 df3b dec6 9ebb
00000330: dec6 9ebb 2ad2 a3bb dec6 9ebb 977f a73b
00000340: dd89 a5bb dec6 9ebb dec6 9ebb dec6 9ebb
00000350: 5e64 dd3b dec6 9ebb dec6 9ebb dec6 9ebb
00000360: 67bf dd3b f4a2 923b ee40 aebb 155f 9d3b
00000370: 2aac e43b b579 8b3b cdb0 9cbb b70a a43b
00000380: dec6 9ebb 22d1 643b dec6 9ebb 0c1c 6b3b
00000390: c04e ed3b dec6 9ebb 0067 8b3b ed56 a23b
000003a0: dec6 9ebb bb6c 9cbb 0207 4c3b dec6 9ebb
000003b0: 6cb0 f13b 7ba1 a13b 76a7 ec3b dec6 9ebb
000003c0: dec6 9ebb 8c48 693b 7c70 563b dec6 9ebb
000003d0: dec6 9ebb dec6 9ebb dec6 9ebb dec6 9ebb
000003e0: c207 a93b dec6 9ebb bf39 a43b 41e3 ee3b
000003f0: 54dd e43b dec6 9ebb 402b a13b e785 a53b
-0.004845484 -0.004845484 0.0010493655 -0.004845484 -0.004845484 0.0043601925 -0.004845484 -0.0049132416
-0.004845484 -0.004845484 0.0033967986 0.0059895017 0.0031582082 -0.004845484 -0.004845484 0.005443881
0.005012681 -0.00419128 -0.004845484 0.004577591 0.0034104828 -0.0053819744 -0.004845484 0.0043024495
-0.004845484 -0.004845484 -0.0035682952 0.004842343 -0.004845484 0.0065814466 0.004634508 0.0073562185
-0.004845484 -0.004845484 -0.004845484 0.0051223882 -0.004845484 -0.0054791844 -0.004845484 0.0050922553
-0.004845484 0.0050890776 -0.004845484 -0.004845484 0.0051635206 0.0048586903 0.0066464795 0.004374609
-0.004845484 0.0045972657 -0.0056875497 -0.0036577403 0.0054257847 0.004491038 -0.004845484 -0.004845484
0.007059434 0.0066336575 0.0034705547 -0.004845484 -0.004845484 0.0060445205 0.00488018 0.005751254
-0.0048222505 -0.004845484 -0.004845484 -0.004845484 0.0038282974 0.0042197267 0.0048948275 -0.004845484
0.0036258665 -0.004056269 0.0070459167 -0.004845484 -0.004845484 -0.004845484 0.0056580976 0.004204729
0.004847066 -0.0051176655 0.0034882484 -0.004845484 0.0049700714 0.005106078 0.004134424 -0.004845484
-0.0049490742 -0.004845484 -0.004845484 0.0034375007 -0.005013394 0.003581112 -0.004845484 -0.004845484
0.006068303 -0.004845484 -0.0007072619 -0.004845484 -0.0052686734 -0.0043280185 0.0049773697 0.004696168
-0.004845484 0.0069993944 -0.004845484 -0.004845484 0.0067503364 0.0065078386 -0.004845484 -0.004845484
-0.004845484 0.007196004 -0.004845484 -0.004845484 0.004931552 -0.004845484 -0.004845484 -0.004845484
-0.0047194217 -0.004845484 -0.004845484 0.005126844 -0.004845484 -0.004845484 -0.004845484 -0.004845484
0.0066494294 -0.004845484 -0.004845484 0.0054605915 0.0047800303 0.0057723313 -0.0056895046 -0.004845484
-0.004845484 0.00011853967 0.007018334 -0.004845484 -0.005035285 0.007315943 -0.0046279132 -0.004845484
0.003684525 -0.004845484 0.0056488747 -0.004845484 0.0030725608 -0.004845484 0.0053206664 -0.004845484
-0.004845484 0.00067255006 0.0057636183 -0.004845484 -0.0044186176 0.0029690322 -0.004845484 0.004567534
-0.004845484 -0.004845484 -0.004845484 0.005410673 0.003417863 -0.004845484 0.004894469 -0.0003986318
-0.004845484 -0.004845484 -0.0059161405 0.0040871347 -0.0036193356 -0.004845484 -0.004845484 0.0064120204
0.006405555 0.003832159 -0.0052352822 -0.004845484 -0.004845484 -0.004845484 0.00649461 -0.004845484
-0.004845484 -0.004845484 -0.004845484 0.0055987616 0.005768811 -0.004845484 -0.0048509794 0.005860414
0.00424921 0.00432872 -0.0014097245 -0.004845484 0.0049182177 -0.004845484 0.0048996187 -0.004845484
0.006316729 0.003817201 0.006814207 -0.004845484 -0.004845484 -0.0049994187 -0.004845484 0.0051116454
-0.005051835 -0.004845484 -0.004845484 -0.004845484 0.0067563495 -0.004845484 -0.004845484 -0.004845484
0.0067672017 0.004474992 -0.005317799 0.0048025944 0.0069785314 0.004256452 -0.0047818185 0.00500616
-0.004845484 0.0034914692 -0.004845484 0.0035874872 0.0072420537 -0.004845484 0.004254222 0.00495421
-0.004845484 -0.004773704 0.0031132107 -0.004845484 0.0073757675 0.00493258 0.0072221113 -0.004845484
-0.004845484 0.003559622 0.0032720855 -0.004845484 -0.004845484 -0.004845484 -0.004845484 -0.004845484
0.0051583955 -0.004845484 0.0050117667 0.0072902744 0.006984392 -0.004845484 0.004918486 0.005051363

exp_avg_sq f4 [1000]
00000000: cdf3 5935 cdf3 5935 5ed3 5735 cdf3 5935
00000010: cdf3 5935 17a9 0936 cdf3 5935 3e85 7235
00000020: cdf3 5935 cdf3 5935 d928 de35 39e2 4836
00000030: 4e3b f035 cdf3 5935 cdf3 5935 7510 b335
00000040: f150 8835 9bcb 8e36 cdf3 5935 6bbb 5736
00000050: 829c dc36 9de7 8535 cdf3 5935 f06f 1b36
00000060: cdf3 5935 cdf3 5935 6e9c 8735 70ca 8a35
00000070: cdf3 5935 358b c436 463e b135 4b9c 3637
00000080: cdf3 5935 cdf3 5935 cdf3 5935 94c8 9735
00000090: cdf3 5935 cbaf c835 cdf3 5935 0b77 8735
000000a0: cdf3 5935 5835 8835 cdf3 5935 cdf3 5935
000000b0: c5ce 1b36 6419 7b35 187a c436 a5fb 0b36
000000c0: cdf3 5935 a4c9 c135 8bdb 0136 24d1 e335
000000d0: 74cf a935 d843 e135 cdf3 5935 cdf3 5935
000000e0: d0ab 1537 29a8 8036 dce9 bb36 cdf3 5935
000000f0: cdf3 5935 19d9 4236 e8b6 8735 2e32 0336
00000100: e85b 5c35 cdf3 5935 cdf3 5935 cdf3 5935
00000110: 9c7e 8f36 273d 2b36 c578 8035 cdf3 5935
00000120: a617 b136 c503 7535 745a 1037 cdf3 5935
00000130: cdf3 5935 cdf3 5935 b65d ea35 1068 2e35
00000140: f427 8635 17fd 8235 2c56 d236 cdf3 5935
00000150: 7aff 8a35 1a41 8835 03c1 3436 cdf3 5935
00000160: 7ada 0836 cdf3 5935 cdf3 5935 ef07 d736
00000170: 27e5 4c36 673b b836 cdf3 5935 cdf3 5935
00000180: 5eb2 3e36 cdf3 5935 1a6c 5235 cdf3 5935
00000190: 5dd1 be36 e489 6035 fab2 8635 cfb4 a735
000001a0: cdf3 5935 7529 1137 cdf3 5935 cdf3 5935
000001b0: 1a79 eb36 41c6 b836 cdf3 5935 cdf3 5935
000001c0: cdf3 5935 138a 2137 cdf3 5935 cdf3 5935
000001d0: 05f0 0e36 cdf3 5935 cdf3 5935 cdf3 5935
000001e0: 5daf 4335 cdf3 5935 cdf3 5935 8a31 8835
000001f0: cdf3 5935 cdf3 5935 cdf3 5935 cdf3 5935
00000200: 3b32 e736 cdf3 5935 cdf3 5935 c548 b335
00000210: 29aa d935 aca7 0a36 e7e3 0336 cdf3 5935
00000220: cdf3 5935 6f4a 6235 3232 1037 cdf3 5935
00000230: 59b9 2f36 4423 3537 414b d035 cdf3 5935
00000240: 5e0e a035 cdf3 5935 dff1 d835 cdf3 5935
00000250: 374d 0a37 cdf3 5935 3335 8d36 cdf3 5935
00000260: cdf3 5935 8689 ae35 df4f 0336 cdf3 5935
00000270: e9ae 5c35 b55a 1737 cdf3 5935 6620 b835
00000280: cdf3 5935 cdf3 5935 cdf3 5935 3156 c535
00000290: 791f d436 cdf3 5935 53e1 8735 9ff2 3535
000002a0: cdf3 5935 cdf3 5935 a1c2 2536 a8c0 3936
000002b0: d9c4 9635 cdf3 5935 cdf3 5935 858e 9036
000002c0: 6974 a936 a0f6 5b35 ec64 9935 cdf3 5935
000002d0: cdf3 5935 cdf3 5935 1764 a636 cdf3 5935
000002e0: cdf3 5935 cdf3 5935 cdf3 5935 e90e df35
000002f0: a11c 1e36 cdf3 5935 86c7 a535 a62f 1436
00000300: 7620 6d35 3caa 0b36 bed9 5935 cdf3 5935
00000310: d2ca 8635 cdf3 5935 1f08 8935 cdf3 5935
00000320: c1e3 8e36 13b6 8c36 52e0 0137 cdf3 5935
00000330: cdf3 5935 c898 2436 cdf3 5935 03c7 8735
00000340: 3fe9 0f36 cdf3 5935 cdf3 5935 cdf3 5935
00000350: d19d e336 cdf3 5935 cdf3 5935 cdf3 5935
00000360: 0d64 8636 3e4e c935 e920 8435 d64c b035
00000370: c4ac 0d37 5919 2f36 f2b1 4735 fb13 8f35
00000380: cdf3 5935 7e33 cd36 cdf3 5935 3d55 ad36
00000390: d966 3937 cdf3 5935 2d7f 1a36 cba1 8c35
000003a0: cdf3 5935 fa87 4a35 8f15 1437 cdf3 5935
000003b0: 6a8d 3f37 d809 a935 c173 3737 cdf3 5935
000003c0: cdf3 5935 37ab c136 2244 ec36 cdf3 5935
000003d0: cdf3 5935 cdf3 5935 cdf3 5935 cdf3 5935
000003e0: f16f 8a35 cdf3 5935 8623 8635 b749 3637
000003f0: 7ffe 0637 cdf3 5935 8e87 8235 01a9 8a35
8.1193576e-07 8.1193576e-07 8.040132e-07 8.1193576e-07 8.1193576e-07 2.0513014e-06 8.1193576e-07 9.034592e-07
8.1193576e-07 8.1193576e-07 1.6552177e-06 2.9934001e-06 1.7898653e-06 8.1193576e-07 8.1193576e-07 1.3341329e-06
1.0156347e-06 4.2556326e-06 8.1193576e-07 3.2146588e-06 6.574731e-06 9.97668e-07 8.1193576e-07 2.3161956e-06
8.1193576e-07 8.1193576e-07 1.0103811e-06 1.0340718e-06 8.1193576e-07 5.857461e-06 1.3205652e-06 1.0884435e-05
8.1193576e-07 8.1193576e-07 8.1193576e-07 1.1308753e-06 8.1193576e-07 1.4952324e-06 8.1193576e-07 1.009293e-06
8.1193576e-07 1.0148315e-06 8.1193576e-07 8.1193576e-07 2.3217156e-06 9.3541735e-07 5.8554688e-06 2.085909e-06
8.1193576e-07 1.4438306e-06 1.9350289e-06 1.6973686e-06 1.2651858e-06 1.6783551e-06 8.1193576e-07 8.1193576e-07
8.921095e-06 3.8342737e-06 5.600259e-06 8.1193576e-07 8.1193576e-07 2.903462e-06 1.0111517e-06 1.954973e-06
8.209013e-07 8.1193576e-07 8.1193576e-07 8.1193576e-07 4.2764714e-06 2.551658e-06 9.571892e-07 8.1193576e-07
5.277764e-06 9.12751e-07 8.604129e-06 8.1193576e-07 8.1193576e-07 8.1193576e-07 1.7461632e-06 6.497148e-07
9.995406e-07 9.759414e-07 6.2685194e-06 8.1193576e-07 1.0356155e-06 1.0151737e-06 2.6934438e-06 8.1193576e-07
2.039275e-06 8.1193576e-07 8.1193576e-07 6.408423e-06 3.0531753e-06 5.4905427e-06 8.1193576e-07 8.1193576e-07
2.841603e-06 8.1193576e-07 7.8388405e-07 8.1193576e-07 5.6868143e-06 8.364716e-07 1.0035867e-06 1.2495092e-06
8.1193576e-07 8.652326e-06 8.1193576e-07 8.1193576e-07 7.017644e-06 5.506707e-06 8.1193576e-07 8.1193576e-07
8.1193576e-07 9.628496e-06 8.1193576e-07 8.1193576e-07 2.1299359e-06 8.1193576e-07 8.1193576e-07 8.1193576e-07
7.289835e-07 8.1193576e-07 8.1193576e-07 1.0147207e-06 8.1193576e-07 8.1193576e-07 8.1193576e-07 8.1193576e-07
6.890184e-06 8.1193576e-07 8.1193576e-07 1.3357718e-06 1.6217283e-06 2.06612e-06 1.9653178e-06 8.1193576e-07
8.1193576e-07 8.4299876e-07 8.594756e-06 8.1193576e-07 2.6184919e-06 1.0796652e-05 1.5519109e-06 8.1193576e-07
1.192511e-06 8.1193576e-07 1.6163648e-06 8.1193576e-07 8.243419e-06 8.1193576e-07 4.2083207e-06 8.1193576e-07
8.1193576e-07 1.3004035e-06 1.9567012e-06 8.1193576e-07 8.2210914e-07 9.021421e-06 8.1193576e-07 1.3718497e-06
8.1193576e-07 8.1193576e-07 8.1193576e-07 1.4702729e-06 6.3217562e-06 8.1193576e-07 1.0123862e-06 6.7780815e-07
8.1193576e-07 8.1193576e-07 2.4700205e-06 2.767929e-06 1.1233161e-06 8.1193576e-07 8.1193576e-07 4.308126e-06
5.0501444e-06 8.1942744e-07 1.142876e-06 8.1193576e-07 8.1193576e-07 8.1193576e-07 4.9588375e-06 8.1193576e-07
8.1193576e-07 8.1193576e-07 8.1193576e-07 1.6619134e-06 2.35605e-06 8.1193576e-07 1.2351527e-06 2.2081454e-06
8.8336617e-07 2.0811704e-06 8.1155656e-07 8.1193576e-07 1.0042806e-06 8.1193576e-07 1.0209659e-06 8.1193576e-07
4.258444e-06 4.1935214e-06 7.741228e-06 8.1193576e-07 8.1193576e-07 2.4526835e-06 8.1193576e-07 1.0116204e-06
2.1444428e-06 8.1193576e-07 8.1193576e-07 8.1193576e-07 6.7834994e-06 8.1193576e-07 8.1193576e-07 8.1193576e-07
4.0051586e-06 1.4998438e-06 9.844345e-07 1.3135384e-06 8.44448e-06 2.6091786e-06 7.439222e-07 1.0660145e-06
8.1193576e-07 6.1154706e-06 8.1193576e-07 5.165725e-06 1.1050805e-05 8.1193576e-07 2.3021814e-06 1.0477901e-06
8.1193576e-07 7.5448736e-07 8.826507e-06 8.1193576e-07 1.1417413e-05 1.2594346e-06 1.0934601e-05 8.1193576e-07
8.1193576e-07 5.7717803e-06 7.04128e-06 8.1193576e-07 8.1193576e-07 8.1193576e-07 8.1193576e-07 8.1193576e-07
1.031438e-06 8.1193576e-07 9.994117e-07 1.0865208e-05 8.046277e-06 8.1193576e-07 9.725206e-07 1.0330988e-06
